MMBenchmarkingCode/HTGN-EvoGCN/data/output/log/neurips10/HTGN/model_checkpoint.pth (torch, 470322 bytes, 18 tensors)

feat f4 [327, 327]
00000000: 1bb2 653b 1702 83bd 75d6 6ebc ca75 0ebd
00000010: 7b24 f13b 0259 833d a833 863d 5844 ab3d
00000020: 0075 be3b 6701 c23c 824b 15bd 9d56 97bd
00000030: eafd 153c 4c35 a6bd b00f 883c 353e 783d
00000040: 172f a73d 85fe bc3d 2640 f53c f43f 943c
00000050: 065a aa3b 1f7c c03d a2c3 dc3c f4a3 823d
00000060: af27 6c3d 4a53 813d 8254 bf3c d649 823c
00000070: 5e1a f7bc 67db 8e3d 7c50 63bd 0685 583a
00000080: 3dfc 2c3d cbca f53c c0d6 40bd ec23 47bc
00000090: 50c9 bebd cbdc 523c 568c 23bd 81d7 c3bd
000000a0: b6a8 bf3d b03d 7ebd a145 973d ad2d 16bd
000000b0: 0edc ae3d 0f6c e3bc 4e30 8abd 5ab8 20bd
000000c0: e1f1 90bc e828 34bd b141 a5bd 6444 4e3b
000000d0: d571 b6bd 0cfb b63c dcbf 74bd 945f 5dbd
000000e0: 7abe 3ebd eb94 b8bd 09d2 8fbd 41f9 bdbd
000000f0: 54c0 6d3d 173c 613c a6da 23bd a97f b63d
00000100: f4fb 863d f6fa b2bb 146e fd3c cf27 42bc
00000110: a61f 773d 986a cabc c534 cc3c 28a5 76bc
00000120: 3579 dcbc 3f8b febc 8741 6dbd 6bb4 7d3d
00000130: 2b60 47bd 63de 1fbb dc26 c4bd c4d1 ee3c
00000140: a0fc 92bd 10b7 61bd c639 fbbc 5374 7c3d
00000150: ced4 ee3c da93 9e3d 1e82 01bd 5b5d b13d
00000160: 41bd 83bc db97 53bc 2f46 163c 17d4 8bbd
00000170: eabc c23d 33c0 69bd 8bd1 8b3d 771d 22bd
00000180: 88ac 883c 0ee7 43bd d785 09bd 8793 c53c
00000190: 27a9 8f3d 55a4 ccbc 35bc a1bd e015 16bd
000001a0: 6d2f 8b3c 4672 f73c e114 553c feb2 80bd
000001b0: 0601 c4bd 3947 91bc 9b45 40bd 81cf 933c
000001c0: d288 ccbb 73be 0abc 3afa 85ba 2150 603d
000001d0: 387a 2a3d e00a 77bd 35c8 a6bd 4083 ad3d
000001e0: 0838 aa3d d57b 89bd f928 033d b4de af3d
000001f0: a0b1 a33d f8fc 3cbd 9a6f eabc 325f c03d
00000200: 86a5 94bd 6d05 8b3d e32b 1dbc f68d a8bd
00000210: 3b37 123c 7ab8 923d f1f4 46bc b191 343d
00000220: 30f4 95bd ee7c 57bd dcdf 9a3d 8642 4b3d
00000230: 1da2 b73b 0c9c 083d 760b 3b3c 1060 f33c
00000240: 7cca 9cbd b9cf 993d bb29 0cbd b6a4 173d
00000250: 5210 bd3d 7f19 9c3d d831 8d3d 14e8 9bbd
00000260: c5b0 95bd 55c8 673c 3bd8 b63c a44b 4dbd
00000270: 7258 b13d 33eb 90bd 41dd 3d3d 3fb9 6e3d
00000280: 6aba e53c 774c 28bd d426 3e3d 46e0 c13d
00000290: 32f9 903d 01a3 b83d 61a4 ab3b b25f 09bd
000002a0: f9af c33d 4e7d f53c 9193 42bd cae3 94bc
000002b0: 6d05 073d 53ad a8bc bd3e 563d ef92 973c
000002c0: ea1b 10bd 47fb 763d 9d15 173d fb04 963d
000002d0: 3350 b2bd ecde 5e3d 26f2 b1bc c3af 66bd
000002e0: 4750 26bd c5b6 b5bd 2ebf 9ebd 6312 c5bc
000002f0: 206a a23d 5968 243d d6d9 bbbd df2a bbbd
00000300: c9ed f7ba e0da bc3d 0e4a e33c 7dba 3ebd
00000310: 21e3 283c 1258 9cbd 5ee4 a53c 45d7 7dbd
00000320: 56c8 a93d 2a6c 373d 5a9d a4bd 021e 203d
00000330: 4a42 bc3d d249 c13d 3555 593c 0d58 bd3d
00000340: 1d80 c7bc 1082 c23d e2c4 b9bd 5d13 4bbb
00000350: 56fb 5a3d 7b5e 86bd 15b7 863d 8540 a13c
00000360: 63b2 4bbd 9914 04bd b98e 24bd 23be 70bd
00000370: dba9 64bd 2f97 083d c784 c23d d25b 8b3c
00000380: d62c 82bd 8849 903d 72cd 1c3c 6897 75bd
00000390: 5af4 86bd d59b 30bd 120b b1bc aaa0 91bd
000003a0: 639e 3e3d 37de 75bc e2ad 23bd c27f 21bd
000003b0: ca49 91bd f2a6 b33d fcfb 7f3b ff8e 33bd
000003c0: f80f 2dbd f642 51bd dec2 1e3d 2e6f acbd
000003d0: 7ce3 6e3c 34b7 8fbd b228 22bd ef17 0fbd
000003e0: 362e 40bd d64d e23b 1213 21bd 7b28 973d
000003f0: 210d f8bc f946 86bd 0ad0 593d 4fd2 74bd
0.0035048786 -0.06396883 -0.014577498 -0.0347803 0.007359085 0.06413461 0.065528214 0.08362645
0.0058122873 0.02368231 -0.036448963 -0.07389567 0.009154776 -0.08115634 0.016609043 0.0606062
0.081632785 0.09228233 0.029937815 0.018096901 0.00519872 0.09398674 0.026948754 0.06378928
0.057655033 0.06314714 0.023355726 0.015904348 -0.03016394 0.069754414 -0.055496678 0.0008259568
0.04223274 0.030003926 -0.0470798 -0.012154561 -0.09315741 0.012870024 -0.039928757 -0.095625885
0.09358351 -0.06207055 0.073863275 -0.036664654 0.08538066 -0.027761487 -0.06747495 -0.03923831
-0.017693462 -0.043984324 -0.0806917 0.003147387 -0.089084305 0.022336505 -0.059753284 -0.05404623
-0.04656837 -0.09012779 -0.07022483 -0.09276057 0.058044747 0.013747237 -0.04000344 0.08911068
0.06591025 -0.005462046 0.030936278 -0.011850311 0.060332917 -0.024709031 0.024927506 -0.015054025
-0.026913265 -0.031072257 -0.05792382 0.061939638 -0.048675697 -0.0024394027 -0.09577724 0.029152758
-0.07177091 -0.055106223 -0.030667197 0.061634373 0.029154208 0.07743044 -0.03161823 0.08660384
-0.016081454 -0.012914623 0.0091720065 -0.06827562 0.09508689 -0.05706806 0.068270765 -0.03957888
0.016683832 -0.047827773 -0.033574905 0.024118198 0.07014685 -0.024980703 -0.07897226 -0.036641955
0.016990388 0.030205857 0.013005466 -0.0628414 -0.09570508 -0.017734157 -0.04694138 0.018043282
-0.006241896 -0.008468258 -0.0010221668 0.054763917 0.041620463 -0.060313106 -0.08143655 0.084722996
0.08311468 -0.06713072 0.032021496 0.08587399 0.07992864 -0.046139687 -0.028617669 0.09393157
-0.072581336 0.06788144 -0.009592983 -0.08230202 0.008924301 0.07164092 -0.0121433595 0.044084255
-0.07321966 -0.052609377 0.07562229 0.04962399 0.005604042 0.033351943 0.011416307 0.029708892
-0.07655808 0.07510323 -0.034219485 0.037022315 0.092316285 0.076220505 0.068942726 -0.07612625
-0.07309107 0.014146884 0.022319904 -0.050120965 0.08659448 -0.07076111 0.046353582 0.058282133
0.02804299 -0.041088548 0.046423748 0.09466605 0.0707878 0.090154655 0.0052381014 -0.033538528
0.095550485 0.029966976 -0.04750401 -0.018175025 0.03296416 -0.02059046 0.052305926 0.01850268
-0.03518287 0.06029823 0.036885846 0.07325169 -0.08706703 0.054411814 -0.02172191 -0.056319963
-0.040603902 -0.08872751 -0.077513084 -0.024056619 0.07930398 0.040138576 -0.09172408 -0.091390364
-0.001891547 0.092214346 0.027745273 -0.046564568 0.010308058 -0.076339856 0.020250496 -0.061972875
0.08290164 0.044780888 -0.08037825 0.039091118 0.09192331 0.09437908 0.013264944 0.0924531
-0.024353081 0.09497464 -0.090707555 -0.0030986883 0.05346235 -0.065609895 0.06577889 0.019684086
-0.04973067 -0.032246206 -0.040175173 -0.05877508 -0.05582605 0.033347305 0.094979815 0.017011557
-0.06356208 0.07045275 0.009570466 -0.059958845 -0.06589575 -0.043117363 -0.021611724 -0.07110722
0.046537768 -0.015006593 -0.03996075 -0.03942848 -0.07094152 0.08772077 0.0039060107 -0.043837544
-0.042251557 -0.05108925 0.03876006 -0.08419643 0.014580604 -0.07017365 -0.03958959 -0.034934934
-0.04691907 0.0069062514 -0.039324827 0.07380768 -0.030279698 -0.06556506 0.053176917 -0.05977088

Q f4 [16, 16]
00000000: 92af f3bc c4cf 1dbf ddd7 813e e4f7 9c3f
00000010: c918 93be bd69 10bd e67c 73bf 8d96 2a3d
00000020: 2695 59bf 1495 c33f 8aa4 8bbf 4e71 9bbe
00000030: 69ff 8ebc 5994 a33e 532b aabe 0d25 8f3f
00000040: 5d18 c23d ecd9 fabe d912 ef3e c0d6 92bc
00000050: e5df f2bd d5ee 7dbf 7cc8 9bbc deba dabd
00000060: 4752 1f3f 184d cf3d bcc8 0bbd 9109 b73d
00000070: 8089 bbbe e5da 03bf cf9c 9d3e c8dd 993e
00000080: 27e8 5dbc 87d3 8c3d 78f1 e73e d4e4 5fbf
00000090: 8ac8 dd3e 14f5 cbbe 5e1c 24be 80c3 09be
000000a0: bce9 5c3e 7af2 9bbe 0254 fe3e f95b 723e
000000b0: 7905 efbd 3a17 6fbe a8d5 da3e d9ab 4cbf
000000c0: bd0f 6cbe 7043 8b3f 5cdd d43e f54a d4bf
000000d0: 23f5 943f 7487 bdbf b492 d5bf aa14 503f
000000e0: aff4 f4be 088f bdbf 93e2 af3f def4 103f
000000f0: 0b23 523f c81a 0b3f 4df6 4e3f 63c9 87bf
00000100: e5d7 f73d f719 b0be 2992 b5be b3b9 eb3e
00000110: 9b7c 11bf b106 ac3d efd2 96bd 2fed 17be
00000120: b905 583e e9e8 0fbd 5503 87be 97db 593e
00000130: e6e1 e4be 721a abbe be26 70bd 9239 893e
00000140: cdee 953e a268 1cbf 8105 79bf f08d 6cbf
00000150: 20ef 7e3c 885a bf3f ebe1 f2bd e1b2 05bf
00000160: 92a4 9b3f 9ec8 87bf b589 d5be 3f0e 733e
00000170: 4851 c1be 4f66 1dbf 2468 81be a74b 1dbf
00000180: 2dd5 c3bd 3c31 f1bb 6ba5 d63e f291 d6be
00000190: 83f6 80be 2f70 81be 38c8 043f cecd 86be
000001a0: 5824 05bd 683a b7be 7bc6 48be 5e4d 76bd
000001b0: b6d3 96be 8838 6ebe a3e6 093f 49f3 5a3d
000001c0: 96c5 a73e 0fc3 17be 5489 0c3e f0c6 09bf
000001d0: 9313 0abe 3ea1 bd3d 0576 ff3e 2cf1 dc3d
000001e0: b353 0cbe 1ce8 4bbe d3e1 ca3d 8fca 1f3e
000001f0: df56 693e 4309 7fbd 734b 9a3d 24c7 ba3e
00000200: f627 84be 767f 413d cec7 d43e d2d0 89bf
00000210: e05f 853f ac0b 8abe c518 5dbf f97c 353f
00000220: b42a c4be 9d4c 5abf 7262 643e 4f87 2a3e
00000230: 952b 243e 38ad 233f 0695 2f3e b190 04bf
00000240: 17cb 14bf ed6b 223f 8b45 cf3e e070 59bf
00000250: a096 813f d0d3 dbbf f60e e4be c64e c73e
00000260: 9d77 12bf 66e8 98bf df6a 243f 49f4 633e
00000270: 65fe 603e 6c01 0f3f 605a 793f bee4 d3be
00000280: 7392 003f 3929 00be 4334 41bf 2143 17be
00000290: 24c0 21bf 5e37 ac3f c3d6 9c3e 3c20 fa3d
000002a0: 5041 4fbe 02db 07bf bc4b 8f3d 0594 db3e
000002b0: 8893 4a3c 60e6 823d 70c4 c33e 9423 59be
000002c0: 65ec a5be 1cb2 123f 97e5 ff3e de71 4ebf
000002d0: 3191 ca3e a4c3 e7bd 1a33 cdbf 0377 f13e
000002e0: 90eb 9cbd 5006 00bf 3471 1e3e e2c7 bc3d
000002f0: bbd9 2b3f 9047 243f 5fa4 5a3e c046 05bf
00000300: 228f 72be 81ac f4bd fb46 9fbe 94ef b23e
00000310: 1f02 89be cf2a 163f 33d0 953f 56da 68be
00000320: 513d 4fbe 7f82 15bd 4fc3 dbbd f741 9c3d
00000330: 3661 21be eaf9 0c3e 7ba8 fe3d e616 a9be
00000340: 09f6 bb3e 67d3 61bf 4c1f 04bf c965 493f
00000350: df9e 49bf dcf3 1040 afe5 9e3d e70a d7be
00000360: a1fa 823d d5ab 823f 3639 11bf 32ad 42be
00000370: 3c8b 20bd 7d08 69be 99c5 8fbe 6ea9 023f
00000380: 46ca 46be e997 a2bd a2ab a63e fca6 ca3e
00000390: eef7 8a3e 38cd 99be d941 713e 3859 3f3e
000003a0: da48 5cbd b477 a93e 3bf2 d73e 049c 173d
000003b0: 7032 a83d 6613 973e b24e 95be 9aa4 82be
000003c0: 72b6 033f d79f 59bf 1d3c a7be 5e08 7fbf
000003d0: 52a2 18bf a3e5 293f 2415 9e3d 7266 083c
000003e0: 25fb 1f3f 721d a7bf 9851 38bf 9a5e 133d
000003f0: 081c 76bf 3b10 91bf 31f8 2a3e 316e 0abf
-0.029746804 -0.6164515 0.25360003 1.226315 -0.28729847 -0.03525709 -0.95112455 0.041647483
-0.8499321 1.527987 -1.0909588 -0.30359882 -0.017455773 0.31949118 -0.3323618 1.1183182
0.09477303 -0.48994386 0.46694067 -0.017924666 -0.11859111 -0.99192554 -0.019016497 -0.10680173
0.6223492 0.10122126 -0.034126982 0.089373715 -0.36628342 -0.5150588 0.30783698 0.30052018
-0.013544119 0.06876283 0.45301414 -0.8745854 0.43317062 -0.39835417 -0.16026446 -0.13453484
0.21573538 -0.30458432 0.49673468 0.23667897 -0.11670966 -0.23348704 0.42741132 -0.7994972
-0.23052879 1.0879955 0.41575134 -1.6585375 1.163731 -1.4806962 -1.6685395 0.8128153
-0.4784293 -1.4809275 1.374102 0.5662364 0.8208472 0.5433774 0.80844575 -1.0608333
0.121017255 -0.3439481 -0.35463074 0.46040115 -0.5683076 0.08399714 -0.07364451 -0.14836572
0.21095933 -0.03513423 -0.2636973 0.21275173 -0.44703597 -0.33418614 -0.058630697 0.26801735
0.29283753 -0.61097157 -0.97274023 -0.9240408 0.0155599415 1.4949503 -0.11859497 -0.5222607
1.2159598 -1.0608099 -0.41706625 0.23735903 -0.37757325 -0.61484236 -0.25274765 -0.6144356
-0.095621444 -0.0073606055 0.4192308 -0.41908222 -0.25188074 -0.25280902 0.5186801 -0.26328892
-0.032505363 -0.35786748 -0.19606964 -0.060132377 -0.29458398 -0.23263752 0.5386755 0.05345467
0.32767934 -0.14820503 0.13724262 -0.5381918 -0.1348403 0.0925927 0.4989473 0.107881874
-0.13703804 -0.19912761 0.09906354 0.15604614 0.22787045 -0.062264692 0.07533922 0.36480057
-0.25811738 0.047240697 0.4155869 -1.0766852 1.0419884 -0.2696203 -0.8636592 0.7089382
-0.3831383 -0.8527315 0.22303179 0.16653179 0.1603225 0.63936186 0.17146692 -0.5178328
-0.5812239 0.6344593 0.40482745 -0.8493786 1.0124092 -1.7174015 -0.44542664 0.38927287
-0.57213765 -1.1945922 0.6422557 0.22261156 0.21972044 0.55861545 0.97403526 -0.41385454
0.50223464 -0.12515725 -0.7547037 -0.14771701 -0.6318381 1.3454397 0.306326 0.122131795
-0.20239758 -0.53068554 0.06996867 0.42886367 0.012364276 0.06391597 0.38235807 -0.21204978
-0.32406917 0.57303023 0.4997985 -0.806425 0.39563897 -0.11316612 -1.603122 0.4716111
-0.076621175 -0.5000963 0.15472871 0.09217812 0.67129105 0.64171696 0.21351765 -0.5206108
-0.23687413 -0.11946965 -0.3110884 0.3494841 -0.2675943 0.5865907 1.1704162 -0.22739539
-0.20238234 -0.036501404 -0.107306115 0.07629769 -0.1575974 0.1376721 0.12434479 -0.33025283
0.36711147 -0.882132 -0.51610255 0.78670937 -0.78758043 2.264884 0.077586524 -0.42000505
0.0639546 1.0208689 -0.5672792 -0.19011381 -0.039195284 -0.22757144 -0.28080443 0.5103978
-0.19413099 -0.07939131 0.3255282 0.39580524 0.2714228 -0.30039382 0.23560275 0.18686378
-0.053780414 0.3309914 0.42176995 0.037014022 0.08212745 0.29506987 -0.29161602 -0.25516206
0.51450264 -0.8500952 -0.3266305 -0.9962214 -0.5962268 0.6636602 0.07718876 0.008325206
0.6249259 -1.3055861 -0.719995 0.03597889 -0.9613652 -1.1333078 0.1669624 -0.5407439

r f4 [16, 1]
00000000: 8526 82be 1976 4d3f 488c 083f c960 93bf
00000010: c995 3d3f f2c5 6dbf eea4 52bf 57ca 3b3e
00000020: 15c9 babe c882 2ebf 0289 b53e f6b6 adbd
00000030: 9701 c83e f16c ba3e cf70 363e 5890 24bf
-0.25420013 0.8025833 0.5333905 -1.1513911 0.7405668 -0.92880166 -0.8228291 0.18338905
-0.36481538 -0.68168306 0.3545609 -0.08482163 0.39063713 0.3641124 0.1781647 -0.6428275

c f4 [3, 1]
00000000: 0000 803f 0000 803f 0000 803f
1.0 1.0 1.0

gru.weight_ih f4 [48, 16]
00000000: 1e48 3e3f 7cd7 a23e fc24 1b3f 0353 733f
00000010: d677 2abb d389 4cbe ac54 34be 55fe 0e3f
00000020: 3037 fc3d 2705 a73e 3dd9 5fbe 6cc4 97be
00000030: 8e85 c33e ba16 b13e fd5b f73e 1f43 433f
00000040: 9e28 743e 5494 8cbd 6d60 60be 799b 183f
00000050: c5f1 cf3e cc99 a8be 6921 88bd 95e9 dbbd
00000060: daf8 b93e b674 883e ea8b 8c3e e86b 803e
00000070: 6137 693f a2b3 f53e 0e94 5e3f 8562 753e
00000080: 6491 833e 8670 713e 2e5c c4bf a81e 0a3f
00000090: 604e 2a3f 948a 3ebd 92cc a23e 3b58 22bd
000000a0: 8ed0 5f3e 69bf 783e 9c67 403e 4aa8 583f
000000b0: f70c 343f 0f86 8b3e 8dd3 9d3d b237 2c3f
000000c0: 07f2 463f 615c 003e 811c 243e 8afc 313f
000000d0: 730f 2e3f 3fb8 81be e1fd 303d d57a e5bc
000000e0: 4637 853f 990d 6b3f ff62 373e d746 883f
000000f0: 3e4a 993f efc8 4e3f a026 213f 38b2 253f
00000100: 8f39 3e3e b6c6 82be 64ed 353e 8628 8a3e
00000110: 1911 e63e f302 ebbe 0dad 093e 6029 763c
00000120: 2a88 753f a103 423f 0dc4 143e 6c5c 243e
00000130: 60ab e23e 798c 033f 1370 643f 8bb6 733e
00000140: babb 083f 29f3 083e 5845 7c3e 8446 313f
00000150: 8ff9 a13e a12e aa3c af66 6fbe 33f5 20bd
00000160: 6da6 4d3f 7ea8 8b3e 3a57 4fbe a946 7d3f
00000170: 7745 a23f 2f1a 163e 5983 6f3f 81e7 353f
00000180: 6b93 8e3e 531b 74be 30c4 8c3b 84d5 3ebe
00000190: d039 3bbd c79e cbbe 6182 473d ca3c 1c3d
000001a0: 1b7e abbd 351f a73e af4e d0bd 9ffe bb3c
000001b0: e881 b63e 1353 e23e 2ac8 0b3e 1f0e e63e
000001c0: 1a89 4d3f 46cb 8dbd 60d5 613e 98da bd3f
000001d0: 5ed1 333f ac96 5dbe 9b44 b33e abfa 7f3d
000001e0: 0ba7 383f 1e14 a83e b39c da3c b95b 773f
000001f0: 3166 733f 76c6 483f add3 7f3f a20a be3e
00000200: 2f7f 4d3f 88da 04be 404b 0a3f e5e6 8b3f
00000210: d009 093f 77ab 08be a56a 063d db22 be3e
00000220: 2be8 213f 1da5 3b3e 6ee6 213e 4095 7b3f
00000230: b374 1a3f 231c f83e bbd0 a53e d956 0f3f
00000240: cf25 8d3f c565 563e 24c3 10be 32fd 143f
00000250: 1d1f 1c3f 69c6 dd3d dca9 9b3e 8596 a23e
00000260: 2d72 2d3f 6d8b 3a3e 0297 273f bd96 473f
00000270: bcf1 923f bc8e 2abe e7a3 cd3e 88e6 463e
00000280: 5e76 5e3f 51ef d83d 22c6 9abd 9606 673f
00000290: da64 a53e c892 a2be b8c6 05bd 921a c3bd
000002a0: d9c7 023f b45b 6d3e 6e83 86be ccb0 313f
000002b0: ef77 273f 76b0 e73e 25fc fd3e de19 b13e
000002c0: a715 5d3e 6bd3 e83e 1f5c c7bd f7da 6e3f
000002d0: 3eed a63e 41dd 3d3e 61e0 123d 2367 36be
000002e0: 3695 823f 914a 013f ebb3 843e cae9 163f
000002f0: f915 713f 81cc ef3e e9ab 113f 10fd 183f
00000300: b44c 173f dcfd 62be f0d3 c13c 51c9 453f
00000310: 495a fc3d eabd 7fbf 6324 09be c1cc 5ebe
00000320: 4c06 ea3e d82b c43e b2ac 4dbe b79d 063f
00000330: cb73 343f 1c43 b83e ca31 093f a865 7a3e
00000340: df17 023f c02b 103c 2442 513e e892 3e3f
00000350: 5fc7 073f 848b 02bf 0431 823e 767f 9e3e
00000360: 3895 a43e 323e 5b3f bc74 753c bb9d d73e
00000370: 925c 183f aae1 f33e 582a f33e e61b 213f
00000380: b799 123f 8422 0a3e 25e5 27bf a7d0 91bd
00000390: 9809 3b3f a573 9e3d a764 8a3d 4f1b 4cbe
000003a0: 3892 193f 8081 84be 7926 5a3e b0fa 803f
000003b0: 5581 7a3f ac3c 293d 859e cd3e ff79 2a3f
000003c0: 6923 513f 8d4d 9b3e 92af 963e 41c1 1d3f
000003d0: 436f 073f d96c 49be 54fb 243e 4c2a b0be
000003e0: ab72 833f 42dc 133f e495 b33d fbf6 0a3f
000003f0: 1dd0 3b3f 3eaa d73e 1e66 3d3f d69d 0d3f
0.7432879 0.31805027 0.6060331 0.9504854 -0.002601137 -0.19974451 -0.17610425 0.5585683
0.12315214 0.32621118 -0.21860214 -0.29642045 0.38187832 0.34587651 0.4831237 0.76274294
0.23843619 -0.06864229 -0.21911784 0.5961223 0.40614143 -0.32929838 -0.066469975 -0.107379116
0.3632267 0.26651543 0.27450496 0.25082326 0.91100127 0.4798861 0.86944664 0.23963363
0.25696862 0.2357808 -1.5340631 0.5395303 0.6652584 -0.046518877 0.317967 -0.039634924
0.21856901 0.24291767 0.18789524 0.8463179 0.7033228 0.27250716 0.07706366 0.67272484
0.77713054 0.1253524 0.16026498 0.6952597 0.67992324 -0.2533588 0.043210868 -0.028012672
1.0407493 0.91817623 0.17908858 1.0646619 1.1975782 0.8077535 0.6294956 0.64725065
0.18576644 -0.2554223 0.17766339 0.26984042 0.4493492 -0.45900688 0.1344492 0.015024513
0.95910895 0.7578679 0.14527912 0.16050881 0.44271374 0.5138622 0.8923351 0.23800103
0.5341145 0.13374008 0.24635828 0.69248223 0.3163571 0.020774188 -0.23379014 -0.03929634
0.8033207 0.27276987 -0.20248118 0.98935944 1.2677449 0.14658426 0.93559796 0.7105637
0.27846846 -0.23838548 0.0042958483 -0.18636137 -0.04570943 -0.39769575 0.048708323 0.03814391
-0.08373662 0.32640997 -0.10171258 0.022948561 0.35645986 0.44204006 0.13650575 0.4493265
0.80287325 -0.06923537 0.22054052 1.4832335 0.70241344 -0.21639508 0.3501328 0.062494915
0.7212989 0.32827848 0.026686048 0.9662433 0.95077807 0.7842783 0.99932367 0.37117487
0.8027219 -0.12973988 0.5402107 1.0929838 0.535306 -0.13346659 0.032816548 0.37135968
0.63244885 0.18324704 0.15810558 0.9827461 0.6033432 0.48458967 0.3238581 0.55991894
1.1027163 0.2093726 -0.1413694 0.58198845 0.60984975 0.10828859 0.3040303 0.31755462
0.67752343 0.18217249 0.65464795 0.77964383 1.1480021 -0.16656011 0.4016411 0.19423878
0.86899364 0.10592521 -0.07557322 0.90244424 0.32303506 -0.3175261 -0.032660216 -0.09526552
0.51086193 0.23179513 -0.26272148 0.69410396 0.6541738 0.45251817 0.49606434 0.34590048
0.21590291 0.454738 -0.097343676 0.93302864 0.32602876 0.18541433 0.035858516 -0.17812781
1.0201786 0.50504404 0.25918517 0.58950484 0.9417415 0.46835712 0.5690294 0.5976114
0.59101415 -0.22167152 0.02366063 0.7726031 0.12321908 -0.9989916 -0.13392787 -0.21757795
0.4570793 0.383147 -0.2008541 0.52584404 0.70489186 0.359887 0.535916 0.24452841
0.50817674 0.008799493 0.20435387 0.7444291 0.5303859 -0.50994134 0.2542802 0.3095662
0.32145095 0.8564178 0.014981445 0.42112526 0.5951625 0.47633106 0.47493243 0.62933195
0.572658 0.13489729 -0.6558402 -0.071198754 0.73061514 0.07736901 0.06757479 -0.19932292
0.5998874 -0.2588005 0.21303739 1.0076504 0.97853595 0.041317627 0.40160003 0.665924
0.81694657 0.30332604 0.29430825 0.6162301 0.52904147 -0.19670428 0.16111499 -0.3440727
1.0269369 0.5775796 0.08768824 0.5428311 0.7336443 0.42122072 0.73983943 0.55318964

gru.weight_hh f4 [48, 16]
00000000: 8b2a 733f 7bff 003e 2c5d debe 11b2 f0be
00000010: 34e2 0fbf 263f 87bd 19a1 33be 4310 093f
00000020: 0458 453b c0a5 cd3d 76df 583e 3b46 203e
00000030: 7041 a5bd 0cdd ff3e fbc9 233f 1a67 8d3e
00000040: 299b bd3d 9ce6 763f 3d4e 293f d593 62be
00000050: c211 b63d 5554 cb3e 9d37 69be f168 283e
00000060: 6255 743e cb33 6ebe 5ead e23c 4318 c23d
00000070: c76e 05be 27ee 213c 4f40 e6bc 6c3d 9abc
00000080: cdcc ddbe c96d 973e 845a a73f 7546 1a3e
00000090: 8b36 093d 19c5 66be e0da 8e3e 0391 61be
000000a0: c84e 893e 1264 033f 7dba 0f3e c962 a03e
000000b0: ee5e 773e 875d 28bf 6cd3 403f cda1 ae3e
000000c0: 8025 85bd 093b d83d 54d4 94bb d396 8abe
000000d0: 2d82 8b3b 5dba bd3d 552d 14be 5879 8c3d
000000e0: 4b77 43be 490e edbd d3fc 73bd 71d0 373d
000000f0: af10 873d 446b 283e f722 2cbe ff24 e03d
00000100: 57e7 fc3e 16d6 e5bd 0cf5 9c3e d095 f73e
00000110: da24 08c0 6cfb 8bbe 4c8b 4dbd a6bf 993e
00000120: 3f27 3cbe 429c 42be 5902 053e 96ab d53d
00000130: 89eb 8b3c 5c34 a83d 305f 36be fe95 05be
00000140: 3edb 63be 4c46 49bd eaf3 9ebb 7604 b83d
00000150: ad20 81be 60f2 33bf dc56 18be a66c 1e3e
00000160: 6ed5 1c3e 41d7 aabe 38f4 be3c 3a3f 7b3e
00000170: dba7 ab3e 6b41 9bbe 3ef4 3fbe bb32 3d3e
00000180: 8598 a13e e51a 2f3f e895 07bf 4e4a 00bb
00000190: 5df8 85be 184f f33e 853c f8bf 44d5 143d
000001a0: 9c22 e8be ce10 03bf 84b0 22bf 79f3 3d3f
000001b0: 705b 203f 3fe6 2a3d d24a 02bd 3787 32be
000001c0: 746c 993d 73bf b83d 7ab2 203e b4fa afba
000001d0: 8f04 533d 6d1c 313e 4bcf 423c 02f2 ddbe
000001e0: 64c4 b6bd 2ede 773d 26a4 993d 661a 1ebe
000001f0: 96af 36bd 0d56 9c3d da5e 9cbe ae3d c7bc
00000200: 336d d0bc b86f bb3e bbf7 8abe 7d8e 6e3e
00000210: 3d43 bfbe 72dd 933e c4ae 07bd 1c6a 44bd
00000220: e204 323f dbe9 74be 1d19 8abe 4389 bf3e
00000230: afeb 8a3e dff3 223e eff8 d93d 9645 9a3e
00000240: 9536 af3e 39bc 06bd 011b 01bf 84d3 d4be
00000250: 15a3 eabd 6f01 103e 42d5 493e 5931 63be
00000260: a3e8 a6bd e01a 683f 18aa a6bd 7e53 203d
00000270: ebf1 2d3e 5864 863e 0665 c43c b549 d4be
00000280: d207 b4be 9141 22be a992 0fbe cc58 64bd
00000290: 76e4 a63d c25b c43e 3420 c5be 085a 8fbd
000002a0: 9b68 22be d9d0 9cbe 8e96 8e3d 38ef 833e
000002b0: dc2f 0ebe af42 203f 9577 4dbe 86e0 853e
000002c0: e0ec 493b 7dac d3bc fea4 08bf 4e0a 34be
000002d0: f471 433e 079d 323e cc7f 6e3e 9ba5 c2be
000002e0: efc5 4b3e 7c90 18be 6d2d a73c 1df4 01c0
000002f0: 636d bc3d 3730 0bbe 8aa8 a53d d88d 80bc
00000300: eb74 1abe 6051 ba3e aa85 37be da64 073e
00000310: 53a3 72bd db7c 103f 1a70 3fbf 0c27 63bd
00000320: 2c33 8c3e 30d7 88be c42b 1b3d 000e 0b3f
00000330: cc33 0040 561a 983c 84f8 23be f0ec e43e
00000340: 903f 20bf 577b e23c 68e4 97be d6e9 cabe
00000350: b67c e1bd 56af a63e 214d 2cbf 8dc7 4f3e
00000360: 1603 1abe c3a2 41be a1aa a23d 128f 2abc
00000370: 19a2 1f3e cb98 e23f ed67 dcbe 0908 db3d
00000380: 1133 3ebe 0559 2f3e c1a8 7a3e a2b9 7bbd
00000390: bfc4 163d bdee ea3d 3923 b83d 701e dd3d
000003a0: 8a01 a23e 97b4 613d 03dd 5ebc 19d8 05be
000003b0: e7f9 553e d330 bebd 6656 19be 04cb a53d
000003c0: 3624 2dbe a9c5 a6bc 710f 113e a6a2 41be
000003d0: e04d 0fbe 0f43 ad3e 5d91 aa3d 3717 6ebe
000003e0: 1b8a 89bd 5b1c 6cbe ffbf 9c3e 0464 83bd
000003f0: 2ce2 c9bd 8442 fe3d dac8 24be 46f8 d7bf
0.9498679 0.12597458 -0.4343046 -0.47010854 -0.56204534 -0.066038415 -0.17541923 0.5354044
0.0030112276 0.1004138 0.21178994 0.15651791 -0.08069122 0.49973333 0.6398007 0.27617723
0.0925811 0.9644563 0.6613501 -0.22126706 0.08890106 0.39712778 -0.22775121 0.16446282
0.23860696 -0.23261945 0.027670559 0.09477284 -0.1303054 0.00988344 -0.028106837 -0.018828116
-0.43320313 0.29575947 1.3074498 0.1506594 0.03349928 -0.22536124 0.27901363 -0.22027974
0.26817918 0.5132457 0.14035983 0.31325367 0.24157307 -0.6576771 0.75322604 0.3410782
-0.06501293 0.10558135 -0.004541913 -0.27068195 0.0042574615 0.092640616 -0.14470418 0.06859082
-0.19088475 -0.1157499 -0.059567284 0.04487652 0.06594979 0.16447169 -0.16810213 0.109445564
0.49395248 -0.11222474 0.30655706 0.48356485 -2.1272492 -0.27340257 -0.050181672 0.3002903
-0.18374346 -0.1900492 0.12989177 0.10433118 0.017080085 0.08213112 -0.17809749 -0.13045499
-0.22251603 -0.049139306 -0.004850854 0.08985226 -0.25220242 -0.7029171 -0.14876884 0.15471134
0.15315792 -0.3336735 0.023309812 0.24535838 0.335265 -0.30323347 -0.18745515 0.18476383
0.31561676 0.6840041 -0.52963114 -0.001957554 -0.2616605 0.4752128 -1.9393469 0.0363362
-0.45338905 -0.51197517 -0.6355059 0.74199635 0.6263952 0.041723486 -0.031809635 -0.17434393
0.07491389 0.09020891 0.15693083 -0.0013426156 0.05151802 0.17296 0.011890243 -0.433487
-0.08924177 0.06051462 0.07502012 -0.15439758 -0.044601046 0.076336004 -0.30541116 -0.024321403
-0.025442695 0.36608672 -0.27142128 0.23296542 -0.37355986 0.28879887 -0.033125654 -0.047952756
0.695387 -0.23917334 -0.26972285 0.3740941 0.27132937 0.15913342 0.106431834 0.30131215
0.3422133 -0.032894347 -0.5043183 -0.41567624 -0.11456887 0.14063047 0.19710258 -0.22186793
-0.08149841 0.9066601 -0.081379116 0.039142124 0.16986816 0.2624843 0.023973953 -0.41462484
-0.35162216 -0.15845324 -0.1402079 -0.055748746 0.08149044 0.38351256 -0.38501132 -0.06999594
-0.15860216 -0.30628088 0.0696231 0.25768447 -0.13885444 0.6260175 -0.20065148 0.2614786
0.0030811355 -0.025839085 -0.5337676 -0.17582056 0.19086438 0.17442714 0.23290938 -0.38016972
0.19899724 -0.14898866 0.020407403 -2.0305245 0.09200551 -0.13592611 0.08088787 -0.015692636
-0.15083663 0.3639021 -0.17922083 0.13222066 -0.05923779 0.56440514 -0.7478043 -0.05545716
0.2738279 -0.26726675 0.037883535 0.5431824 2.0031614 0.018567245 -0.1601277 0.4471202
-0.6259699 0.027646704 -0.29666448 -0.39631528 -0.11010115 0.32555646 -0.6730519 0.20290966
-0.1504024 -0.18909745 0.07942701 -0.010410087 0.15589179 1.7702879 -0.4304804 0.10694892
-0.18574168 0.17123802 0.24478437 -0.06145633 0.036808725 0.11471317 0.08991093 0.10796821
0.316418 0.055103865 -0.013602498 -0.13070716 0.20896111 -0.09286656 -0.14974365 0.08095363
-0.16908345 -0.020357924 0.14166047 -0.18909702 -0.1399455 0.33840224 0.08328507 -0.23251043
-0.06715795 -0.23057692 0.3061523 -0.06415561 -0.09857592 0.124150306 -0.16092244 -1.6872642

gru.bias_ih f4 [48]
00000000: 93b1 583f 77ce 2b3f 8d4a 023f 6b80 143f
00000010: ecae 243f c90e 4f3f 394b 2f3e d758 5f3f
00000020: be88 7c3f dd48 243f 47b9 fc3e a712 593f
00000030: 0928 783e 029c 123f c0a5 1f3f 2b53 463f
00000040: 36de 063e 06e4 33bd 5f1c 9fbd 52d8 0ebd
00000050: 3667 d43d 4d65 943d 1e67 3fbe e1b3 173d
00000060: 84cf a5bd 2a42 8d3c f9bd ab3d 5987 083e
00000070: f53d 7abe df98 4cbe 6f33 bd3d f89f e63d
00000080: b9c8 10be 5187 7bbd aa07 10be 456c 493c
00000090: f157 b63d ab2d 103e 3dc9 013e 5085 0e3e
000000a0: 0faf abbd bf25 49be a783 ae3c c12e 333e
000000b0: 9ffb d4bc ea06 0cbb 6e26 65bd f1da 1b3e
0.84645957 0.67111915 0.50895005 0.5800845 0.6432941 0.80881935 0.17118539 0.87244934
0.9864615 0.6417368 0.49360105 0.84794086 0.24234022 0.572693 0.6236229 0.77470654
0.13170704 -0.043918632 -0.07769083 -0.034874268 0.103712484 0.07245884 -0.1869168 0.03703678
-0.08096221 0.017243464 0.08385844 0.13332881 -0.24437697 -0.1998019 0.09238326 0.1126098
-0.1413907 -0.061408345 -0.14065424 0.01229388 0.08903492 0.14079921 0.12674423 0.13918042
-0.08382999 -0.19643305 0.021303011 0.17498304 -0.025998889 -0.0021366426 -0.055944853 0.15220238

gru.bias_hh f4 [48]
00000000: de4f 293f 5ca7 123f 0cf5 673e 567b 393f
00000010: 6d89 323f 4b07 3a3f acc0 ad3e 2278 653f
00000020: 7739 233f 8e8b 093f ac00 1e3f ae6a 3c3f
00000030: 0fd9 c93e 362a 383f 9766 d03e 76a4 dc3e
00000040: 0b33 59be 1ebe 1cbd 1ffb 963e 36fc 543b
00000050: ae9a 8a3c 02af ab3d ee5e 9dbe 6d30 0e3e
00000060: 3b10 eabc 0484 783e 7d49 52be 9cfe d9bd
00000070: 85ac aabe def0 ccbc 6bee debd 3558 113e
00000080: eeaa 173e 5257 0d3e 50a6 383d 3d3e 21bd
00000090: 3e04 ecbd fae3 30be 8a31 41be 02a4 32be
000000a0: f801 c63d f0ba 013e b580 6bbc 98a3 14be
000000b0: 83aa ed3d a7e5 d73c 52a1 923d 0352 33be
0.6613749 0.5728662 0.22652072 0.7245382 0.69740945 0.7266738 0.3393606 0.89636433
0.6375956 0.5372857 0.61719775 0.7360028 0.39423415 0.7193941 0.4070327 0.43094224
-0.21210878 -0.038267247 0.29488465 0.0032498962 0.01691946 0.083829895 -0.30736488 0.1388566
-0.028572192 0.2426911 -0.20535846 -0.10644266 -0.33334747 -0.025017198 -0.10885318 0.14193805
0.14811298 0.13802841 0.045080483 -0.039365996 -0.11524247 -0.17274466 -0.18866554 -0.17445377
0.09668344 0.12668967 -0.014373948 -0.14515531 0.11604788 0.026354624 0.07159676 -0.17511754

linear.weight f4 [16, 327]
00000000: 94b7 8ebd 4eed be3e 4194 44be 5483 62be
00000010: f15a 34bf 232c 4bbe f825 9bbe a57d 97be
00000020: 6261 a5be 5159 d0be 2c20 ddbe 406c e8be
00000030: fe22 adbe d35b b0be 9686 f1be dc98 45bf
00000040: 8223 c13d dc85 d13d 9d3e 2ebe 00a1 853a
00000050: ddbe 94bd 6f5d 263e 58ea fc3c 288c d73c
00000060: b64d b2bd 97d5 18bd 5ddb 563e 7f9b 0bbf
00000070: 6358 1d3e 31b3 cfbd 695b 49bd a029 cbbd
00000080: 32ab 2bbd a3da 01be c977 b53e 60d5 943e
00000090: 3033 043f 86d8 a3be 5c05 1cbe 4b7d cd3e
000000a0: a1fa ac3e d8f8 283f 63e5 163f 435c d73e
000000b0: f25a 1a3d 8304 c2bd cc30 503e 101e 053e
000000c0: 016b d93e 7896 a23c b016 82be 51ef 7cbc
000000d0: 1d67 51be e11c a3be ffb9 53be fdcc b3be
000000e0: 2f43 263c 5db1 2fbf 58c0 7d3d 2b1d 16be
000000f0: a5b4 2dbd 6f74 0f3d bddd 52bd d2d8 b0bd
00000100: e499 053f 7c65 203e f71f fd3d a5f5 47be
00000110: 9d0c e13e 0212 323e d18c 93be 514b f7bc
00000120: 8cbb 273e 0915 cbbe f528 a73e 2898 d43e
00000130: 04e2 893d 3287 5cbb da9f a5bd c2fc 1dbd
00000140: e0d7 83be 83da 483e c246 b7bd 2621 bdbd
00000150: ae72 a7be e27a cb3c ba56 e23c 9584 dcbd
00000160: 3179 06bd e211 debd 31f3 6fbe fc29 debd
00000170: 7f81 1d3e 6497 85be c01f c2bd cd87 75be
00000180: de78 a9bd 31a0 d2bc 76e5 b3bc 886f 143e
00000190: 8b43 693e 20e9 d13d 2c4e f0be 6032 8ebe
000001a0: ffde 3cbe 6ac2 90be 75d0 bbbd c2ee 4f3e
000001b0: 8ee5 babc f4e0 babd 75d1 18be 9c57 3a3d
000001c0: dae8 8abc c8f1 84bd f70e b83c 8716 7c3c
000001d0: 82c4 6e3e bc58 df3d 9a81 32be 61df 5f3c
000001e0: 0c45 5b3e 691f f4bd dd06 653d d779 2ebe
000001f0: df00 eabb 7306 ee3b afd4 91be 76be 9a3b
00000200: 961a b3bd 15f1 e73b a253 fc3d 3679 cabd
00000210: aea9 363e 508f 81bd 8e38 573e 8c01 10bd
00000220: bb1c 3cbd feed 193d cd09 a93d 8f8a 06be
00000230: 86eb fabd dc68 54be d4ba fcbd 797c 3ebe
00000240: c56d 22be 38a1 d03c 76dd 1bbe dd76 ca3d
00000250: 44df f0bd f414 983c 659e aa3e c490 e2bd
00000260: eceb 1bbe 31a1 cebd f5cf 15bc e38f 8f3d
00000270: 7648 363d c995 893d f7ca 3a3d c0cd 87bd
00000280: c34a 883d 391a 343e 00e4 99bd d33b c73e
00000290: b43d 92be c2e8 42bd a9bf 413d 1b7a 2bbd
000002a0: 6e6c 14bd 4284 0cbe 58e6 cebd 52d1 273d
000002b0: 3a9a a5bd ccc0 23bc 735d e7bd 5eb7 0b3d
000002c0: f7d2 e1bc 9e80 313e e22f 4bbd 0b73 b8bd
000002d0: 1453 113c b57e 99bd 4060 22bd f82e 51bd
000002e0: 69e2 f7bd 90cb 37be d639 0a3d ecf4 a6bd
000002f0: ebc8 c6bd d783 95bc a070 763d a914 0a3e
00000300: 8fa9 bdbc c4c3 ad3b 7e40 ba3d 6f66 d73d
00000310: ab24 833e e6be 90bd 5f34 04be 9f80 5e3c
00000320: a675 343c 6880 083e 2178 3c3e de6b cd3c
00000330: c2a7 3a3d dfa4 93bd df76 073e b0ae 9a3d
00000340: d26b 24be 923c a73d 6377 7ebd a649 8e3b
00000350: 617d 973d 2e82 01bd 11d0 463e 4500 723e
00000360: 7556 5cbd 5fe6 0ebd 6344 fcbd 407f b8bd
00000370: d982 bebd 7b4e 213c cef0 02bd 62f1 413d
00000380: f04e b43b 9488 513d b01d 1d3d 8cc6 763a
00000390: 22f8 c5bd a13e 47bd 098e d4bc 9d0d 17bd
000003a0: 052a 733c 5a65 a9bc 10d5 753d f627 80ba
000003b0: c120 c0bd 51c1 d9bd cdb9 24bd 4c00 26be
000003c0: 9480 363c aa4e 2d3e 4a93 bcbc e5fc 17bd
000003d0: 5c7b 083d 97a8 0e3d a9e0 51bd d178 5e3d
000003e0: c26a d63d 9037 05be d28e b8bd 6522 3e3d
000003f0: 4f39 0c3e a004 593e 4dd4 893e f849 043e
-0.069686085 0.37290424 -0.1919718 -0.2212041 -0.70451266 -0.19841056 -0.30302405 -0.29588047
-0.3230086 -0.40693143 -0.43188608 -0.45395088 -0.3381576 -0.34445056 -0.47172993 -0.7718637
0.09430601 0.1023061 -0.17016073 0.0010195076 -0.07262967 0.1624658 0.030873463 0.026311949
-0.087062284 -0.03731307 0.20982118 -0.54534143 0.15365748 -0.101416 -0.04915944 -0.09920049
-0.04191131 -0.1268106 0.3544295 0.29069042 0.51640606 -0.32001132 -0.1523642 0.40134653
0.33784965 0.66004705 0.58943766 0.42062578 0.03768439 -0.09473517 0.20331115 0.12999749
0.4246445 0.01984714 -0.25407934 -0.015437917 -0.20449491 -0.3185797 -0.2067642 -0.3511733
0.010147854 -0.6863001 0.06195101 -0.14659564 -0.042408604 0.03502315 -0.051480997 -0.08635105
0.52187943 0.15663713 0.123596124 -0.195273 0.43954936 0.17389682 -0.28818372 -0.03018728
0.16380137 -0.39664486 0.32648435 0.41522336 0.06732562 -0.0033649919 -0.0808713 -0.038571127
-0.25750637 0.19614606 -0.08949043 -0.09234838 -0.3270468 0.024838869 0.027629245 -0.107674755
-0.03283042 -0.108432546 -0.23432614 -0.10847852 0.1538143 -0.26092064 -0.09478712 -0.23977585
-0.08275007 -0.02571115 -0.021960001 0.14495671 0.22779672 0.10249543 -0.4693464 -0.27772808
-0.18444441 -0.28273326 -0.091706194 0.20305923 -0.022814538 -0.09124938 -0.14923652 0.045493707
-0.016956735 -0.064914286 0.022468073 0.01538623 0.2331715 0.109055966 -0.17432252 0.0136640975
0.21413058 -0.119200535 0.05591475 -0.17038666 -0.007141217 0.0072639524 -0.28482577 0.0047224117
-0.08745305 0.0070782998 0.12320639 -0.098864004 0.17838165 -0.06326163 0.21017668 -0.035157725
-0.045925837 0.037580483 0.082538225 -0.13138793 -0.12251954 -0.20743126 -0.12340322 -0.1860217
-0.15862186 0.0254675 -0.152212 0.098859526 -0.117613345 0.018564679 0.3332397 -0.11062768
-0.15226716 -0.100893386 -0.009143819 0.07009866 0.044502698 0.067180224 0.04560372 -0.066310406
0.06654885 0.17588128 -0.07514191 0.3891283 -0.285627 -0.047585256 0.047301922 -0.041864496
-0.03623622 -0.13722327 -0.10102528 0.040971108 -0.08086057 -0.009994697 -0.11297121 0.03411042
-0.027566416 0.1733422 -0.04960621 -0.09006318 0.008869905 -0.074948706 -0.039642572 -0.051070184
-0.12103731 -0.17948747 0.033746563 -0.08152184 -0.09706291 -0.018251343 0.060166 0.13484444
-0.02315214 0.005302878 0.09094332 0.105175845 0.25613913 -0.07067661 -0.12910603 0.01358047
0.011014378 0.13330233 0.184052 0.02507585 0.045570143 -0.07209181 0.1322894 0.0755285
-0.16056755 0.0816585 -0.062125575 0.0043422757 0.07396961 -0.03161829 0.19415309 0.23632915
-0.05379339 -0.034887668 -0.12317731 -0.09008646 -0.09302301 0.009845371 -0.03196793 0.04734934
0.005502574 0.05115564 0.03835839 0.0009413741 -0.09666468 -0.048643712 -0.025946634 -0.036878217
0.014841561 -0.020678211 0.060017645 -0.0009777534 -0.09381247 -0.10632575 -0.040216256 -0.16211051
0.011139054 0.16924539 -0.023019452 -0.037106413 0.03332077 0.03482875 -0.051239643 0.05431444
0.10469581 -0.13009477 -0.09011616 0.04641952 0.13693736 0.2119317 0.26919785 0.12918842

linear.bias f4 [16]
00000000: 8f79 f53d ba57 89bd 5431 e7bc 5306 893e
00000010: e581 073d 3d62 2d3e 3701 973e c479 683c
00000020: 4a21 42bd 62be 35be 2a50 693e 740b 83bd
00000030: 06ae 28be 1f2d b03d b532 bb3d 194e 6bbd
0.11986076 -0.06706186 -0.028221764 0.26762637 0.03308286 0.16932006 0.29493114 0.014189187
-0.04739503 -0.17748407 0.22784486 -0.06398669 -0.16472635 0.08602356 0.09140531 -0.057447527

layer1.linear.bias f4 [32]
00000000: c8a7 39bc 5fd6 0dbe e4f1 c9bd a56e 4d3d
00000010: c715 07be 858b d93d a130 af3b b4ee b9bd
00000020: 814e 3ebd 15a3 d9bd 0cf5 e7bd daf5 dcbd
00000030: 6432 303e 5635 e6bd 1f92 113c 8317 4e3d
00000040: 0186 e6bd cdb4 97bc c98c e6bd ee8e 803d
00000050: 4ef0 043e c718 3abc 3f3a ecbd f438 45bd
00000060: 6faa f3bb ca32 b93c 2935 a3bb eba6 ee3b
00000070: 80bb b4bc 3e5a daba e0b8 8d3d cd97 b83c
-0.011331506 -0.13851307 -0.0986059 0.050154347 -0.13191901 0.10622314 0.005346373 -0.09078732
-0.046461586 -0.106268086 -0.11326036 -0.1078908 0.17206722 -0.11240642 0.008884936 0.05031539
-0.11256028 -0.01851883 -0.112573214 0.06277262 0.12982294 -0.011358446 -0.11534547 -0.048150018
-0.0074360888 0.022607226 -0.0049807024 0.0072830818 -0.022062063 -0.0016658974 0.06920028 0.022533322

layer1.linear.weight f4 [32, 32]
00000000: 3a45 12be 772a 823d bda8 91be 79a7 453d
00000010: 20ef 0ebe 3ce3 523e 02fd 393d ef89 5bbd
00000020: 1d2b f33c e79d 4a3c 2ef9 873d 460c 81bc
00000030: fccd cf3e 4257 b6bd fa3f 593c f3fb 093e
00000040: ea6f 9a3e e76d 0c3e a8df a4be afe8 c13e
00000050: a148 923e 6270 38bd 47f0 c4be 2955 c53c
00000060: eac1 243f 9038 323d 2840 9dbe a57c ac3c
00000070: 064d 42be ce72 ba3e 3876 ce3d f66b 27bf
00000080: 1799 443e 60b9 153e cd6a 0abe 55fc fc3e
00000090: 4eea 21be dfa7 e63e 4103 bc3e 3c4d 74be
000000a0: 8dc9 733d 4e72 b7be 4dfc 183d 7136 01be
000000b0: 52b9 d8bd 2be0 823e bd0d 7c3e c043 963d
000000c0: c92c ca3e 0898 963d 74ff c23e 0a83 11be
000000d0: d5af 09be f0ac 7dbe 2cdf 69bd 555f 833e
000000e0: 8c27 23bd 2d97 743e 4ebc cabe 0f79 3c3e
000000f0: 0327 22be 21f9 babe ddde aa3c 1c9c 1abe
00000100: 946c 743e 8245 8abe 612b 2fbd 8bd1 93bd
00000110: fce0 f2bc 3a67 3c3e 47ca a33e a601 4e3d
00000120: d8cc e03e ccfb 83be cd90 863e 863f 64be
00000130: e467 80be fc35 8b3e 9ed5 923e e3ae 8fbd
00000140: cef4 6abe 14be 1fbe 9edd af3e a381 3ebc
00000150: 4729 723e 7d80 f9be cbdc 9ebd 2003 1e3f
00000160: 9976 b63e f612 9c3e 855c 343e ca4e c9be
00000170: 48fa 2b3e 57c4 8abb 20b0 b3bc 6e1b 9bbe
00000180: 929e 513c 3204 863d 5d8a cd3c 0f23 2bbe
00000190: 3b91 4d3d 3a97 51bb 0a7d 383e f195 1abe
000001a0: 4a45 aa3e d777 d43e a1dc b7be 2118 493e
000001b0: 0d8d 593e e18d 90be e6d2 213e 2500 8b3c
000001c0: 6f45 2d3d df07 1a3f 0ae2 093e 87ae 153f
000001d0: 32ab 323e ab93 4fbe 1d1f cf3e f322 1f3d
000001e0: 1bad 103e e8bb c23d 4c76 bbbd f0a3 1abe
000001f0: ef4d 96bd dda4 94be f48b 4d3e b693 c4bd
00000200: 94ad 263e 1b16 7dbd f041 f0be 4470 9e3e
00000210: da99 68be cdc6 993e 4be3 af3e 2c62 ef3c
00000220: 325f 8dbe b723 8fbe 8f9f 593e f9ab 803e
00000230: 21f3 debd 7557 8e3c baf5 a73c 8d02 a8be
00000240: 3f2a 15be c4a7 15be b93b 8d3e 45f4 d83e
00000250: bc39 ce3e 6aea 563e 59bc 923e 1f1b a13e
00000260: 39d9 d7bd e9c8 a2bd 4733 e63e 0526 39be
00000270: 12b6 bb3e 52d9 e4be 714f 89bd 14f2 96bd
00000280: 9a7a b4be 9af8 49bd a438 23bd e716 10bf
00000290: 2144 c2be c859 063e 4e51 32be c6b9 15bf
000002a0: 4880 d23e 2a3a c13e d0f2 d1bd 3185 c73d
000002b0: 053d 89be 724f 2abc 8fde b7be 6c82 a9be
000002c0: 7610 b33e a5a2 6dbd e4a2 6d3c 928f eabd
000002d0: e74f d7bd fa59 cabe 6393 65bb 6c52 02be
000002e0: 9484 dc3e 7c33 b13e b2be d3bd c207 033f
000002f0: 89ca 9bbe cc55 813e a081 163e feb5 be3c
00000300: 5c3b d13c b6c8 87be 5353 2f3e 6c13 adbe
00000310: d331 353d f5b7 9cbe f66d e7bc 91bc 23be
00000320: c875 c1be 605c 933e ad7f 113e 2d66 47bd
00000330: cda6 82be f8e5 623e e08a 973e 8c6a 09be
00000340: 6018 5b3e 959e 503e 887e acbe c1da 693e
00000350: 2a1b b5be afd9 783d fc21 883c c18b ba3e
00000360: 4786 04bd 3119 c53d 0fde 883e b1ea e33d
00000370: 70ed 6abe 8777 8cbe 2e0c e93e e151 e1bd
00000380: 30ad 853e 3a8b 8cbd f941 9ebe fe75 ca3e
00000390: b678 9ebd f70e a73d 9718 8f3e 4c53 7c3d
000003a0: 5ad7 be3e 9119 d0bc 73ff 5d3e 3038 74be
000003b0: 790e ea3d 7e0f 413d 199e 543e 95c4 d6be
000003c0: 84fa 523e 4f53 4fbf 64b1 203e ebcb 07be
000003d0: 4d98 86be 8520 d33e ec9a 1dbf 3935 c1bd
000003e0: 2f03 0a3d 2e2b 903d 7445 ca3c bed6 78be
000003f0: 69b3 aebd b3b1 d8be deb7 8c3e e837 f7bd
-0.1428422 0.06355756 -0.2844905 0.048255417 -0.13958406 0.20594496 0.045407303 -0.05359834
0.029683644 0.012366748 0.06639324 -0.015752923 0.4058684 -0.08903362 0.013259882 0.13475017
0.3016351 0.137138 -0.32201886 0.37872836 0.28571036 -0.04502905 -0.38464567 0.02408846
0.6435839 0.043510973 -0.3071301 0.021055529 -0.18974695 0.36415714 0.10081142 -0.6539911
0.19199024 0.14621496 -0.13517304 0.49411264 -0.15812036 0.4504995 0.36721233 -0.23857588
0.059518386 -0.35829395 0.037349988 -0.12618424 -0.10582222 0.25561652 0.24614616 0.07337141
0.39487293 0.073532164 0.3808552 -0.14210144 -0.13445981 -0.24773002 -0.0570976 0.2565867
-0.039832637 0.23885794 -0.3959679 0.18405555 -0.15835194 -0.36518195 0.020858223 -0.15098614
0.23869544 -0.27006155 -0.04276598 -0.072177015 -0.029648297 0.18398753 0.31990263 0.05029454
0.43906283 -0.25778043 0.2628235 -0.22289857 -0.25079262 0.27189624 0.28678602 -0.07015779
-0.22944948 -0.15599853 0.34348768 -0.0116275875 0.23648559 -0.4873084 -0.07756957 0.6172352
0.35637358 0.30483216 0.17613418 -0.39317924 0.16794693 -0.0042348313 -0.021934569 -0.30294365
0.012794154 0.06543769 0.02509039 -0.16712593 0.05018733 -0.0031981007 0.18016449 -0.1509626
0.33255988 0.4149768 -0.35910514 0.1963811 0.21245213 -0.28233245 0.15803108 0.016967842
0.042302545 0.6016826 0.13465133 0.5846943 0.17448118 -0.20271175 0.40453425 0.03885169
0.14128534 0.095084965 -0.09153423 -0.151016 -0.073390834 -0.2903203 0.20072919 -0.09598486
0.16277152 -0.06178866 -0.46925306 0.30945027 -0.2271494 0.30034485 0.34353098 0.029221617
-0.2761169 -0.27956936 0.21252273 0.25131205 -0.10886217 0.017375687 0.020502914 -0.32814446
-0.14566897 -0.14614779 0.27584627 0.42373863 0.40278423 0.2098786 0.28659323 0.31466004
-0.10539479 -0.07948477 0.44960997 -0.1808091 0.36662346 -0.44697052 -0.06704605 -0.073703915
-0.35249788 -0.04930935 -0.03984894 -0.56284946 -0.37942603 0.13120186 -0.17413828 -0.5848659
0.41113496 0.37739688 -0.10251391 0.09742201 -0.26804367 -0.010394918 -0.35911986 -0.33107316
0.34973496 -0.058016438 0.014504168 -0.11453165 -0.10513287 -0.39521772 -0.0035030476 -0.12726754
0.430699 0.34609592 -0.103391066 0.5118371 -0.3042796 0.2526077 0.14697886 0.02328014
0.025541 -0.26520318 0.1712163 -0.3380388 0.04423697 -0.30609098 -0.028250676 -0.15989901
-0.37785172 0.28781414 0.1420886 -0.048681427 -0.25517884 0.22158039 0.2959814 -0.1341955
0.21396017 0.20372994 -0.33690286 0.22837354 -0.35372287 0.060754474 0.016617768 0.3643475
-0.03235462 0.096239455 0.26731917 0.11128748 -0.22942138 -0.27434942 0.45517105 -0.11001945
0.26108694 -0.06862493 -0.30909708 0.39543146 -0.077378675 0.08157151 0.27948448 0.061602876
0.37273675 -0.025402816 0.21679477 -0.23849559 0.11428542 0.047133915 0.20763434 -0.41946855
0.20603377 -0.80986494 0.15692669 -0.13261382 -0.2628807 0.41235748 -0.6156452 -0.094339795
0.033694442 0.07039486 0.024691321 -0.24300668 -0.085303135 -0.42323074 0.2748403 -0.1207121

layer1.agg.bias f4 [32]
00000000: 0000 0000 0000 0000 0000 0000 0000 0000
00000010: 0000 0000 0000 0000 0000 0000 0000 0000
00000020: 0000 0000 0000 0000 0000 0000 0000 0000
00000030: 0000 0000 0000 0000 0000 0000 0000 0000
00000040: 0000 0000 0000 0000 0000 0000 0000 0000
00000050: 0000 0000 0000 0000 0000 0000 0000 0000
00000060: 0000 0000 0000 0000 0000 0000 0000 0000
00000070: 0000 0000 0000 0000 0000 0000 0000 0000
0.0 0.0 0.0 0.0 0.0 0.0 0.0 0.0
0.0 0.0 0.0 0.0 0.0 0.0 0.0 0.0
0.0 0.0 0.0 0.0 0.0 0.0 0.0 0.0
0.0 0.0 0.0 0.0 0.0 0.0 0.0 0.0

layer1.agg.mlp.0.weight f4 [1, 64]
00000000: d03d ab3c 3cc0 ef3d d64c bebd 6051 963c
00000010: 3044 463c 76a0 b4bd 3671 bdbd 4058 f4bc
00000020: 2864 8e3c 18e5 963c 307f 7bbd 84da f03d
00000030: 0061 8aba 4ed3 bd3d e47d a83d 16ee 943d
00000040: 40b0 adbd 7636 b6bd 3ce9 68bd 882f 0e3d
00000050: 608f 283d ec16 d23d 9cfe b5bd 7030 df3c
00000060: 2c95 c23d 5602 cabd c820 a2bd 486f 5d3d
00000070: 0e38 83bd 2e83 903d e0c8 4a3d 20ee 6e3d
00000080: 62a9 acbd a002 ec3d d42f 68bd fe27 ac3d
00000090: e04d d4bc 7896 9cbc 3a6a 99bd 2881 77bd
000000a0: 7892 d2bd 48ad cabc e040 d13b 62de ce3d
000000b0: 0216 ebbd 7ed1 9f3d d02b 053d 584c 68bd
000000c0: 0c4a 3b3d 1e1b abbd e01f a5bd 1042 ca3c
000000d0: 0ca2 863d c69b bf3d f0de 2cbd 385e f33d
000000e0: 883f c63d d01d 2d3d aa7e f6bd 9ae5 c4bd
000000f0: a092 26bc 34bf 8b3d 2c8d cabd a022 6d3c
0.020903498 0.11706588 -0.09291999 0.01834935 0.012101218 -0.08819668 -0.09250109 -0.029827237
0.017381743 0.018419787 -0.061400592 0.117604285 -0.0010557473 0.09268819 0.08227137 0.07271974
-0.08480883 -0.08897106 -0.056863055 0.034713298 0.041152358 0.10258278 -0.088864535 0.027244776
0.095011085 -0.09863727 -0.07916409 0.054061204 -0.06407176 0.070562705 0.049507976 0.058332562
-0.08430745 0.11523938 -0.056686237 0.084060654 -0.02591604 -0.019114718 -0.07490964 -0.060425907
-0.10281843 -0.02474083 0.0063859075 0.1010101 -0.11478807 0.07803629 0.032512486 -0.056713432
0.045724913 -0.083547816 -0.0806272 0.024689704 0.06573877 0.09355883 -0.042204797 0.11883205
0.096800864 0.04226476 -0.12035878 -0.096141055 -0.010166794 0.068235785 -0.09890208 0.014473587

layer2.linear.bias f4 [16]
00000000: f57d 95bc a16e 88bd b938 a3bd df36 efbc
00000010: afc7 213c 9c19 cc3b c04c 59bd 7085 f3bc
00000020: 4136 5dbc 0acb 08bd f255 15bd 1877 0cbd
00000030: 1050 9b39 7fe7 883d 21db 86bc 72ed a5bd
-0.018248538 -0.06661726 -0.07969803 -0.02920097 0.009874268 0.006228639 -0.05305171 -0.029726714
-0.013501705 -0.03339676 -0.036458917 -0.034293264 0.00029623555 0.066847794 -0.01646191 -0.0810193

layer2.linear.weight f4 [16, 32]
00000000: 102a b33e 9564 563e 1f11 9dbe 6ca3 61bd
00000010: 9dff 4bbe 165c 073f 4ec5 1f3e dbe1 da3d
00000020: 26d7 9a3e 075f 393e cd71 413e 1adc 5e3e
00000030: d92c 073e 2049 7f3e 149d c03e c9f4 513d
00000040: 604b c53e 9089 c8bd 98c2 293e b514 b63d
00000050: 391f 543d 8f46 6d3e b459 433d aad4 34be
00000060: a13e a33d f7dd 623e 96a4 633b 57bf b83e
00000070: c230 c7be c0c3 9b3e 10ec 61bd d991 8fbe
00000080: 72b7 aabe f98f 57be 32cd d4bd 7c9b 813d
00000090: 04e9 afbd 0435 a33e 0cb7 13be 4dea 7d3e
000000a0: 3f41 c1be e89c 43be 2693 9a3e 74c2 513d
000000b0: 1140 c63b 755f 9e3e c59d 09bf 92c2 8bbd
000000c0: 1fd1 4a3e cd38 d8bd 954e 1b3e 7f3f 9fbd
000000d0: 6c47 43bf 5991 c5be 8637 b7be 3cd9 42be
000000e0: 7f5b b53e 92b7 943d 9c6d 1ebe d036 14bf
000000f0: 2a25 b2be 35b5 2cbf a9aa 21bf 701e 5ebe
00000100: 32ff e33d edf3 af3d 62d8 f2bd 5913 c73c
00000110: 449d 42bd 5555 c83d 3dfa a4bd c505 4ebe
00000120: 429a b7bd 9ff9 973e f696 c43d 996f 3abd
00000130: 8147 003d 854b d0bb 4440 00be c88f 2e3e
00000140: c95b abbe f899 c4bb 2c88 913e 123f fa3e
00000150: 7730 d83d 831e debd 7fba 0e3f 159c c83e
00000160: 0139 403e 1638 883d ff17 91bd 4846 013f
00000170: 38e8 04be b187 a5bd 1770 663b 6b6b f93d
00000180: ac4c 803e 7c3d 1bbd 1751 ef3e 03bd ee3d
00000190: ff2a 8e3e e390 40bd 4c82 293e 7397 2ebe
000001a0: 07c0 a23e f125 b3be aa36 1c3f 6e30 923d
000001b0: c508 ca3d 3fd3 843d 146f a23d a090 133e
000001c0: 2430 443d 5ee7 8abc 61ce 183c 9f14 2c3e
000001d0: 9e98 023f 79a1 75be 5ed8 683d 6663 283e
000001e0: 43a9 10be c479 993e 7515 bd3e 0bb8 e8bc
000001f0: fb54 2fbe 386a d13e 6cf7 a1be 3658 1a3e
00000200: 0126 d6bd cad2 bd3d 37cd fdbd 1189 243e
00000210: d785 e23e ab07 bdbb ad5e 8a3e 31f2 be3d
00000220: 9fea 0a3d 0ce6 8f3e 9140 1c3e add9 263e
00000230: e8fd 2ebe d15c fc3e 7db8 ba3e 9f12 9a3e
00000240: ff6f a1be 9d97 fc3e 5b54 e4bd affb e73c
00000250: dfb6 d33d 2c85 c03e 61bc f4bd 70c0 35be
00000260: a57f 543e c6df 2abd 9774 ce3e 0dfe 2a3e
00000270: 37f1 09be bb4d e6bd d52f 2b3e 5f63 19bb
00000280: 41e2 d33d cf9f babe 13d8 79bc 610d 1a3f
00000290: 676b 3abe 3903 f3be 8dcf e0be 3efc 9e3e
000002a0: 3c11 3fbf 65de 66bd b886 b53d 148c aebd
000002b0: 3c31 db3e 5b5c 6fbe 38f2 14bf f57a 3e3e
000002c0: 37c5 babe 76b1 35bc a4af ccbe bbe8 74bd
000002d0: c957 b5be 1587 10bf 0bcd 02bf c901 8dbe
000002e0: fde6 b7be 3ad0 16be d3d5 87be c949 35bf
000002f0: 14d9 93bf b084 d9be 120e 54bf 37f9 d7be
00000300: 9a5b b3be a0d6 f4bd 9dd6 773d e684 e9bd
00000310: d59d 8ebe 186e 0a3e dc09 7dbc 4cb9 76be
00000320: 4cfc c7bd cb4a d8be bde7 073e 603d 5f3e
00000330: 1202 8cbe b926 b33e 4e3f ed3e e2a5 283f
00000340: 9450 36be 848a d13e b766 5a3e 1799 bdbe
00000350: 6a31 b53d dcb6 2e3d ebab 06bf 5731 1abe
00000360: e4ab 2dbf d0e8 0a3d d109 c6be c778 babe
00000370: 54d7 0abe d6ab 9b3d 2ad0 ec3e cd0b 6abe
00000380: 7060 3c3b d9dd 80be cd67 833d bbe9 7b3e
00000390: 35b5 adbe 3cb8 b4be b7fd 2f3e bfc9 583e
000003a0: fa56 22bf cd18 5a3e 778d 943e e111 eebe
000003b0: b47d 35be 7511 d3bd 7e3e 36be 0e8a 9d3c
000003c0: 06d1 05be 5812 1cbe a595 8abe e9b4 2abe
000003d0: 3400 11bf 8491 f0be cddc 8dbd 4dbd 9d3e
000003e0: 32e6 eabe 425d 10bf 7d88 393b 328c d33e
000003f0: cdc6 913d 4ecb d63e 5e4f 10bf 7c50 82be
0.3499303 0.20936806 -0.30677125 -0.055087492 -0.19921727 0.52874887 0.1560261 0.1068761
0.3024227 0.18102656 0.18891068 0.2176365 0.13200702 0.24930239 0.3761984 0.051258836
0.3853407 -0.09791863 0.16578138 0.08890668 0.05178759 0.23171447 0.04769297 -0.1765925
0.0797093 0.22154985 0.0034735552 0.3608348 -0.38904387 0.30422783 -0.055156767 -0.2804096
-0.33343083 -0.21051015 -0.103907004 0.063284844 -0.08589366 0.31876385 -0.14425296 0.2479641
-0.3774509 -0.19102824 0.3019039 0.051210836 0.006050118 0.30932203 -0.5375636 -0.06824221
0.19806336 -0.10557709 0.15166695 -0.07775783 -0.76280856 -0.38587454 -0.3578455 -0.19028181
0.35421368 0.07261576 -0.154715 -0.5789614 -0.3479398 -0.67464 -0.6315103 -0.21691298
0.11132659 0.08591447 -0.11857678 0.024301218 -0.04751326 0.09781901 -0.08055542 -0.20119388
-0.08964969 0.29682633 0.09599106 -0.045516584 0.03131819 -0.006356659 -0.12524515 0.17047036
-0.33468464 -0.0059998 0.28424203 0.48876244 0.10556119 -0.108456634 0.5575332 0.3918158
0.18771745 0.066513225 -0.07084655 0.50497866 -0.1297921 -0.08082522 0.0035162026 0.121786915
0.25058496 -0.037900433 0.46741554 0.11657145 0.27767178 -0.047013175 0.1655361 -0.17049961
0.3178713 -0.34989884 0.6102091 0.071381435 0.09864954 0.064856045 0.07931343 0.14410639
0.047897473 -0.016956028 0.009326548 0.16804741 0.51014125 -0.23987378 0.05684697 0.16444167
-0.14127068 0.29975712 0.36930433 -0.028408071 -0.17122261 0.4090135 -0.3163408 0.15072712
-0.104564674 0.092687204 -0.12392657 0.16067912 0.44242737 -0.0057687364 0.27025357 0.09323538
0.03391516 0.281052 0.15259005 0.16293974 -0.17089045 0.49289563 0.36468878 0.30092332
-0.3153076 0.49334422 -0.11148902 0.028318254 0.10337614 0.37601602 -0.11949993 -0.1774919
0.20751818 -0.041717313 0.40323326 0.16698475 -0.13470922 -0.11245295 0.16717465 -0.0023405177
0.10345889 -0.3645005 -0.01524927 0.60176665 -0.18205033 -0.47463396 -0.4390835 0.3105182
-0.7463567 -0.056364436 0.08863586 -0.085228115 0.42811 -0.23375075 -0.58182096 0.18601592
-0.36478588 -0.011089673 -0.39977753 -0.05979226 -0.35418537 -0.5645612 -0.5109412 -0.27540424
-0.35918418 -0.1472787 -0.26530322 -0.7081571 -1.1550622 -0.42484045 -0.8283397 -0.42182323
-0.35030824 -0.11954999 0.060507406 -0.114023015 -0.2785479 0.1351856 -0.015444245 -0.24094123
-0.09764919 -0.42244563 0.13271995 0.21800756 -0.2734533 0.3499048 0.4633736 0.6587812
-0.17804176 0.40925992 0.21328245 -0.3703086 0.088473156 0.042654857 -0.52606076 -0.15057884
-0.6784041 0.033913434 -0.38679364 -0.3642027 -0.13558704 0.076011345 0.46252567 -0.22856064
0.0028744005 -0.25169256 0.06416283 0.2460088 -0.33927312 -0.3529681 0.17186628 0.2117071
-0.63413966 0.21298523 0.2901418 -0.46498016 -0.17723733 -0.10306064 -0.17797276 0.019230869
-0.13068017 -0.15241373 -0.27067295 -0.16670574 -0.56640935 -0.4698602 -0.0692688 0.30808488
-0.4587875 -0.563923 0.0028310113 0.41317898 0.07117996 0.41951984 -0.56371105 -0.2545203

layer2.agg.bias f4 [16]
00000000: 0000 0000 0000 0000 0000 0000 0000 0000
00000010: 0000 0000 0000 0000 0000 0000 0000 0000
00000020: 0000 0000 0000 0000 0000 0000 0000 0000
00000030: 0000 0000 0000 0000 0000 0000 0000 0000
0.0 0.0 0.0 0.0 0.0 0.0 0.0 0.0
0.0 0.0 0.0 0.0 0.0 0.0 0.0 0.0
