MMBenchmarkingCode/HTGN-EvoGCN/data/output/log/hypertext/HTGN/model_checkpoint.pth (torch, 79986 bytes, 18 tensors)

feat f4 [113, 113]
00000000: 2e13 0dbe f0f7 f03d 3902 42bd 3b02 af3d
00000010: 4a0b 08be 1a39 183d 7337 25be 67df 073e
00000020: 457e dbbd 7249 9b3d 3289 9dbd aeae 873c
00000030: 762e d43d 5c78 ba3d c945 113c 1d6c 8f3d
00000040: 513e 2a3d 4450 ed3d f604 eabd 39aa 0bbd
00000050: a265 24be 85b5 3d3c ea8a 243e d80d 183e
00000060: b15a e5bd e415 ae3c ee27 94bc 86ab aabd
00000070: 3fa3 be3d 1b36 9dbd 6a70 02be 9e17 1abe
00000080: bf04 43bb b4d9 36bd db37 bfbd 67c8 0c3d
00000090: f2de 13be 1ffb 0bbc 7bc6 87bd 9e80 363d
000000a0: fdcd 5a3d 1fa0 163e 814a 1bbd a498 41bd
000000b0: 7086 68bd 2e75 34bd 6e93 5bbd b523 023e
000000c0: 9a2a f53c a7b4 563d 20f0 e1bd 4745 99bd
000000d0: 0c32 8839 be70 c53d 1de2 f2bd 8826 bfbc
000000e0: 5ffe d83c cb94 3c3b b3f5 edbc 2b51 8f3d
000000f0: 4527 78bc 4858 383d e2f7 e3bd dda5 fe3d
00000100: a37c 7a3d cb18 1cbe daa9 de3d b6a1 6c3d
00000110: 9035 3bbd 07b7 b8bc 4d29 09be 5971 583d
00000120: 935f efbd df49 853c b6fa 073e 0935 edbd
00000130: 5847 e03d cf5e 973c 3c07 25be a368 243e
00000140: 17b9 fcbd 79d4 0bbe c534 8ebd 5d20 87bd
00000150: d1db 15be de16 84bd cbe5 11be 8f1c dfbd
00000160: 481b 973d 07db fdbb 43c7 f6bd 1bd1 133e
00000170: 3d91 553c 0285 e0bd cf11 adbd 6f99 ccbd
00000180: bdfa 24ba 17f2 8d3d 3614 fdbd ee30 f0bd
00000190: 4c6a fcbc 4be1 b5bd bbed 16bc 386a 9fbd
000001a0: 33c9 b7bd e2b2 6b3d 698d 66bd 0f64 c63d
000001b0: efdc 0ebe 5fa1 11be dac1 f93d d3d8 c43d
000001c0: 2102 b83c ecbe 0e3e 99dc cc3d a89f 0e3d
000001d0: d370 8ebd 47ca 7abd 2021 043e bbd6 363d
000001e0: 0abd af3c e555 dc3d f85a 063e f5c3 6e3d
000001f0: a5ef c03d d923 c33d 7d0a e23b 484a d0bc
00000200: 5a76 0abc 8144 0bbe 0518 ab3d bafb ffbc
00000210: 625f 8d3b b719 023d ed50 dc3d cd6f 033e
00000220: 2db8 cf3d fdf2 57bd 10c1 ef3c b553 c3bd
00000230: 27a8 bc3d c628 babd 3882 08be 9a89 9d3d
00000240: 4da3 13bd aa1f 21be 81e3 84bc 6820 1f3d
00000250: eb4c c03d f6fa 93bc 19cd b6bd a542 fcbd
00000260: 694b e6bd 908a d8bc ff3d f2bd c935 06be
00000270: ec6b bd3d 932b 97bd a54b 1c3e 6c52 483c
00000280: 8e53 ad3d 5033 e53d 8484 b43d 194f a63d
00000290: 7581 843d 5536 c7bd 77c7 d7bd e0d3 c63d
000002a0: aad7 67bd 6d7a 143e 664f b4bd 2d03 b43d
000002b0: a769 ff3d 743a debc c68d a9bd 0bc4 763d
000002c0: a38b 8ebc e2df 09be 156d 13bc e290 013e
000002d0: d825 31bd b533 123e 7848 823d f54f f2bd
000002e0: 0ece 553d 3d06 9cbd ff94 03bc b0a7 a73d
000002f0: 2ca4 013e 166b 263e da0a 0a3d 0e73 b1bc
00000300: 02ac 9e3d 68e3 4a3d e68c d1bc 57fc 87bd
00000310: 4b0f 0a3d 9411 923c 87ff 623d ff38 abbc
00000320: 448d 973d f41c 943d da2b 893d 046f 213c
00000330: ac1b 0bbe ff85 473d c73b 97bd ff81 dd3d
00000340: 5a1b 0dbe be86 b93d e002 8f3d 6c70 8f3d
00000350: 8927 08be 002c a73d 9e79 4f3d 3842 b03d
00000360: 7aa1 a3bc 00a9 d2bd bb66 0d3e 677a 003e
00000370: 56cc 82b8 a78f 13be 4d67 ca3d e3ab 72bc
00000380: b68b 113e 8fe0 113e 42b7 10be d5e7 fa3d
00000390: 32e0 063e 0b35 65bd 4d7c af3d 0559 cdbc
000003a0: efaf 1bbe 92cc 543d eede 85bd 665f f4bd
000003b0: fb35 dcbb ceb7 0bbd 3781 3dbc 8128 2abd
000003c0: 3c37 8cbd 1927 1e3e d21c 253e 5733 183d
000003d0: 69f9 82bd 7763 c0bd e859 c8bd 4b2e 0a3d
000003e0: 7920 973d ae82 61bd 47a1 7a3d 360d 40bd
000003f0: 036b 843b 740f 96bd a396 943d 0b95 8fbd
-0.13776848 0.1176604 -0.0473654 0.08545347 -0.13285556 0.03716383 -0.16134433 0.13268815
-0.107174434 0.07582368 -0.076921836 0.016562786 0.10360424 0.09104988 0.008866736 0.07003043
0.041563336 0.11587575 -0.114267275 -0.034097884 -0.16054395 0.011578922 0.16068617 0.14849031
-0.11198939 0.021250673 -0.018085446 -0.08333497 0.093084805 -0.076763354 -0.12738195 -0.15048072
-0.0029757468 -0.04464121 -0.093368255 0.034370806 -0.14440516 -0.008543759 -0.06629654 0.044556253
0.053419102 0.14709519 -0.03791285 -0.04726471 -0.056768835 -0.044057064 -0.053607397 0.12708934
0.02992754 0.052418377 -0.11032128 -0.07483917 0.0002597723 0.096406445 -0.11859534 -0.023333803
0.026488481 0.002877521 -0.029047823 0.069979034 -0.015146081 0.045006067 -0.11131264 0.1243398
0.06115402 -0.15243833 0.1087224 0.057771407 -0.045705378 -0.022548212 -0.13394661 0.05284247
-0.11688151 0.016270576 0.13279232 -0.11582381 0.10951108 0.018477825 -0.16116041 0.1605554
-0.123399906 -0.1365527 -0.06943659 -0.0659797 -0.14634635 -0.06449674 -0.14247815 -0.10894119
0.0737825 -0.0077470574 -0.12049725 0.14435236 0.013035116 -0.10962869 -0.08450662 -0.09990203
-0.00062934664 0.069309406 -0.123573706 -0.117280826 -0.030812405 -0.08880862 -0.009211953 -0.077839315
-0.089739226 0.057543643 -0.056287203 0.096870534 -0.13951467 -0.14221714 0.121951774 0.096116684
0.022461953 0.13940018 0.10003013 0.03482023 -0.06955113 -0.061228063 0.12903261 0.044638377
0.021452446 0.107585706 0.1312064 0.058292348 0.094207086 0.09528322 0.006898223 -0.025426045
-0.008451069 -0.13600351 0.08354191 -0.031247962 0.004314349 0.031762805 0.10757623 0.12835617
0.101425506 -0.052721966 0.029266864 -0.0953745 0.0921176 -0.09089808 -0.13330925 0.07692261
-0.036044408 -0.15734735 -0.016221764 0.038849264 0.09389671 -0.018064003 -0.08925838 -0.12317399
-0.11244852 -0.02643326 -0.11828231 -0.13106455 0.092491 -0.07381358 0.15263231 0.012226682
0.084632024 0.11191428 0.08814338 0.081205554 0.064700045 -0.0972716 -0.10536092 0.09708381
-0.056602158 0.14499827 -0.088042066 0.08789668 0.124713235 -0.027127482 -0.08278994 0.060245555
-0.017400568 -0.13464311 -0.008998175 0.12652925 -0.04324898 0.14277537 0.063614786 -0.11831657
0.052198462 -0.07618377 -0.008031129 0.08186281 0.12660283 0.16251788 0.033701755 -0.021661308
0.07747652 0.049533278 -0.02557988 -0.06639927 0.03370599 0.017830648 0.05541947 -0.020901201
0.07399991 0.07232085 0.06697817 0.009853128 -0.13584775 0.048711773 -0.073844485 0.108158104
-0.13779965 0.09058903 0.0698297 0.07003865 -0.13296331 0.08162689 0.050653093 0.0860638
-0.019974459 -0.102861404 0.1380872 0.12546693 -6.2369436e-05 -0.14410268 0.09882984 -0.014811489
0.14213452 0.14245819 -0.14132407 0.1225125 0.13171461 -0.05595879 0.0856863 -0.025066862
-0.15203832 0.051952906 -0.06536661 -0.11932258 -0.006720302 -0.034110837 -0.011566452 -0.041542534
-0.068464726 0.15444602 0.16124275 0.037158336 -0.063952275 -0.093939714 -0.09782773 0.033735555
0.073792405 -0.055056266 0.061188962 -0.0468876 0.004041077 -0.07327166 0.07255294 -0.070108496

Q f4 [16, 16]
00000000: 1578 eabe 3a5b 6dbf 6dc4 0b3f 69ba ca3f
00000010: f93a a53e c681 5fbe 22c5 ca3e 4253 8bbd
00000020: 44d2 c43f 3493 9a3e f500 173f d9fa 8cbe
00000030: f572 a8be 3478 e63e 1b3e 1dbf 1924 013e
00000040: 3569 873e 4e65 4abf ba7a 00be 635f f73e
00000050: ae0d c4bc 0276 f9be 5a46 0ec0 6b2b 19bf
00000060: 3456 263f 4f29 51bf f50d 863e b8f9 a13e
00000070: c2f1 97bf 3e66 4c3f b4be 89be c49e 74bf
00000080: 7af1 9d3e 743c 5cbf 21d1 afbe dcf2 69bf
00000090: 29d6 cb3e 381b 7d3f 5d2d 1cc0 d1b3 843f
000000a0: 99cd 81bf 6514 18bd d683 c73e fd9f a43e
000000b0: d18a 9cbe bfc2 2ebd 68bd bfbd d8a2 eebd
000000c0: e86e 373e 6a52 9ebf da7e f83e 35e1 a13e
000000d0: 2bcf fbbe ff0f 86bf 8306 073f 6c8f 443e
000000e0: a269 c7bd 6269 19be c5f1 113e 1585 2fbe
000000f0: 28b0 443f cf91 41bf a3f6 263d 1a46 533e
00000100: 8faa 73bf 665a 3c3f 4097 47bf 790d 823f
00000110: 4300 da3e ec6e 0d3f 692d a8bf 9253 acbf
00000120: 24b6 6dbf 3c8b 8dbe 221e 563f 99d9 52bf
00000130: 34dc d4be 8877 4b3f aa25 0fbf 75ab babe
00000140: 6a0b 4d3f 3d74 02c0 ddda b03e ee69 d43f
00000150: b3ec 7b3e 9223 9fbf 93e9 023f b4c7 1fbf
00000160: 2906 c7bf a650 853c 07e3 9fbc 41b7 5e3e
00000170: 5795 603f 4414 12ba 9440 0e3f 6e89 0dbe
00000180: 60c1 d5be 7002 47be 58fa 05bf b033 1a3e
00000190: ab16 473f 6247 963f 4f2f ab3f 7a41 99bd
000001a0: 5339 6d3e 0fae 07bf 7079 323f 5ed7 2fbf
000001b0: a5b0 bdbf 0d4c 673f 564b 90be cdf7 6ebf
000001c0: a515 ff3e cb71 dfbd 9200 d93e 5d29 09c0
000001d0: a9e7 313f e5d9 a2bf 5a6b 14bf af7c 7bbf
000001e0: 52d6 293f 6a50 0ebf da38 1c3e e11d 713e
000001f0: 7fad 72be ed8e 2a3f db21 3e3e 81f6 e9be
00000200: b1ba 513e fc4d f43e 1ef7 033f 1fe2 5fbf
00000210: 19d4 3f3f 582e babf ed5b 46bf c539 fbbe
00000220: 3012 043f 6ba9 28bf 7a7b 8f3f b81d 4fbf
00000230: 034c 9d3e 952d b93e 33cb 3c3e e3ff 9abd
00000240: 7534 88bf b369 e6bf 00ae 01bf acca 4f3f
00000250: 4611 28be 800d 343f bbbc 3540 250d 6dbf
00000260: b11a 933f 7ee9 52be f3e5 b7be bf61 cbbe
00000270: 4a02 17bf a2fe f43e 4b4e 29bf 0141 30bf
00000280: bfa8 07be 2dc2 f7bf ed8e a6be d290 db3f
00000290: d482 553e ae76 163c b1d4 7840 79c2 94be
000002a0: 98b8 23c0 18d6 e1be 0fcd 133f 0303 19bf
000002b0: 7c8c 8e3e a217 523e d7c1 723e aa38 1bbf
000002c0: 2c18 b6bf 5f70 1e3f f7a4 e43d d073 a23f
000002d0: 4e7d 2b3f 0c8e 8ebf bf45 0bbf 63f7 73bf
000002e0: 387e 2640 dee4 e5be a882 a53f 0233 9fbf
000002f0: 2a95 90be cd5d 5a3f 21b7 80be 2199 f3bd
00000300: d936 8c3f be45 a6bd e948 933f 5669 103e
00000310: 92ca bdbe d12f 14c0 e6ee 4e40 3eea 5d3f
00000320: 6225 a23f f696 3b3f cb97 63bf a3d0 403f
00000330: d9a9 9d3f 9b9b c0bf fe57 b73e daab 083f
00000340: 84d7 963e 18ae 19bf 84b2 7cbe 9f44 213e
00000350: 60e4 88be bb23 62be 05c6 593f 5d58 8c3f
00000360: 3a96 d13f 4c5d 103e f346 383e 2e41 3b3f
00000370: eda9 20bd 7498 b6be 507c d73d 1d36 b23c
00000380: 7101 66bb 9b32 0bc0 f501 1cbe a8be cb3f
00000390: 418d 0cbe 80df 91be 857e aa3f 7e86 a8be
000003a0: 565c 0abd af9b 00bf 9016 073f 22c8 e2be
000003b0: 7393 25bf 1860 1ebd a03b 3abc 29d1 013d
000003c0: d530 0ebf 3565 a83f 0379 8cbf b736 58bc
000003d0: d6c6 af3d 8eb1 ce3f be2b 9dbf cf05 acbe
000003e0: 6fa8 d6bf 3ca5 9fbe 884a 1b3f 1019 193d
000003f0: cd9e 25bf 13a9 e93e 717e 26bf 1a82 a3be
-0.4579474 -0.92717326 0.54596597 1.5838138 0.32271555 -0.21826848 0.39603525 -0.068029895
1.5376668 0.30190432 0.58985835 -0.27535132 -0.32900205 0.45013583 -0.6142289 0.12611426
0.26447454 -0.7906083 -0.12546816 0.48314962 -0.023932304 -0.48722845 -2.223044 -0.59831876
0.64975286 -0.81703657 0.26182523 0.31635833 -1.1870654 0.7984351 -0.26903307 -0.9555476
0.30848294 -0.86029744 -0.3433924 -0.913862 0.3981183 0.9886966 -2.4402688 1.0367376
-1.0140868 -0.037128825 0.3896777 0.3215331 -0.3057466 -0.042666193 -0.09362298 -0.11652154
0.17913401 -1.2368901 0.4853428 0.31617132 -0.49181494 -1.0473632 0.5274431 0.19195336
-0.09736945 -0.14981607 0.14252384 -0.1714061 0.76831293 -0.7561311 0.040762555 0.2063221
-0.95182127 0.7357544 -0.77965164 1.0160362 0.42578325 0.5524738 -1.3138858 -1.3463004
-0.9285605 -0.2764529 0.8363973 -0.8236328 -0.41574252 0.79479265 -0.55916846 -0.36458936
0.8009554 -2.0383446 0.3454198 1.6594827 0.24602012 -1.243273 0.51137656 -0.624141
-1.5548755 0.016273808 -0.019517435 0.21749593 0.87727875 -0.0005572478 0.5556729 -0.13821957
-0.41749096 -0.19434524 -0.5233512 0.1505878 0.77768964 1.1740534 1.3373812 -0.07483192
0.23166399 -0.5299997 0.6971655 -0.68688 -1.4819533 0.9035042 -0.28182477 -0.93346864
0.498212 -0.10910376 0.42383248 -2.1431496 0.6949411 -1.2722746 -0.57976305 -0.9823713
0.6634265 -0.5559145 0.15256062 0.23546554 -0.23698996 0.6662434 0.18567602 -0.4569588
0.20481373 0.47715747 0.51548946 -0.8745441 0.7493301 -1.4545393 -0.7748402 -0.49067512
0.5159025 -0.6588351 1.1209557 -0.8090472 0.30722055 0.3616759 0.1843689 -0.07568338
-1.0641009 -1.8001007 -0.5065613 0.8116863 -0.1641284 0.703331 2.8396442 -0.9259818
1.149252 -0.20596883 -0.35917625 -0.39723012 -0.5898787 0.4785052 -0.6613509 -0.6884919
-0.13247965 -1.9356133 -0.3253092 1.7153571 0.20850688 0.009183569 3.8879817 -0.2905462
-2.5581417 -0.44108653 0.5773477 -0.5977022 0.27841556 0.20516828 0.23706757 -0.6063334
-1.4226127 0.61890215 0.11164277 1.2691593 0.66988075 -1.1137099 -0.544033 -0.9529936
2.6014538 -0.44901174 1.2930498 -1.2437441 -0.28238803 0.8529938 -0.25139716 -0.118944414
1.0954238 -0.08118771 1.1506625 0.14102682 -0.3706861 -2.3154185 3.2333312 0.8668555
1.2667658 0.73277223 -0.8890349 0.75318354 1.2317458 -1.5047487 0.3580932 0.53387225
0.294613 -0.6003127 -0.24677473 0.15748833 -0.26736736 -0.22083943 0.8506778 1.0964466
1.637397 0.1409809 0.17995815 0.7314633 -0.039224554 -0.35663188 0.105217576 0.021754319
-0.0035096074 -2.1749637 -0.15235122 1.5917559 -0.13725759 -0.2849083 1.3319861 -0.3291511
-0.033779465 -0.50237554 0.527688 -0.44293314 -0.64678115 -0.03866586 -0.011366755 0.03169361
-0.5554326 1.3155886 -1.097443 -0.013196639 0.08582847 1.6147935 -1.2278974 -0.33598182
-1.6770152 -0.3118075 0.606606 0.037377417 -0.64695436 0.45636806 -0.65036684 -0.31935197

r f4 [16, 1]
00000000: 7587 fd3e 5bf2 6d3f 6c66 583e a477 8fbf
00000010: 1438 a7be 7087 acbf d568 22c0 ac3b 353f
00000020: 52c6 d23f fbd8 263e 9338 17bf 5b07 f13e
00000030: d6b4 743f f5e4 d9be 6f16 0e3e 2bd9 b43e
0.49517408 0.9294793 0.21132821 -1.1208386 -0.32659972 -1.3478832 -2.5376484 0.7079418
1.6466773 0.16293709 -0.590707 0.47075924 0.95588434 -0.42557493 0.13875745 0.35321936

c f4 [3, 1]
00000000: 0000 803f 0000 803f 0000 803f
1.0 1.0 1.0

gru.weight_ih f4 [48, 16]
00000000: 9730 08bf 78e6 163f e3de eb3d d645 423f
00000010: cfd3 283f 09e3 64bf 7d23 213f 8d45 683e
00000020: 4054 763f a50e 763f 5d55 ef3e f9c3 c8bb
00000030: 2d1a aabd 4e35 663d 9039 4d3f 57cc 303f
00000040: f210 a5be d5f9 4f3f aeaf 24be 8c87 783f
00000050: abe8 ae3f b16c 46bf 61c5 603f b076 8c3f
00000060: c183 6e3f b972 913f a5b7 953f 811b 3b3e
00000070: 1c18 9fbe dabb 773e f2a9 583f 9be4 023f
00000080: ed82 60be 358e b63f 6162 51be 0272 a43f
00000090: 921e aa3f 678f 63be 550f 9f3f 164b 9b3f
000000a0: b864 9b3f 7f2c a23f f2e6 aa3f d57b 743e
000000b0: 74e0 f9bd 80a2 ce3e 2432 9a3f 4178 313f
000000c0: a406 29be 93be 883f e6a6 8bbe af69 803f
000000d0: e23f 263f 5220 2cbf 7277 983f 1fb1 5a3f
000000e0: 5610 493f 77a9 323f c487 7e3f e9ef 053f
000000f0: 5db1 4cbe eb2c 803e a1c1 1b3f 2d73 cf3e
00000100: 3ba6 9c3d 0ec6 8a3f 9690 84be 8bb0 693f
00000110: ce28 163f ef2f 3dbf fa06 aa3f e35a d33e
00000120: 3650 8a3f 86bb 143f 1851 4a3f 6893 33bd
00000130: 8853 70be 6f47 973e 7111 703f a274 773e
00000140: 2fb2 a33e 5019 273f bc65 85be f81f c53e
00000150: dc9c 3b3f 24f1 22bf f200 fc3e f987 363f
00000160: e3c5 363f c0fd a43e dcb6 233f af99 9e3e
00000170: 9be2 c5be 7b0e a7be 6d25 b73e 26a6 d73d
00000180: 76ba 8b3e cacf 983f 4eb7 03bf 4e83 223f
00000190: 9277 1d3f f71f fabe ddf9 7b3f 71d1 2a3f
000001a0: b6ac 7c3f fd0a ae3f 5434 103f d02e 7f3d
000001b0: 3752 20be 86b8 be3e 329b 263f 5ab3 483f
000001c0: 8b3c 553d d4a9 0c3f 70e2 2abb eeff 223f
000001d0: 1171 8a3f 0d93 5abf 7967 913f 953e 063f
000001e0: 62f8 623f 6ba2 983f 9af9 503f b150 9e3e
000001f0: 44b7 62be 5d57 8d3e 15d3 583f 875d e13e
00000200: 237c 6d3e c6b8 353f 1d1f 9abe 89fa 6d3f
00000210: 7ecf 293f f7a1 40bf f3ca 883f fb3e e23e
00000220: 5d0f 2b3f cb28 913f 38e1 583f c388 303e
00000230: c095 7fbe eaa5 bb3e 79f9 1c3f eb8a 873e
00000240: 5e5c 933e e83a 363f bedc c1be b972 773f
00000250: e8b6 313f 8981 79bf 9c69 8a3f 24ae 5f3f
00000260: 5cac 633f 80dc ce3e f5db 8e3f 0260 083f
00000270: 412d 8abe fb7b 4a3e cacb 303f 7421 0a3f
00000280: c439 08be ca5b 4d3f 43ef ddbe b37c 893f
00000290: 51ad 033f afce f3be 6f4d b33f 22fe 8f3f
000002a0: e64e 7b3f d0f4 503f 83ac 3f3f 4e73 b8bd
000002b0: 776e 82be ceea d93e 1386 593f 7b48 e63e
000002c0: 8656 aebd 84dc b93f 72be 073e fa46 353f
000002d0: 9b14 9c3f 1af1 303d 5f51 593f d327 b93f
000002e0: 9b64 9c3f 8222 083f d028 833f 551d 433e
000002f0: 400f f03d f44e 25be 37ac 083f 535c 133f
00000300: c75c a3be 377a 563f 9255 9abd df31 563f
00000310: 8e4f 873f 4b0b 3cbf 67c4 973f 102c 823f
00000320: a090 763f 1836 723f 96ce a03f f3b2 183f
00000330: 95d1 51be f8eb fa3d a644 3d3f 2abe 123f
00000340: 1b0c 76be 9ef6 f83e abb4 54bf d041 d63e
00000350: 2162 443f 32ac 0bbf 2c75 5c3f 90a9 173f
00000360: db70 7e3f e342 5b3f 48dd 7d3e 0969 0b3e
00000370: 8e58 81be 99e4 8c39 b978 0e3f d852 ea3d
00000380: b725 2c3e b7f7 783f 3e00 8abe 1f20 923f
00000390: 11ed 963f d7e6 d5be 543b 9b3f 2208 8e3f
000003a0: 150b 5c3f aa7d 393f fce5 7a3f 7941 c53e
000003b0: 61c7 59be c735 db3e cf7f 383f a519 613f
000003c0: 0f6f cdbe 7a4b 973f 6480 eebd e2eb 583f
000003d0: 3205 893f 09c5 71bf 397b 513f ac7d 4b3f
000003e0: aa47 6a3f b6f1 b03f e5f5 b83f 8eea c7bc
000003f0: d077 4fbe f63e 223c 7f01 223f 6249 4a3f
-0.5319914 0.5894542 0.11517122 0.7588781 0.65948194 -0.8940893 0.62944776 0.22682782
0.96222305 0.96116096 0.46744815 -0.0061268774 -0.08305774 0.05620318 0.8016596 0.690618
-0.3223949 0.8124059 -0.16082641 0.9708183 1.3664755 -0.775096 0.87801176 1.097372
0.9316979 1.1363136 1.1696669 0.1827221 -0.31073081 0.24192753 0.84634316 0.51130074
-0.21924944 1.4262148 -0.20447685 1.2847292 1.3290579 -0.22222672 1.2426554 1.213229
1.2140112 1.2669829 1.3351729 0.23875363 -0.12201014 0.40358353 1.2046552 0.6932412
-0.1650644 1.0683159 -0.2727577 1.0032252 0.6494123 -0.67236817 1.1911452 0.85426515
0.7854055 0.6978983 0.9942591 0.523192 -0.19989534 0.2503427 0.6084233 0.4051756
0.076488934 1.0841691 -0.2589156 0.9128501 0.58656013 -0.73901266 1.3283379 0.4128028
1.0805728 0.5809864 0.7902999 -0.04384175 -0.23469365 0.29546687 0.93776613 0.24165586
0.3197188 0.65273 -0.2605418 0.38500953 0.73286223 -0.636492 0.4921947 0.7130123
0.713957 0.32224846 0.63950896 0.30976626 -0.3864945 -0.32628235 0.3577074 0.10529737
0.27290696 1.1938412 -0.51451576 0.63481605 0.61510575 -0.48852512 0.98428136 0.6672583
0.98701036 1.3597103 0.56329846 0.062300503 -0.15656362 0.37250155 0.6508056 0.7839867
0.05205969 0.5494664 -0.0026074909 0.6367177 1.0815755 -0.8538063 1.1359702 0.5243924
0.8866025 1.1924566 0.8163086 0.30920938 -0.22140223 0.27605715 0.84697086 0.44016668
0.23191886 0.70985067 -0.30101863 0.9296041 0.6633223 -0.7524714 1.0686935 0.44188675
0.6682032 1.1340574 0.84718657 0.1723967 -0.24959469 0.3665002 0.61318165 0.26473173
0.28781408 0.71183634 -0.37863725 0.9665943 0.6941972 -0.9746328 1.081348 0.8737509
0.88934875 0.40402603 1.1160876 0.53271496 -0.2698765 0.19773857 0.6906096 0.53957295
-0.13303286 0.80218184 -0.43346605 1.074118 0.51436335 -0.47618625 1.4008006 1.124943
0.98167264 0.81623554 0.74872607 -0.090063676 -0.25474903 0.42561954 0.84970206 0.44977173
-0.08512597 1.4520421 0.13256243 0.70811427 1.2193788 0.043198682 0.8488979 1.4465278
1.2218202 0.53177655 1.024683 0.19054158 0.11721659 -0.161434 0.5338778 0.5756275
-0.3190672 0.83780235 -0.075358525 0.8366985 1.0571153 -0.7345473 1.1856812 1.0169697
0.9631443 0.9461379 1.2563045 0.59648055 -0.20490105 0.12252039 0.73932874 0.5732142
-0.24028055 0.48625654 -0.8308818 0.41847086 0.7671223 -0.54559624 0.8611629 0.59243107
0.99390954 0.85648936 0.24791443 0.13614286 -0.25262874 0.000268732 0.5565296 0.114415824
0.16811262 0.9725298 -0.2695331 1.1416053 1.1791097 -0.4177768 1.212748 1.1096232
0.8595441 0.72457373 0.9800718 0.38526514 -0.21267463 0.42814466 0.7207002 0.87929755
-0.40123793 1.1819909 -0.11645582 0.8473493 1.070471 -0.94441277 0.8182865 0.79488635
0.915156 1.3823764 1.4450041 -0.024403837 -0.20260549 0.009902706 0.6328353 0.79018223

gru.weight_hh f4 [48, 16]
00000000: 2ff7 1dc0 6a04 0dbf 4866 cfbe c671 e33c
00000010: bac3 c4be 75d3 0a3e 4a68 6cbf 00d8 4a3f
00000020: 70d3 c83e 7569 433f 8662 e43e 2ad9 a9be
00000030: a242 fd3d 217a e73d a7b6 28bf a5ee 803e
00000040: 057d fe3a bae6 9a3f ccd4 6fbf 2d4b 2d3e
00000050: ae1f 153d e274 22bb e816 a9be 9433 123e
00000060: 8028 aebe 5479 fe3e 1313 a13e 6362 b13c
00000070: 8225 253e b851 c53e 1358 693d ac1b 69be
00000080: 3993 2cbe 2bd5 92bd 181b 17bf f5fa 013e
00000090: 7085 6bbe 690c 3e3c 7c99 08be 9a29 923d
000000a0: 789f 48be 3493 203e 5be1 393e 2c52 4ebe
000000b0: ba7a b9bc 1cc8 b9bd 77a8 13be 3a08 aa3d
000000c0: 7477 49bf e5d0 9f3e de58 69bf 814e 2ac0
000000d0: 8ffc 18bf 732a 17bf fd52 8cbe 3ca5 203f
000000e0: 4ff2 89bf 969d 313f c02e 4a3f b032 8bbf
000000f0: 819b 503e e92a 2dbf 5871 0abe 8d87 163f
00000100: e9a3 8ebd f5a8 1dbd d8c7 a5bd 5a1c afbe
00000110: 350f f53f 45a1 34bf 81b6 b8bd 587e abbd
00000120: aada 123f ddbc 06be aa13 913d 299f b4be
00000130: 77a5 cabe e24a 82bf ba9e c5be bf29 d3be
00000140: eb95 e0bd 0976 723c 9ada 62bf eabe 4d3f
00000150: 6e98 753e 9569 3640 c923 91bf 83bc 22bf
00000160: 2863 c13d de67 9b3f 728f aa3e b022 f53d
00000170: 955b 563f eade b03f 7360 34bf 519b 4bbf
00000180: ae5a acbd 6612 273c 8277 13bf ef7d 023e
00000190: e663 49be 94c3 f1be a8b5 8a3f c241 e73e
000001a0: 7a54 dc3c 4c70 8d3e b623 e43e fb47 5dbf
000001b0: 5798 db3e db0d 033e d6f1 9aba 7b56 ec3e
000001c0: 8215 2dbf 7896 843e 3797 cabe 5cc5 c4be
000001d0: d171 8ebf 9a0f 87bd 665f 86bf 4e0e fd3f
000001e0: 3514 2fbf 2f28 7c3f 4729 193f c69e 68bf
000001f0: 8a3e 993e 1eb8 30bf 39bf e8be 93f1 acbd
00000200: 26f0 50bd b43c e43e 7d9b 8ebf 33c0 993d
00000210: 7f31 2c3f 00a4 60be 5a38 263f 85e3 a03f
00000220: 617a bf3f 535d 293e e41c fbbe 9204 e83d
00000230: 1b86 403f 4463 9fbe 799f d73d 890f 273e
00000240: d903 9fbd 2314 c73d 44e1 443f e9e0 e7be
00000250: 27cc cdbe e761 c3be 3361 dabd c3df 453e
00000260: 4303 15be a0cb 98bf 04fc 2f3f 721e 483f
00000270: 55c2 8fbe 37ca 333e c36d 4bbe b61d 38be
00000280: aa15 5ebb 2534 d8bc d3fb 0ebf 870b 9fbf
00000290: 594d 01bf d140 c3bd 3f9d afbe d6a3 2b3f
000002a0: 2c71 94bb c87a 0f3f c172 f63f a4b7 68bf
000002b0: 68c3 4f3e 04be 0c3e d2a9 2ebf 6380 bebe
000002c0: 6fbc 44bd cb24 fcbe cfea 2bbf 78b4 2cbf
000002d0: a620 85be e347 eabe c838 293f 70e0 33bf
000002e0: 8a69 9abe 1928 8cbf 4e0b fd3e d35b b3be
000002f0: 5df4 ccbe ba9d 5bbe 6d92 1e3e 713b 6b3f
00000300: f44c 72be be6c 21bf b818 26bf e38b 863d
00000310: 9ec3 553d 4ead 1a3f 2ddf 75bd 0756 d9ba
00000320: 7218 943e 6f05 813f ac84 aabd 7dd7 6cbf
00000330: d6d6 993f 3d88 ec3e b110 1ebf 6420 193e
00000340: aefc 65bf 3080 8a3d 680f 8fbe 279f 193f
00000350: f4a3 12be 744b 493f cb3a 2ebe 8888 af3e
00000360: 0bfa 32bf 01c9 df3e c9d0 723f a332 3dbe
00000370: 6129 283f 0a8a 2740 c0de 08bf e4cc 60bf
00000380: 28b3 b0be 0948 1bbd d50c a7be 672f bc3d
00000390: 0c21 ddbd cf70 153f 2216 01bf b933 4bbd
000003a0: 577d 03bf 17ce f83e f82e eb3e c6b3 88be
000003b0: dca0 b43e 3ba3 113e 7351 52bf 28fa c8bd
000003c0: f815 abbe c7c0 ecbe 1a52 723e b0af bd3e
000003d0: 5229 07bc 80e0 423e 914c 43bf dc47 943d
000003e0: 7f99 0b3e 8883 453f 2be4 f8bd dfff 12be
000003f0: 21a7 663e f4ce 84be 5005 00bf 26cd a7bf
-2.468212 -0.5508486 -0.40507722 0.027764212 -0.38430578 0.13557227 -0.9234663 0.7923584
0.39223814 0.7633279 0.44606417 -0.33173496 0.12366225 0.11302591 -0.65903705 0.2518207
0.0019415921 1.2101662 -0.9368408 0.16923209 0.036407165 -0.0024788906 -0.3302529 0.14277488
-0.34015274 0.4970194 0.31459865 0.02165336 0.1612759 0.3853891 0.05696876 -0.22764462
-0.16853036 -0.07169565 -0.59025717 0.12693389 -0.23000121 0.0115996385 -0.133398 0.07136841
-0.19592083 0.15681154 0.18152373 -0.20148534 -0.022641528 -0.09071371 -0.14419733 0.0830235
-0.78697896 0.3121406 -0.91151226 -2.6610415 -0.59760374 -0.5904915 -0.27407065 0.6275213
-1.0777072 0.6938108 0.78977585 -1.0874844 0.2037182 -0.676436 -0.135198 0.58800584
-0.06964857 -0.038491208 -0.08094758 -0.34201318 1.9145266 -0.7055858 -0.09019185 -0.083737075
0.57364905 -0.13157983 0.07083829 -0.3527768 -0.39579365 -1.0179102 -0.3859766 -0.41242787
-0.109660946 0.01479865 -0.8861481 0.80369437 0.23983929 2.8501942 -1.1339046 -0.63568896
0.09442741 1.2141073 0.33312565 0.11969507 0.83733493 1.3818028 -0.7045967 -0.7953387
-0.08415733 0.010197258 -0.5760423 0.12743352 -0.19667014 -0.47219527 1.0836687 0.45167357
0.02689575 0.27624738 0.44558495 -0.8643796 0.42889664 0.12798254 -0.001182134 0.4615973
-0.67610943 0.2589605 -0.39568493 -0.38431823 -1.1128484 -0.06594773 -1.0497863 1.976999
-0.6839021 0.98498815 0.5982861 -0.9086727 0.29930526 -0.6903094 -0.4545839 -0.08444514
-0.051010273 0.44577563 -1.1141201 0.07507362 0.67263025 -0.21937561 0.64929736 1.2569433
1.4959222 0.16539507 -0.4904548 0.11328997 0.7520463 -0.3113042 0.10528464 0.1631452
-0.07764406 0.09720638 0.7690623 -0.4528878 -0.40194818 -0.3816063 -0.106630705 0.1932364
-0.14552025 -1.1937141 0.6874392 0.78171456 -0.2807795 0.17557608 -0.1986609 -0.17980084
-0.0033887425 -0.026392052 -0.55853003 -1.2425393 -0.5050865 -0.09533847 -0.34299657 0.6704687
-0.0045300927 0.56046724 1.925377 -0.90905213 0.20289385 0.1374436 -0.68227875 -0.37207326
-0.048031267 -0.4924682 -0.67155164 -0.67462873 -0.2600147 -0.4575797 0.66102266 -0.7026434
-0.30158645 -1.0949737 0.49422687 -0.35030994 -0.40030184 -0.21446887 0.15485545 0.91887575
-0.23662168 -0.6305655 -0.6488147 0.0656965 0.05218851 0.6042069 -0.06002729 -0.0016581424
0.289249 1.0079783 -0.083260864 -0.9251631 1.2018688 0.46197692 -0.6174422 0.14953762
-0.89838684 0.06762731 -0.27941442 0.6000847 -0.14320356 0.7863076 -0.17014615 0.34283853
-0.69912785 0.4370804 0.9484983 -0.18476348 0.6568814 2.6178002 -0.5346489 -0.8781264
-0.34511685 -0.037910495 -0.32626978 0.09188729 -0.10797319 0.5837526 -0.50424397 -0.049609873
-0.5136313 0.48594734 0.45934272 -0.26699656 0.35278976 0.14222424 -0.8215553 -0.098133385
-0.33415198 -0.46240827 0.23664132 0.370481 -0.008249598 0.19030952 -0.76288706 0.072402686
0.13632773 0.77153826 -0.121528946 -0.1435542 0.22524692 -0.25939143 -0.50008106 -1.3109481

gru.bias_ih f4 [48]
00000000: 4873 833f ce70 973f b625 bb3f 01ff 833f
00000010: e69e 8e3f a2e4 343f 0412 943f d78b 5b3f
00000020: 2a65 9c3f 71ed 953f 8153 7b3f 33f5 9e3f
00000030: ea94 993f 3d2b 5d3f a4b3 a53f 614b 883f
00000040: 5657 a7bd 633a acbe fe3e b4be 811d 4ebe
00000050: 917e 05be c375 e2be 4b4f c73c c576 d1be
00000060: 060a 93be c961 cbbe b056 50be d47b 6dbe
00000070: c664 60be 962f 0dbf d4e6 98bd fc00 bdbd
00000080: adfe 80bc 1468 2e3d 3745 f03d 515b 813e
00000090: 4b22 24be 0aaf c2bc c489 a2be 991b a73b
000000a0: 596c 82bd c9d8 523d dd89 0fbd 15c2 183e
000000b0: 2f7c c1bc 1191 6cbe 32b7 173e c0c9 a9bb
1.0269556 1.18313 1.4620883 1.0312196 1.1142242 0.70661366 1.1567998 0.85760254
1.2218373 1.1713086 0.9817429 1.2418579 1.199857 0.863941 1.2945447 1.0648004
-0.08170955 -0.33638296 -0.3520431 -0.20128442 -0.13036563 -0.4423047 0.024329802 -0.40910926
-0.28718585 -0.39723042 -0.20345569 -0.23191768 -0.21913442 -0.55150735 -0.07465902 -0.092287034
-0.015746439 0.042579725 0.11731952 0.2526498 -0.16028707 -0.023765106 -0.31745732 0.0050997254
-0.06368322 0.051476274 -0.035043586 0.14917786 -0.023618786 -0.23102213 0.14815977 -0.005181521

gru.bias_hh f4 [48]
00000000: b854 8f3f 4605 933f da03 aa3f 9a9c 533f
00000010: a5d5 363f 822e 8c3f c1b4 7c3f 075d 6a3f
00000020: d924 673f cdfd 653f bdbc 933f 4745 893f
00000030: 7afc 903f dd87 8f3f eb2e a23f 9cc1 883f
00000040: f3f6 e1be f126 cbbe 0927 e3be be6b bebe
00000050: 2b0d 06bf 3b36 1ebe 9967 aebe 2864 fdbd
00000060: 192e f0be 4861 22be 1b3b 17be 385d a9be
00000070: b8d8 43be 69e5 16bf e2c5 cfbe 760e 83be
00000080: 7fa8 c8be 4d9b 253e 0100 e7bd c2fc 7cbe
00000090: 922d 193e f0a9 813e 895f aa3d 500b 1e3d
000000a0: b30d 843d f0c2 11be 8bf4 973e 2bff 73bd
000000b0: 4fa0 c63d 2710 723e 4b19 3abd 8f3a 04be
1.1197729 1.1485984 1.3282425 0.8266083 0.71419746 1.0951693 0.9871331 0.915482
0.902906 0.89840394 1.1541973 1.0724267 1.132705 1.1213337 1.2670568 1.0684085
-0.4413372 -0.39678147 -0.4436572 -0.37191576 -0.5236384 -0.15450375 -0.34063414 -0.12372619
-0.4691017 -0.15857422 -0.1476864 -0.33078933 -0.1912564 -0.589438 -0.4058066 -0.2559697
-0.39191052 0.16172524 -0.112792976 -0.24705794 0.1495879 0.25324965 0.08319003 0.038585007
0.064479254 -0.14234519 0.2967876 -0.05956952 0.09698545 0.23638974 -0.045434278 -0.12912963

linear.weight f4 [16, 113]
00000000: fc1e 2a3e 4873 5b3e 4a4c b73e 4e2c 073f
00000010: 19d7 d9bd c9c3 14be 000a 323e 6a48 663d
00000020: 0249 cd3b b01c 8ebe ac12 acbe e7e6 913e
00000030: 4a09 30bf 3a05 34be 0031 ab3e 22a4 82bd
00000040: bec5 913d f238 a53c 2169 493e 1161 70be
00000050: eaf9 8dbe 3d45 2abf b4a4 b9bd fc6c 5d3d
00000060: c5f5 b7be 642e 31be 00db 613d 4fe4 6abd
00000070: 8ec5 a6bd 06fb 093e 73f1 243f 374e debd
00000080: d4ae d4be ec95 393f 2301 9abc 900d 99bd
00000090: ab43 4e3d 25df b23d 77bd 9abe ba1e 3cbd
000000a0: fcc4 a63e 0fa3 833e 57b0 043e 9a40 4cbe
000000b0: aba2 6abe 8f94 493d 571b 55be 3d59 183e
000000c0: 5cfe 1cbe 35c8 8a3e 458b 033f 4a57 283f
000000d0: 8438 bf3d a9c4 b4bd fb33 35bd f867 41be
000000e0: bf9c cd3e ba1c 1f3e bb3a 1cbc cdb3 3d3e
000000f0: a5e5 cbbe f347 59be 97c8 213f f091 003e
00000100: c62e b4bd 8316 5f3e 07c5 9c3e ed49 b6bd
00000110: 5d93 9abd 27ea 873e e12f ed3c a76f 99bd
00000120: c49c cdbe fd02 74be bd95 2f3d 22b3 fabd
00000130: 4cce 65be e352 0fbd d881 fe3e 5e67 adbd
00000140: b88c 473d d64d 173f 5c0c 5dbe 1f7b adbe
00000150: 0429 f4bc 1038 cabc 918a c53e 5079 73bf
00000160: acbb acbe 9467 e13a 5398 1abe d98b cb3d
00000170: b969 f23c f6d9 903d ea2b c53d 0a8e 583e
00000180: 1485 cbbc 56eb 6f3e 0e53 a13e 5317 f13c
00000190: 8971 173e ffb4 28be 75e6 cc3d dc81 99bd
000001a0: 0489 8dbd daa1 3b3d e97b 5bbe 0f73 84bd
000001b0: 459a a4be d9a6 87be 559b 67be 5891 9dbe
000001c0: 1375 fe3e 8e70 393b 02f6 233f b7c4 ae3e
000001d0: 5c71 c53b d13b d93a 5e19 0fbd 54bb 7b3e
000001e0: 078f 93be 571e 1e3f 0233 26bd a21c 443e
000001f0: 8863 9f3e 3533 b2bd 5c4e dc3d dde0 853d
00000200: 5997 70be 7cd4 38be f0c0 0cbd 30e9 b7bd
00000210: 87d3 2ebe be05 d5bd 0236 8c3e 75be edbd
00000220: d61c 03bd 293c a0bd 2f9f 64be f119 433f
00000230: 88b6 e7bd 38db 353d e38a 16bf d3f1 e1be
00000240: 21a3 563e 43c7 9c3e 67bd a33e e260 47be
00000250: abae acbe 43aa e63e ba98 c3be 5206 16be
00000260: 7f33 993e 08fd 2b3f 707e b83e 4221 8ebd
00000270: f135 a23e 7452 6d3e 7d2e 95be c716 353d
00000280: 96fe 00bf 122b 16be f569 443d 274e a23c
00000290: 790a a1bd c5c5 66bd 6cd4 82be 6179 12be
000002a0: ea11 d6be f087 b93d 88b2 4a3e 3e61 79be
000002b0: 5dab f13e bc2e 833e c1aa c6be 7d69 5d3e
000002c0: b404 7f3d 76b7 0d3e 6403 01be 5c72 eb3c
000002d0: 1ef0 243f 766d b63e 0b63 a23e 28f5 113e
000002e0: e3dc 55be 092f bf3e 5e56 663b dcba 583f
000002f0: 5087 2abe 6b00 873b 8c44 42be 5023 1fbf
00000300: b1b3 bf3d c74e 1c3e 24f3 083e f057 fabe
00000310: c91a 543e faed 58be e386 be3c 3992 b3bb
00000320: d750 99bc be14 8c3e 3def e1be 4e0b 8bbe
00000330: 119f 08bf f886 bcbe e64b 84be c0e2 a83d
00000340: 34fe f2be 2f2b 3bbc b0ba c33e ed86 e7be
00000350: 70f0 98be 698a 86be 48ae 0cbf b6d1 bebe
00000360: 20c4 a0be 9b0c 3dbe 3208 72be 511d 0bbe
00000370: b9a0 83be 3159 50be 3149 febd 28a1 d4be
00000380: 4ff7 c9be 21d4 123e b0c5 8d3b f10c c23e
00000390: 1283 2ebe f6c1 7ebe dd72 98bd 2f8c 373c
000003a0: f5a8 003e acba 7abd db8d c3be 406b ec3d
000003b0: 6ee6 123e 31ae 92bd ab32 f53d 35e7 23bf
000003c0: d1ef 0f3e dabd a8be 5f49 003f 3e00 cabe
000003d0: 027e e73e 5bbb 4e3e 804b fb3d 4219 6d3e
000003e0: 10b3 7dbe a5d3 013e 958c 733e a33d 40be
000003f0: 0da7 a83e 06c7 be3d 9e1d 06bf dfbf 44bc
0.16613382 0.21430695 0.3580039 0.5280198 -0.1063673 -0.14527811 0.17386627 0.056221403
0.0062648067 -0.27756262 -0.33607996 0.28496477 -0.68764174 -0.17580119 0.33435822 -0.06378962
0.071177945 0.020168755 0.1966901 -0.23474528 -0.27729732 -0.665119 -0.09064618 0.054059014
-0.35929695 -0.17302853 0.055140495 -0.05734664 -0.08143149 0.13474664 0.6443092 -0.10854762
-0.41539633 0.7249439 -0.01879937 -0.0747329 0.050357502 0.08733968 -0.30222675 -0.04592774
0.32572162 0.2571034 0.12957893 -0.19946519 -0.22913615 0.049213942 -0.2081121 0.14877792
-0.15331405 0.2710587 0.51384383 0.6575819 0.093369514 -0.088265724 -0.044239026 -0.18887317
0.4015865 0.15538302 -0.009535487 0.1852562 -0.39823642 -0.21218853 0.631967 0.1255567
-0.08797984 0.21785931 0.3061907 -0.08900819 -0.075476386 0.26545832 0.028953495 -0.07491999
-0.40158665 -0.23829265 0.04286741 -0.12241198 -0.22441977 -0.034991156 0.49708438 -0.08466981
0.048718184 0.59103143 -0.21586746 -0.33882996 -0.029804714 -0.024684936 0.3858228 -0.95106983
-0.33736932 0.0017197006 -0.1509717 0.09938783 0.029591428 0.07072823 0.096275166 0.21147934
-0.02484373 0.23429617 0.31508678 0.029430067 0.14789404 -0.16475295 0.10004894 -0.07495472
-0.06910899 0.04580865 -0.21433987 -0.06467258 -0.32148948 -0.26494482 -0.22617848 -0.3077495
0.49698696 0.0028295848 0.64047253 0.34134457 0.0060254764 0.0016573613 -0.0349363 0.24583179
-0.2882006 0.61765045 -0.04057599 0.19151548 0.31130624 -0.08701173 0.10757133 0.0653703
-0.23495235 -0.18049806 -0.034363687 -0.08980024 -0.17072879 -0.10401486 0.27384955 -0.116085924
-0.032009922 -0.07823975 -0.22326349 0.7621146 -0.11314112 0.044398516 -0.58805674 -0.4412981
0.20960666 0.30620775 0.3198044 -0.19470552 -0.3372701 0.45051774 -0.3820246 -0.14650849
0.299221 0.6718297 0.36033964 -0.06939937 0.3168178 0.23175985 -0.2913703 0.044211175
-0.5038847 -0.14664868 0.04795261 0.019812657 -0.078633256 -0.05634095 -0.2555269 -0.14304115
-0.41810542 0.09059131 0.19794667 -0.24353501 0.47201052 0.25621593 -0.3880215 0.21622272
0.062260345 0.13839516 -0.1259895 0.028741054 0.6442889 0.35630387 0.3171619 0.14253676
-0.20885043 0.37340572 0.0035146694 0.84660125 -0.1665318 0.004119923 -0.18971461 -0.6216326
0.09360445 0.15264426 0.13374001 -0.48895216 0.20713343 -0.21184531 0.023257678 -0.0054800776
-0.018715305 0.27359575 -0.44127837 -0.27157062 -0.53367716 -0.36821723 -0.25839156 0.08246374
-0.47459567 -0.01142387 0.3822837 -0.45220128 -0.2987094 -0.26277474 -0.5495343 -0.37269372
-0.31399632 -0.1846184 -0.23635939 -0.13585402 -0.2570856 -0.20346524 -0.12416304 -0.41529202
-0.39446494 0.14338733 0.0043265447 0.37900499 -0.17042187 -0.24878678 -0.074437834 0.011202856
0.12564452 -0.06121318 -0.38194165 0.11543894 0.14345714 -0.071621306 0.11972555 -0.6402467
0.14056326 -0.32957345 0.50111955 -0.3945331 0.45213324 0.20188658 0.1227026 0.23154166
-0.24775338 0.12678392 0.23784097 -0.18773513 0.3293995 0.093153045 -0.5238894 -0.012008636

linear.bias f4 [16]
00000000: 584e 52be 180e 0d3d c087 df3e e708 c3bd
00000010: 4238 56bd a26c 153e 8194 47be a35b a93e
00000020: 6b41 853e 7f5e 1b3e dc97 a4bd a032 853c
00000030: 4aec 90be 63a2 593d 253f d13d fb3e 923e
-0.20537698 0.03443727 0.43658257 -0.09523182 -0.052299745 0.14592221 -0.19490243 0.33077726
0.26026472 0.15172766 -0.080367774 0.016259491 -0.28305274 0.05313338 0.10217122 0.28563675

layer1.linear.bias f4 [32]
00000000: ac34 48bc 9d18 8c3c d253 42bd c340 31bd
00000010: 042b 123e d811 263e 44eb f7bd d9f0 693c
00000020: 2510 043d 1c0d bb3d f3a4 b93d b550 d9bd
00000030: db6e 8539 b20e 1dbd b16c a5bd e98b 093e
00000040: e23e a93c 8f85 a73d f96d 85bb e539 523c
00000050: cf96 243e 607c c13d 9f4e 843d d26e 053e
00000060: 0424 7d3c 5fbb fc3c 34ba 07be 21e4 7ebd
00000070: c8ee 87bb 7708 e73c 0af9 fabd 8cc8 2a3d
-0.012219589 0.01710158 -0.04744322 -0.043274652 0.14274222 0.16217744 -0.1210542 0.014278614
0.03224196 0.0913336 0.09064665 -0.10611097 0.0002545033 -0.038344093 -0.08077372 0.13432278
0.020659868 0.08179771 -0.0040719477 0.012831186 0.16073154 0.09447551 0.06460308 0.13030556
0.015450481 0.030851064 -0.13254625 -0.06222928 -0.004148338 0.028202279 -0.12254532 0.041695163

layer1.linear.weight f4 [32, 32]
00000000: 441a d33d 99a3 e43d 6c6b 1abf c7aa dd3d
00000010: 2144 b33e c42a b43d 6bf1 553e beca 4ebf
00000020: 532e f4bd 649f c53d 5f70 053f 83e8 60bf
00000030: 01b6 ed3c b02f 13be 3b5a f73d e6e1 8e3e
00000040: 70c6 03bd 94ec 0cbc f666 6e3e 3160 78bf
00000050: 5998 e13e 4e79 21bf 34d9 483d 8c22 aabe
00000060: 8395 19bd 725a 76bb 1f4b 19bf a64c 283f
00000070: df52 8cbc 33f2 a3be 9279 cf3e 58b1 8d3f
00000080: 36bc 3d3e 731d df3e e4eb b73e 3bd4 aebd
00000090: cb37 86be 288e d23e 9b3c 0abf 7437 1f3f
000000a0: fbd4 4a3e 4ec3 3c3e 044e ae3c 0816 9ebe
000000b0: 8c22 dabd d7e5 3cbe 0d82 333e af65 b23e
000000c0: 219c c93e 9898 c33e d3a6 54be 5fe2 d9bb
000000d0: 9d3a 4dbd f99f 743f 02d5 2abf c523 fbbe
000000e0: 9853 723e 9b3e 1ebf 3cf3 10be 227a b33f
000000f0: 2b3a 5fbf 73a9 153f ca84 9d3e aef0 3ebf
00000100: 79f0 0e3d f15d 80be 3dca 8a3e 72e8 92be
00000110: 8c2b 97bd 4121 b73e a141 883d 64b7 46bd
00000120: 575b 4a3e 9a62 663e 51e4 093f 35d6 113f
00000130: 1d3a 28be c7eb 2abd 3e3d 113c 594c 3bbe
00000140: 2ffa 7abe 1fa8 be3e a4dc 5e3f 379f 453f
00000150: e38e 13be fe05 1dbe 4de1 3a3e 5649 e8be
00000160: 523f 4a3f 9dba 76bf e05a 02bf 799b 83be
00000170: b2be d53e 14b5 acbd 0f7f a23e 6bfd 233e
00000180: 2f6a 70be d99b 13be 127f 6c3b fdb3 1fbd
00000190: 6108 073f 8873 393e a2ec 213d 24d2 3f3d
000001a0: 7dfd fcbe 2263 22be 92c5 88be 1fae 01bf
000001b0: df80 093f 998d ddbd e032 b23e 4a8d 74be
000001c0: a6ed 5fbe af42 7a3e 7af9 1dbf cc26 fabd
000001d0: a18c 7fbf 71d2 43be 2f49 81be fa0f 563e
000001e0: 3ae9 ba3e 0cbd 56be 84e7 443f f910 f2bc
000001f0: d2e9 1d3f 132a 75be 5f8f 123f 5e5a 253e
00000200: f017 26be 3ef3 163e 15ad 1f3e 2113 473e
00000210: c848 e5be f97a 103f e631 c93d 4f94 733e
00000220: a205 343e a697 d83e 8098 22be 9116 bdbe
00000230: 8649 d2be c840 fcbd 6399 0d3f 2e60 9f3d
00000240: 7f02 0dbf 422a d4be a243 193f 7888 6b3f
00000250: 3017 553e f8f0 0c3e ccf7 16bf 908a f1be
00000260: 469b 52bf 8924 64be ceb4 873e 590f 483e
00000270: a9e8 60be 0273 2dbd d58c f53d db97 87be
00000280: a409 82be 9f30 d03e d250 b23e 623f bdbe
00000290: e21f e63d 4c46 ac3e 315c debc 8903 ccbd
000002a0: a1c3 a23d f2bd 6d3e 6e8d ffbd 4a0b 2d3e
000002b0: 9576 0abc 362e f03e 55c7 ebbd 72e1 bbbe
000002c0: b3b7 523f 619f 453f 79bb 373f a64b 983c
000002d0: bc40 36be 8224 2f3f 7892 edbe ded5 01be
000002e0: 5d18 29bf d93f ddbe 2fae 8a3d eab2 27bf
000002f0: 3aeb 16bf 4046 a5bd 61ca 19be 016f 013f
00000300: bb0e 8c3d df4d e93a 955d 073e 2b73 3cbe
00000310: 50d8 31be e1cd b33e 591f 8fbe 94a4 843e
00000320: 7999 553e 372f 44bf 3f9a 3bbe 3014 423d
00000330: 7bf1 74be 0b2c c83e 85d0 0a3f 5f9f 95be
00000340: c608 8b3f e175 3bbe 1b2f dd3e cdb5 5a3f
00000350: b903 64bd b217 9e3d da80 a1bd 5e3b 47bf
00000360: 847a 8f3f 25e2 59bd a82e 1dbf c9da 103f
00000370: f324 6c3d d5c0 393f c513 213e 0c7d 9e3b
00000380: 1146 2c3e a9d6 a4bd ed3d a7bc e37d a83e
00000390: 7744 b2be c9ba 80be 6ac0 6fbe c853 843e
000003a0: 9c7f acba 3918 1c3e cb65 6abe 35d3 c6bd
000003b0: da8f 8ebe 5a46 5c3e 7445 88be db33 6b3e
000003c0: de6d b7be b446 2f3e c9cf 87bd 37ed cbbc
000003d0: 9038 b5bc 17a4 52bf 7155 dc3e 6de2 c83e
000003e0: 325b 723d cb82 503d d201 493f b938 e0bb
000003f0: 4da3 8c3d 8534 09bf cb27 8d3e f79d 63bf
0.10307744 0.11164016 -0.6032016 0.10823589 0.35012916 0.087972194 0.20892875 -0.8077811
-0.11922898 0.09649542 0.5212459 -0.87854785 0.02901745 -0.1437366 0.12077757 0.27906722
-0.032171667 -0.0086013265 0.23281464 -0.97021776 0.44061545 -0.6307572 0.049035266 -0.33229482
-0.0374961 -0.003759053 -0.5988025 0.65741956 -0.01712936 -0.3202072 0.40522438 1.1069746
0.18528828 0.43577155 0.35922158 -0.085365735 -0.26214442 0.41124082 -0.53998727 0.6219399
0.19807808 0.18433878 0.021277435 -0.30876184 -0.106511205 -0.18447052 0.17530079 0.34843203
0.3937693 0.38202357 -0.20766763 -0.0066493 -0.050104726 0.955566 -0.66731274 -0.49050727
0.23664701 -0.6181428 -0.14155287 1.4021647 -0.8719813 0.58461684 0.30765373 -0.74586
0.0348973 -0.25071672 0.2710742 -0.28692967 -0.07381353 0.35767558 0.06653143 -0.04851474
0.19761406 0.22498551 0.5386401 0.5696748 -0.16428418 -0.04172876 0.008864699 -0.18290843
-0.245095 0.3723764 0.8705542 0.7719607 -0.14409976 -0.15334317 0.18250008 -0.4536845
0.7900287 -0.963785 -0.50919914 -0.25704554 0.4174705 -0.084329754 0.31737563 0.1601464
-0.23478006 -0.1441492 0.0036086482 -0.03899001 0.5274716 0.18110478 0.03953231 0.046831265
-0.49412146 -0.15858129 -0.26713234 -0.5065631 0.53712267 -0.10818023 0.3480444 -0.23882023
-0.21868 0.244395 -0.61708796 -0.12214431 -0.9982396 -0.19123246 -0.25251147 0.20904532
0.36506063 -0.20970553 0.76915765 -0.029549109 0.61684906 -0.23941831 0.57250017 0.16147754
-0.16220069 0.14741227 0.1559337 0.19440891 -0.4478209 0.5643764 0.098239705 0.23787044
0.17580274 0.423032 -0.15878487 -0.3693128 -0.4107172 -0.123170435 0.55312175 0.07782017
-0.55081934 -0.4143849 0.59868824 0.9200511 0.20809627 0.13763797 -0.5897186 -0.47176027
-0.8226818 -0.22279562 0.2650513 0.19537105 -0.21963753 -0.042346008 0.11989752 -0.26483044
-0.2539798 0.40662095 0.34827286 -0.3696242 0.1123655 0.33647382 -0.02714357 -0.09961612
0.079474695 0.2321699 -0.124781474 0.16898838 -0.008451124 0.46910256 -0.11512629 -0.3669544
0.8231155 0.7719632 0.71770436 0.01859076 -0.17798132 0.6841508 -0.4640081 -0.1267924
-0.660528 -0.43212774 0.06771504 -0.65507376 -0.5895268 -0.0807004 -0.15018608 0.50560004
0.06838747 0.0017799697 0.13219292 -0.18403308 -0.17367673 0.3511801 -0.27953604 0.25906813
0.20859326 -0.76634544 -0.18320559 0.047382534 -0.23920242 0.39096102 0.54224426 -0.29223153
1.0862052 -0.18306686 0.432 0.85433656 -0.055667613 0.07719363 -0.078859046 -0.7782496
1.1209264 -0.053194184 -0.61399317 0.5658384 0.057652425 0.72559863 0.15730198 0.004836684
0.16823603 -0.08048756 -0.02041527 0.32908544 -0.3481786 -0.25142506 -0.23413244 0.2584517
-0.0013160589 0.15243615 -0.22890393 -0.09708253 -0.27844125 0.21511212 -0.2661549 0.22969
-0.3582601 0.17116815 -0.06631429 -0.024893386 -0.022121698 -0.8228163 0.43033937 0.3923525
0.059169002 0.050905984 0.785184 -0.0068426994 0.06867085 -0.53595763 0.27569422 -0.8891291

layer1.agg.bias f4 [32]
00000000: 0000 0000 0000 0000 0000 0000 0000 0000
00000010: 0000 0000 0000 0000 0000 0000 0000 0000
00000020: 0000 0000 0000 0000 0000 0000 0000 0000
00000030: 0000 0000 0000 0000 0000 0000 0000 0000
00000040: 0000 0000 0000 0000 0000 0000 0000 0000
00000050: 0000 0000 0000 0000 0000 0000 0000 0000
00000060: 0000 0000 0000 0000 0000 0000 0000 0000
00000070: 0000 0000 0000 0000 0000 0000 0000 0000
0.0 0.0 0.0 0.0 0.0 0.0 0.0 0.0
0.0 0.0 0.0 0.0 0.0 0.0 0.0 0.0
0.0 0.0 0.0 0.0 0.0 0.0 0.0 0.0
0.0 0.0 0.0 0.0 0.0 0.0 0.0 0.0

layer1.agg.mlp.0.weight f4 [1, 64]
00000000: a0fe d73b e88e 65bd 204e 2e3c 24b5 9fbd
00000010: 48ed eebd 7a68 fa3d eed4 d4bd 3c55 b83d
00000020: 7cd0 163d c8fd a13c 0e14 a6bd 802e 2f3c
00000030: 907c 423c 085c ddbc e809 d03d 9e57 ff3d
00000040: c2e9 e9bd b8ab 2ebd fecf c73d 584f 5f3d
00000050: 400e 86bd d630 83bd a402 11bd a0ac 8abc
00000060: e0bc 783c cc3a dabd b0a3 e53c 8062 e13d
00000070: d627 f8bd 7046 f3bd 64ef 7cbd f615 d0bd
00000080: 0c69 783d f442 95bd 1e78 b63d b0d6 4e3c
00000090: 8057 0ebc 90d4 24bd 009f 883d c622 de3d
000000a0: fad1 8abd ba42 973d 50df 97bc 0077 17ba
000000b0: 98dd dd3d c068 513d 246b d93d c8f1 a7bc
000000c0: 60bd 8dbb dcd7 e5bd 26bc 8e3d c006 643d
000000d0: e000 11bc 80b9 b4bd ec93 493d 4014 cabb
000000e0: b2f2 c83d a856 8b3d 807f 913c 2071 6dbd
000000f0: 5285 c0bd 4658 b53d 4edd debd c806 c73c
0.006591633 -0.05604449 0.010638744 -0.07798222 -0.116663516 0.122269586 -0.103921756 0.09000632
0.03681992 0.019774333 -0.08109294 0.010692239 0.011870518 -0.027021423 0.101581395 0.124678835
-0.11421539 -0.042644233 0.09756468 0.054519027 -0.06545687 -0.06405799 -0.03540291 -0.016928017
0.01518175 -0.10655746 0.028032154 0.110051155 -0.12116973 -0.11878669 -0.06175174 -0.10160439
0.060647056 -0.07288161 0.08909629 0.012624428 -0.008687854 -0.040241778 0.06670952 0.10846476
-0.06778331 0.07385774 -0.0185391 -0.0005777925 0.10833281 0.051125288 0.106161386 -0.020501032
-0.004325554 -0.112228125 0.0696948 0.0556705 -0.008850306 -0.08824444 0.049213335 -0.006166965
0.098119155 0.06803638 0.017760992 -0.057969213 -0.09400429 0.088547274 -0.10882054 0.024295226

layer2.linear.bias f4 [16]
00000000: a974 86bd 982d 0f3c e6a4 13be d814 b63d
00000010: 286b b93d 40f0 8dbe 22ea 873b d1bd d73d
00000020: cc95 1c3e 3dd9 4c3e 3c8b 043d 46b0 c0bd
00000030: 7c99 2fbe f61b 8bbc 38a5 d33d 0e25 11bd
-0.0656522 0.008738898 -0.14418373 0.088906944 0.090536416 -0.2772236 0.004147784 0.105342515
0.15291518 0.20004745 0.032359347 -0.094086215 -0.17148393 -0.016981106 0.10334247 -0.03543573

layer2.linear.weight f4 [16, 32]
00000000: 4351 d83e a21c be3d 4c7f 1e3f e934 91be
00000010: 0f81 04be 105c ac3e 8984 2f3f 0c77 94be
00000020: 95e6 c8be 4e23 d0be c671 16bf 293e 253d
00000030: 3fd4 ebbe 0450 dbbe 3099 9b3a 5ba1 1bbe
00000040: c3ff 27bf 3f97 b13e 8667 3ebf c1ac d8be
00000050: cf55 fbbe cdba bfbe ff66 f63e be57 babd
00000060: 391b 193e b44c 91be d55d 53bf 1292 563f
00000070: 78ab 0ebf a5b7 2dbf aec3 ad3c 0c0a 233f
00000080: baa3 4a3f 4f40 c03d f18c 0dbe 7549 9ebe
00000090: cf2e c2be 8df0 82bd a76f 0b3f 4d1d edbd
000000a0: d318 62be 51fc 973e 56b1 a73e 47b6 933b
000000b0: bb59 a5be 9544 87be 41bf 3c3f 7ebc d23e
000000c0: 0bbd 993e 1fdf 0a3f c781 743e 1956 d63e
000000d0: b60f d53e 3650 223e 85fd b43e 17b2 f93e
000000e0: deb2 133e 53b0 2dbe 9610 163e ce5b 44be
000000f0: 77a2 1b3d f4ab fa3e 893c fbbb fc40 a53d
00000100: a85a a13d 3fbf 97bf 4aa0 86bf debf 51bf
00000110: 0b35 75bf 4ba6 42bf e433 f6bd 8f96 dfbe
00000120: e817 29bf 2b40 35bf e6ac 2cbf b918 08bf
00000130: 7db4 fbbe ae32 20bf 7fed 00bf 6a4e 79bf
00000140: 4eb1 05bf ab5e b7bd 87af 4fbf ce25 77bf
00000150: eb87 7fbf 009a 4cbf 96c0 93bf 72ee f3be
00000160: c5ac 47bf 7e3e 64bf 8bec a4be 3a83 4a3d
00000170: c487 863c b6b7 41be 65d5 273f 84a8 a1be
00000180: c07e fe3e e68c 3abe 3718 a33e dac5 3b3e
00000190: 9d63 8ebe 96b7 0d3f 74e8 20bd cb00 7e3e
000001a0: 1c08 24be 24e7 8d3c 48c5 673e 3ecf 82be
000001b0: 6d0a 083f 744b 813e 4235 94be 14f8 e13e
000001c0: b15d 6c3e 147b 053f b2be 113f d8eb e0bd
000001d0: 2609 ee3e b4c0 883e 65b3 8cbe 6b9c 0f3e
000001e0: 15c7 ea3e ddcb a43d 184e ae3d ea45 93bd
000001f0: 7ee6 11be caa7 c1be b94d 26bd 9461 6fbe
00000200: fee9 aabe 9231 d13d 5013 a3be 1539 b1be
00000210: f071 473d 9f45 103f 4bb1 e63e 54fa 9bbe
00000220: 64a0 b13e c092 9b3e ea7c 1d3f 1e0e 78be
00000230: 3e63 b7be d374 f03e c8fa 2c3e 8ae9 17be
00000240: 4c24 95bd 023c ed3e 44f5 893e 71a8 023e
00000250: d2c1 5cbe 06a6 303e 0fce a33e 29ee f1bd
00000260: f6de 083f 2ee9 5d3e aab8 4c3e 2878 843e
00000270: b209 053f f574 e73d ea69 d5bd 3b93 9e3c
00000280: 71c3 26bf 722a a8bf 8582 26bf 7cdc 31bf
00000290: bbf1 84bf b599 3cbf 252b 2ebf c93c 3cbf
000002a0: a199 4abf e793 07bf 5e8b 56bf aff7 42bf
000002b0: a0fd e5be f28b 58bf b9ed 01be 7e72 8cbf
000002c0: 8a57 32bf 4f29 f8be 7822 52bf 14ec 94bf
000002d0: 9334 eabe 9be4 61bf 6693 39bf 675d 8abf
000002e0: 693f 31bf f73a 5fbf 3eab 4fbf 3ad2 8dbe
000002f0: f0d0 f8bd 5546 86bf a5a3 e3bd c78b 73bf
00000300: 58c4 34be c62b bbbe 0e31 bf3e efca 793d
00000310: f4ee 30be 47f5 4fbd 9a94 5e3d c7d9 f23e
00000320: 8bcd 1c3f bacb 3c3e 1058 343f 8517 2bbe
00000330: 9e1b 2b3e 259d aabc e62d 5e3e 3557 15be
00000340: 0b0f 963e 6c92 273f 78c1 f73d 7bc6 c4bc
00000350: dcdf 9bbe d0ed 823d 74ef 8e3e 00e7 893e
00000360: 782d 60be d922 143f 571c 22be 90bc d53c
00000370: b062 ac3e bd22 1b3e c17c 1dbe 5820 d23e
00000380: ebdd 943e 9c60 1abe 3a8f 2d3e 6252 713e
00000390: f6ab 903d dc58 df3e f346 10be 3fb1 57bd
000003a0: 7387 a8be 314e 5f3e 760a aabd 7a25 94be
000003b0: c44d dd3e b568 ea3e 02f3 203f 9a90 7a3d
000003c0: 8fa5 b3bd 43a5 9e3e ae88 acbe 0e2d 63be
000003d0: bed3 c93e 76a2 66bd ea52 95be 796a 033f
000003e0: 041d 813d fd32 8b3e 3965 73bc 5c6a d23c
000003f0: 83ba 083d e5c6 123f a341 cfbe de61 90be
0.42249498 0.09282805 0.6191299 -0.2836068 -0.12939857 0.33663988 0.6856161 -0.28997076
-0.3923842 -0.40651935 -0.58767354 0.040342484 -0.46060368 -0.42834485 0.0011871215 -0.15198271
-0.65624636 0.34685704 -0.74376714 -0.423193 -0.49088904 -0.37447205 0.48125455 -0.09098767
0.14951791 -0.28378832 -0.8256505 0.83816636 -0.5573039 -0.67858344 0.021211471 0.63687205
0.79156077 0.09387266 -0.13823296 -0.30915418 -0.37926337 -0.06393538 0.5446724 -0.11577854
-0.22079782 0.2968469 0.32752484 0.004507813 -0.3229502 -0.2641951 0.7372933 0.41159433
0.3002704 0.54246706 0.23877631 0.41862562 0.4161355 0.1585091 0.3534967 0.48768684
0.14423701 -0.16961794 0.14654765 -0.19175646 0.037996735 0.48959315 -0.0076671285 0.080690354
0.078786194 -1.1855239 -1.0517666 -0.8193339 -0.9578406 -0.7603499 -0.12021616 -0.43669555
-0.66052103 -0.7080104 -0.6745132 -0.53162724 -0.4916114 -0.6257733 -0.5036239 -0.97385275
-0.5222367 -0.08953603 -0.8112721 -0.9654206 -0.9981677 -0.79922485 -1.1543148 -0.47642857
-0.77998 -0.89157856 -0.32211718 0.049441554 0.01642216 -0.18917736 0.6555999 -0.3157388
0.49706078 -0.18217811 0.31854412 0.18337193 -0.27810374 0.55358255 -0.039284185 0.2480499
-0.16018718 0.01732213 0.2263385 -0.25548738 0.5314091 0.2525288 -0.28946882 0.4413458
0.23082615 0.5214093 0.569316 -0.109824836 0.46491355 0.2670952 -0.27480617 0.14024512
0.45855013 0.08046696 0.08510989 -0.071910694 -0.14248082 -0.37823325 -0.040601466 -0.23377067
-0.33381647 0.10214533 -0.31850672 -0.34613863 0.048692644 0.56356233 0.4505714 -0.30464423
0.3469268 0.303854 0.6151873 -0.24224135 -0.35817903 0.4696413 0.1689254 -0.14835182
-0.07282314 0.46334845 0.26944935 0.12759568 -0.21558312 0.17250833 0.31993148 -0.118130036
0.5346521 0.21670982 0.19992319 0.25872922 0.5196792 0.11301605 -0.10420592 0.019357314
-0.6514197 -1.3137953 -0.65042907 -0.6947706 -1.038627 -0.7367204 -0.68034583 -0.7353025
-0.7914067 -0.52960056 -0.8380641 -0.76159185 -0.44920063 -0.8458854 -0.1268834 -1.097244
-0.69664824 -0.48469016 -0.82083845 -1.1634545 -0.45743236 -0.8823945 -0.7249054 -1.0809754
-0.6923738 -0.8719935 -0.8112067 -0.27699453 -0.12149227 -1.0490214 -0.11115197 -0.9513516
-0.17653024 -0.36556834 0.37342113 0.06098455 -0.17278653 -0.050771024 0.054340936 0.47431776
0.61251134 0.1843709 0.7044687 -0.1670819 0.16709754 -0.020826885 0.21697196 -0.14584048
0.29308352 0.654578 0.12097448 -0.024020424 -0.3044423 0.063930154 0.27917063 0.26934052
-0.21892345 0.57865673 -0.15831123 0.02609089 0.33669043 0.1514997 -0.15379621 0.410403
0.2907556 -0.15075916 0.16949168 0.23566583 0.07064049 0.43622482 -0.14089565 -0.05265927
-0.3291584 0.21807171 -0.083027765 -0.28934842 0.43223393 0.4578301 0.628708 0.06117306
-0.08771812 0.3098546 -0.33698028 -0.22185156 0.3941936 -0.05630728 -0.2916482 0.5133434
0.063043624 0.27187338 -0.014855676 0.025685482 0.033380996 0.5733474 -0.40479764 -0.28199667

layer2.agg.bias f4 [16]
00000000: 0000 0000 0000 0000 0000 0000 0000 0000
00000010: 0000 0000 0000 0000 0000 0000 0000 0000
00000020: 0000 0000 0000 0000 0000 0000 0000 0000
00000030: 0000 0000 0000 0000 0000 0000 0000 0000
0.0 0.0 0.0 0.0 0.0 0.0 0.0 0.0
0.0 0.0 0.0 0.0 0.0 0.0 0.0 0.0
