MMBenchmarkingCode/HTGN-EvoGCN/data/output/log/infectious/HTGN/model_checkpoint.pth (torch, 713650 bytes, 18 tensors)

feat f4 [408, 408]
0.0765562 -0.029645607 0.06334679 0.0455312 0.0065628 -0.061545055 -0.05309184 0.023151305
0.056571305 -0.06739477 0.07087814 0.063727446 -0.075746976 0.066049226 0.06605249 0.016934237
0.010705209 -0.081376925 -0.04785479 -0.067005605 0.01808728 -0.027205907 -0.08427937 0.080331355
-0.045553524 -0.039133426 0.02753888 -0.035489976 0.07990058 0.023899002 -0.051164616 0.066862345
-0.06999899 0.0615834 -0.014427642 0.013061059 -0.051837116 0.041183345 0.05451386 0.040774442
0.020131929 -0.028888006 -0.023729784 -0.03769556 0.024392668 0.029407933 0.0005201726 0.0021884928
-0.052076142 0.014163155 -0.013213644 -0.08053638 -0.041406423 0.054890227 0.061468598 0.0004919494
0.050332002 0.022266693 0.0054092556 0.0006532441 -0.08451391 0.0035034143 0.058815967 0.014219776
-0.06938464 0.03151882 -0.06769927 0.047329035 -0.037536353 -0.023150273 -0.038025215 0.01084931
-0.029042544 0.08020348 0.057841383 -0.019867217 -0.041352663 -0.008309432 0.07296442 0.014355076
-0.06675256 0.074375965 -0.055278074 -0.010538109 -0.07532907 -0.08363181 0.02081406 -0.028788228
-0.059907608 0.037718356 -0.010085146 -0.02346262 -0.04806434 -0.0112366155 -0.04421042 -0.003946788
-0.07627269 -0.04685866 0.00013597454 -0.059874345 0.043976262 0.027351346 -0.032877307 0.07488434
-0.06352136 -0.042414322 0.072098434 -0.066736825 -0.011447314 -0.003986082 0.03609209 0.054144543
0.02364448 -0.058044862 0.080578744 -0.06574664 0.05637608 -0.025295587 -0.058295142 0.021265898
0.031208966 -0.016317036 0.016803047 0.006416154 0.058302972 -0.03343972 0.08276489 0.06204921
-0.011485003 0.028984074 0.055795252 0.040456094 -0.036769368 -0.0029892828 0.023926295 -0.043395717
0.05598396 0.026701987 0.027461316 -0.06064041 -0.027679639 -0.033270482 -0.05846582 -0.01989597
0.059797853 -0.06934948 0.036750007 0.043288313 0.050017398 0.037148617 -0.042263526 0.0032904774
0.009288721 -0.08529401 0.05770092 -0.06610847 0.065236546 -0.016679278 0.0032466655 0.052664228
0.008559669 0.027026303 0.013859528 0.04176331 -0.03212827 -0.010104292 0.046376474 0.008426352
0.045446467 0.0153089315 -0.05314334 -0.08573961 0.034903053 -0.004801817 -0.049689665 -0.031270422
0.07221714 0.040620506 0.03704703 0.014093287 -0.010966731 -0.060517624 -0.020125417 0.0072848597
-0.030647445 -0.06577357 0.048107285 0.034718625 -0.026264265 0.01999067 -0.056326926 0.061232068
0.07488958 -0.0045627216 0.028859567 -0.047206767 0.044730674 0.031849638 0.058995172 -0.011020684
-0.066541575 0.01682943 -0.040028665 0.082682505 0.07892466 0.035295717 -0.050062038 -0.0788237
-0.0037962778 -0.058635764 -0.014379844 -0.060090777 0.05049612 -0.016832436 -0.042950287 -0.018090766
-0.03211991 -0.080705725 -0.07795337 -0.026157014 0.040814552 -0.0046895575 0.07768693 0.018968314
-0.065687336 0.05955072 0.041276645 0.005734656 -0.03262719 0.05334407 0.06179461 0.083639756
0.06349096 0.039012365 0.05804613 0.08223715 -0.0675698 0.028928986 0.04848494 0.08559047
0.04230142 0.08162941 0.0688301 0.010718447 0.0058414973 0.024275033 0.0135274315 0.0034257672
-0.04415282 0.033379264 0.034243062 -0.046254136 -0.025237577 -0.06627576 -0.020148385 -0.07777962
00000000: 7fc9 9c3d 58db f2bc f6bb 813d ec7e 3a3d
00000010: c20c d73b ab16 7cbd d476 59bd cea7 bd3c
00000020: 50b7 673d 4506 8abd 8f28 913d 8983 823d
00000030: 3b21 9bbd d144 873d 8746 873d abb9 8a3c
00000040: e764 2f3c f2a8 a6bd 6203 44bd 3c3a 89bd
00000050: c72b 943c ecde debc aa9a acbd c484 a43d
00000060: 5596 3abd 5f4a 20bd 3899 e13c f05d 11bd
00000070: eaa2 a33d d7c7 c33c fd91 51bd 20ef 883d
00000080: a15b 8fbd e03e 7c3d eb61 6cbc 0dfe 553c
00000090: 2853 54bd deaf 283d ed49 5f3d 1a03 273d
000000a0: b7eb a43c 8aa6 ecbc f764 c2bc a966 1abd
000000b0: 22d3 c73c e8e8 f03c 315c 083a d16c 0f3b
000000c0: cb4d 55bd 940c 683c 0a7e 58bc 42f0 a4bd
000000d0: c899 29bd 93d4 603d 7fc6 7b3d 2af6 003a
000000e0: ee28 4e3d a468 b63c 2040 b13b 783e 2b3a
000000f0: a115 adbd 8a99 653b 03e9 703d 10fa 683c
00000100: 8919 8ebd e119 013d eaa5 8abd 17dc 413d
00000110: b8bf 19bd a4a5 bdbc 54c0 1bbd 4ec1 313c
00000120: a1ea edbc b941 a43d 16eb 6c3d 93c0 a2bc
00000130: 6961 29bd 4924 08bc 5f6e 953d 8d31 6b3c
00000140: 91b5 88bd 6d52 983d 436b 62bd 08a8 2cbc
00000150: 2146 9abd 2847 abbd 3f82 aa3c 4ad5 ebbc
00000160: ae61 75bd 907e 1a3d 2b3c 25bc ae34 c0bc
00000170: 1ddf 44bd c819 38bc fc15 35bd 0f54 81bb
00000180: db34 9cbd deee 3fbd 6394 0e39 cd3e 75bd
00000190: 7420 343d ee0f e03c 5baa 06bd f65c 993d
000001a0: 7d17 82bd a4ba 2dbd 58a8 933d 51ad 88bd
000001b0: 848d 3bbc ae9d 82bb 4dd5 133d abc6 5d3d
000001c0: 12b2 c13c 73c0 6dbd 7806 a53d 2da6 86bd
000001d0: 9bea 663d b138 cfbc e3c6 6ebd d235 ae3c
000001e0: f2a9 ff3c 4eab 85bc 8ba6 893c 9a3e d23b
000001f0: 19cf 6e3d 16f8 08bd a380 a93d 5027 7e3d
00000200: 982b 3cbc 0270 ed3c 9089 643d 4ab5 253d
00000210: 7a9b 16bd d8e7 43bb 1401 c43c b5bf 31bd
00000220: 704f 653d 20be da3c 8ef6 e03c 1462 78bd
00000230: 69c0 e2bc a146 08bd db79 6fbd e0fc a2bc
00000240: 98ee 743d 1a07 8ebd 2d87 163d 164f 313d
00000250: 0bdf 4c3d 2629 183d 851c 2dbd 0da5 573b
00000260: b82f 183c a0ae aebd cd57 6c3d e163 87bd
00000270: bd9a 853d fba2 88bc 02c6 543b 72b6 573d
00000280: db3d 0c3c 4466 dd3c 1313 633c 0110 2b3d
00000290: ef98 03bd 798c 25bc 42f5 3d3d af0e 0a3c
000002a0: 1326 3a3d 50d2 7a3c d5ac 59bd 4098 afbd
000002b0: 81f6 0e3d 8f58 9dbb 6487 4bbd 6a15 00bd
000002c0: 94e6 933d b061 263d a0be 173d 88e7 663c
000002d0: cead 33bc 54e1 77bd 0fde a4bc d5b5 ee3b
000002e0: 5a10 fbbc 4bb4 86bd 250c 453d 1e35 0e3d
000002f0: 2828 d7bc 79c3 a33c 10b7 66bd 7ace 7a3d
00000300: b55f 993d e282 95bb e66a ec3c e25b 41bd
00000310: 8337 373d c474 023d eca4 713d 1990 34bc
00000320: f346 88bd dfdd 893c 19f5 23bd 7255 a93d
00000330: 41a3 a13d 3e92 103d da0d 4dbd 526e a1bd
00000340: f9ca 78bb 0e2c 70bd 7099 6bbc bf21 76bd
00000350: 05d5 4e3d 2de4 89bc a4ec 2fbd 1633 94bc
00000360: 2b90 03bd 0b49 a5bd 04a6 9fbd 3c47 d6bc
00000370: 292d 273d dcaa 99bb 531a 9f3d 7063 9b3c
00000380: 1587 86bd 75eb 733d b311 293d c8e9 bb3b
00000390: 17a4 05bd 507f 5a3d 581c 7d3d 524b ab3d
000003a0: 8c07 823d 6ecb 1f3d c7c1 6d3d f36b a83d
000003b0: 0962 8abd 7bfc ec3c 2598 463d 0e4a af3d
000003c0: 4144 2d3d 522d a73d ccf6 8c3d 6d9c 2f3c
000003d0: 086a bf3b 6fdc c63c 29a2 5d3c d682 603b
000003e0: 96d9 34bd b2b8 083d 7442 0c3d fa74 3dbd
000003f0: 09bf cebc 96bb 87bd 3a0e a5bc ec4a 9fbd

Q f4 [16, 16]
0.65326804 0.53960603 -0.16604954 2.9362564 -0.13381481 -0.03419884 -0.41569322 0.3847498
0.18870352 0.36892813 0.20915341 0.5609613 0.09328993 -0.5961423 -0.032853495 -0.50172603
1.7051067 0.17750423 -0.3223625 0.81532806 0.48204654 -3.003704 0.41909912 0.3744307
-0.42701215 -0.09335685 -0.0775916 0.43238854 -0.89777213 -0.22252235 -0.2721911 0.39493507
0.9869416 0.13102995 -0.2776056 -1.5243183 -0.24162476 -1.7022413 0.1465123 0.43439943
-0.0268717 -0.44455317 -0.7769293 -0.077491626 -0.45782694 0.12308085 -0.23404795 -0.101367265
-1.6159303 -0.4603064 -0.8923331 1.0066081 -0.33853918 3.6380715 1.5582428 -0.037900884
-0.16736041 -1.5166453 -1.080452 -0.48977345 -0.88605803 1.8950673 -0.63847876 -0.22681616
0.71354717 0.44787306 0.2417504 -0.54047567 -1.1523407 -0.059975505 0.26710472 -0.015475676
-0.065346695 -0.16605544 0.31665573 0.037218735 -0.26683205 0.36828282 0.17710456 -0.26160324
-1.7223822 -0.57076406 0.3428011 -2.7552514 0.8562853 2.1105425 -0.31043386 -0.19699764
0.48828244 0.63640726 0.38474065 -0.5560541 0.67789966 -0.66446865 0.10609423 0.803448
0.6101628 0.29833576 -0.44334424 4.490726 -1.3918756 0.35955015 1.0138183 -0.11446726
-0.062899366 -1.1501827 -1.124623 0.039114293 -0.55640495 1.7303175 -0.19933082 -0.8668603
-0.55663866 -0.17827326 0.08889671 0.78868806 0.8036774 -0.23056217 -0.09856596 -0.14724183
-0.11583405 -0.12886046 -0.11332087 -0.38195243 -0.043499175 -0.36747548 0.007009313 0.3977056
-1.0146095 -0.30980346 -0.5300396 2.9336429 0.91013443 -0.20723855 0.7249279 -0.04426179
0.18812878 -0.24218407 -0.24418765 -0.37339583 -0.33744663 0.014778653 -0.5174457 0.31723383
-0.091262706 -0.44308475 0.32509053 2.5404935 0.18872942 -1.2860874 -0.36455262 -0.05161931
-0.071814284 0.2325683 0.6256411 -0.02498913 0.37230736 -0.433605 -0.031346865 0.47807744
1.1922286 -0.16117235 0.16576964 -0.25610083 -0.12004135 -0.1253105 0.24578357 0.22485936
0.061627585 0.3330882 0.46083927 0.053968962 0.5112768 -0.58072853 0.15485755 0.68952245
0.28735667 0.17258874 -0.54155296 0.12644714 -0.048057493 1.5818125 0.25905758 -0.15768634
-0.28140277 -0.123851806 -0.6907882 0.18694511 -0.70569396 0.04922367 -0.2832545 -0.21853176
-0.28833935 0.4236297 -0.2751026 0.5604469 -0.10763956 -0.6645725 0.6565755 0.5850491
-0.24149674 -0.49581888 -0.56803316 0.16612183 -0.30594802 0.9108807 -0.13212155 -1.175955
-2.262458 -0.5316212 -0.026991148 0.13842545 0.9603399 1.9132347 -0.40926328 -0.020913646
-0.07748131 0.2380624 -0.12716782 -0.4282894 0.20221722 -0.363106 -0.05780996 -0.2785017
0.24790305 -0.72009623 0.06115261 -1.1166005 0.58199096 -0.48667383 -0.15041058 -0.19667795
0.41617668 0.47131115 0.2726228 -0.4376314 0.3597231 -0.563766 0.15173203 0.9828037
0.32849255 0.14462562 0.4045 -1.7359482 0.53960687 -0.8114325 -0.90538925 0.05717663
-0.114799924 0.8616774 0.67230266 0.1705854 0.48384324 -1.1125748 0.0478149 0.54929113
00000000: 933c 273f 9f23 0a3f e408 2abe a0eb 3b40
00000010: c006 09be 1514 0cbd bed5 d4be edfd c43e
00000020: 7f3b 413e 26e4 bc3e 502c 563e 299b 0f3f
00000030: ca0e bf3d c89c 18bf 6391 06bd 1e71 00bf
00000040: f040 da3f abc3 353e b30c a5be 57b9 503f
00000050: cece f63e b03c 40c0 2994 d63e 61b5 bf3e
00000060: 56a1 dabe e031 bfbd 58e8 9ebd 0862 dd3e
00000070: 65d4 65bf e6dc 63be a25c 8bbe ee34 ca3e
00000080: 34a8 7c3f b72c 063e 5222 8ebe dd1c c3bf
00000090: 7b6c 77be 0be3 d9bf 5207 163e 9a69 de3e
000000a0: 0a22 dcbc 799c e3be d7e4 46bf eeb3 9ebd
000000b0: 4b68 eabe d011 fc3d 44aa 6fbe a499 cfbd
000000c0: ced6 cebf 48ad ebbe f16f 64bf 89d8 803f
000000d0: 0255 adbe 2ad6 6840 8074 c73f f53d 1bbd
000000e0: 8760 2bbe 6f21 c2bf 404c 8abf 96c3 fabe
000000f0: b3d4 62bf 9191 f23f 5873 23bf 7f42 68be
00000100: 07ab 363f 9e4f e53e 6b8d 773e 9d5c 0abf
00000110: e67f 93bf e0a8 75bd f3c1 883e b18d 7dbc
00000120: 7dd4 85bd 700a 2abe b320 a23e ac72 183d
00000130: 369e 88be 918f bc3e e65a 353e dcf0 85be
00000140: 0577 dcbf 981d 12bf a083 af3e 0a56 30c0
00000150: 8335 5b3f 2113 0740 30f1 9ebe c0b9 49be
00000160: 2800 fa3e 96eb 223f bafc c43e 9059 0ebf
00000170: d58a 2d3f 9e1a 2abf ef47 d93d c5ae 4d3f
00000180: a133 1c3f 77bf 983e 04fe e2be 07b4 8f40
00000190: fb28 b2bf f516 b83e ccc4 813f d06d eabd
000001a0: 62d1 80bd 3039 93bf a5f3 8fbf 4f36 203d
000001b0: 8e70 0ebf 0b7b dd3f 611d 4cbe 8eea 5dbf
000001c0: df7f 0ebf 448d 36be 7a0f b63d 76e7 493f
000001d0: cdbd 4d3f 7d18 6cbe f3dc c9bd 90c6 16be
000001e0: 673a edbd fff3 03be c614 e8bd 458f c3be
000001f0: 312c 32bd bf25 bcbe 61ae e53b 12a0 cb3e
00000200: b9de 81bf 8f9e 9ebe adb0 07bf cec0 3b40
00000210: 92fe 683f 5836 54be e094 393f da4b 35bd
00000220: d5a4 403e 1aff 77be 540c 7abe bd2d bfbe
00000230: cec5 acbe 2a22 723c 5277 04bf 796c a23e
00000240: f1e7 babd 01dc e2be 4472 a63e 7297 2240
00000250: 4942 413e 839e a4bf a4a6 babe c56e 53bd
00000260: 5e13 93bd 6226 6e3e 042a 203f 01b6 ccbc
00000270: 129f be3e 7901 debe 9265 00bd 91c6 f43e
00000280: f29a 983f 5d0a 25be 84bf 293e a61f 83be
00000290: 3dd8 f5bd 6551 00be b0ae 7b3e 8841 663e
000002a0: 356d 7c3d 898a aa3e 20f3 eb3e 8f0e 5d3d
000002b0: 09e3 023f a0aa 14bf fa92 1e3e 8b84 303f
000002c0: 6a20 933e 1abb 303e 37a3 0abf 5c7b 013e
000002d0: efd7 44bd d578 ca3f 32a3 843e 8778 21be
000002e0: 0614 90be 04a6 fdbd 7fd7 30bf 8a6e 3f3e
000002f0: 5ca8 34bf c29e 493d bc06 91be cac6 5fbe
00000300: 37a1 93be fee5 d83e 3fda 8cbe 7379 0f3f
00000310: 2172 dcbd 6c21 2abf 5515 283f c7c5 153f
00000320: ec4a 77be f9db fdbe 9f6a 11bf d71b 2a3e
00000330: 38a5 9cbe 7a2f 693f df4a 07be b285 96bf
00000340: 1dcc 10c0 5418 08bf 8a1c ddbc 67bf 0d3e
00000350: d6d8 753f e0e4 f43f f58a d1be 1853 abbc
00000360: 85ae 9ebd a1c6 733e 4838 02be c048 dbbe
00000370: 0812 4f3e 08e9 b9be 23ca 6cbd c697 8ebe
00000380: 4cda 7d3e 3a58 38bf 297b 7a3d c4ec 8ebf
00000390: 5cfd 143f 502d f9be 3b05 1abe f265 49be
000003a0: 1c15 d53e b24f f13e 3795 8b3e 3911 e0be
000003b0: a02d b83e f852 10bf a45f 1b3e 0699 7b3f
000003c0: 2d30 a83e bd18 143e a01a cf3e 8d33 debf
000003d0: ad23 0a3f 0aba 4fbf 97c7 67bf 0b32 6a3d
000003e0: 391c ebbd e496 5c3f 071c 2c3f f0ad 2e3e
000003f0: 4dba f73e da68 8ebf 8ed9 433d 589e 0c3f

r f4 [16, 1]
-0.8189117 -0.09125739 0.10292687 2.224591 0.705249 1.1847428 -0.35492918 -0.04328825
0.0444061 0.5062667 0.4620917 -0.024502898 0.1838785 -0.8369916 0.034810115 0.6510124
00000000: 32a4 51bf 28e5 babd 53cb d23d b35f 0e40
00000010: 338b 343f a7a5 973f 47b9 b5be 054f 31bd
00000020: 2ce3 353d b29a 013f 4997 ec3e 4dba c8bc
00000030: a54a 3c3e 1545 56bf 0d95 0e3d c0a8 263f

c f4 [3, 1]
1.0 1.0 1.0
00000000: 0000 803f 0000 803f 0000 803f

gru.weight_ih f4 [48, 16]
0.6001706 0.63647485 0.48567238 -0.03588379 -0.15871792 0.2636198 1.3342508 0.08969013
0.102401055 -0.1998592 1.1816382 -0.24197152 0.10612088 1.4418135 0.103366934 0.8172337
0.9946002 0.6981268 0.11453833 0.21426062 -0.14182688 0.7719611 0.693019 -0.17641738
-0.060267534 -0.15545155 -0.045853075 -0.116848975 0.59616214 2.3351479 0.18531 0.80013067
1.4145163 0.88675636 0.33148852 0.077555574 -0.14688252 0.2901503 1.5984864 0.014196017
-0.040460125 -0.17012458 1.262269 -0.19533126 0.9773369 1.915231 -0.096219204 1.0560346
0.8667945 0.5329624 0.53263605 -0.013538596 -0.06404846 0.62666243 0.69351166 0.02185737
0.098967135 -0.06590063 0.8490925 -0.066973485 0.35915926 1.0392736 -0.03184622 1.0782274
-0.38867345 0.22924013 0.03590211 0.78138703 -0.85932297 0.115079835 1.0038989 -0.38175252
-0.006396134 -0.74305445 0.750283 -0.97400343 0.033707563 0.5478958 0.37899467 1.2353785
1.1130686 0.6260103 0.43262675 -0.009826371 -0.06848795 0.7546588 0.9312425 -0.00057112763
0.029024202 -0.07583837 0.64479303 -0.082163475 0.8923567 1.0935036 0.019887166 0.79255736
0.9589292 0.46243834 1.291681 -0.21907994 -0.554724 0.06560042 1.2985014 1.3276775
0.27928236 -0.5292367 0.7911236 -0.5951578 0.0237538 1.2965217 1.0418961 -0.35389778
1.4157224 0.9915966 0.7063022 -0.036203813 -0.2259184 0.31635842 1.878915 -0.049436007
-0.13259168 -0.2021566 0.81884295 -0.24875756 1.0925009 2.6139235 0.21285027 0.10284186
1.4034574 1.2977016 0.51057005 0.1587951 -0.38091654 1.0257243 0.60631895 -0.42778686
-0.5600451 -0.25642928 0.67674595 -0.29532143 0.60846853 0.6145123 0.07346576 0.24538565
0.8039656 0.5275258 0.022387195 0.0232973 -0.6650121 0.53704023 1.5684437 -0.057330377
-0.19385606 -0.40795055 0.31363353 -0.6560336 -0.24273391 0.13899453 -0.010141518 0.5669107
0.7886757 1.2173756 0.89743155 -0.14310153 -0.25100085 -0.04077239 0.76466835 0.041460734
-0.22542503 -0.2676067 0.5517026 -0.27717507 0.7599346 2.0663686 0.1767513 1.1402456
0.9662583 -0.18048958 0.49402687 -0.62741905 -0.19981943 0.48992738 0.50751853 -0.85806006
-0.72153735 -0.3208074 0.72293615 -0.3004729 0.16422155 0.8095349 0.060959462 1.1794044
0.7897411 1.0854052 0.6708125 -0.072820164 -0.23176718 0.3502831 0.83331376 0.11901301
-0.14207003 -0.22892651 0.891298 -0.2676693 0.6846908 0.5578474 0.14828649 1.1265283
1.5063311 0.11825117 0.36646405 0.21758723 -0.27093667 0.31924626 0.5000365 -0.16530938
0.48546913 -0.3679286 0.4476824 -0.37236717 0.44559133 -0.3126005 -0.068329625 0.2799162
-0.12724848 0.62518656 0.3052361 0.24135584 -0.33353513 0.98136014 1.7731124 -0.23316287
-0.28762248 -0.23798567 0.5553771 -0.33033854 0.73098683 -0.14330226 0.596825 -0.23274764
0.42497188 -0.13746136 -0.021658808 0.803259 -0.32772866 0.5291067 0.5911346 -0.16377379
-0.3961472 -0.41643044 1.6682072 -0.39376968 0.8810923 0.27473617 0.72219086 0.14765373
00000000: c8a4 193f 04f0 223f 0daa f83e e2fa 12bd
00000010: f386 22be 2df9 863e bbc8 aa3f 75af b73d
00000020: a5b7 d13d e4a7 4cbe ec3f 973f 62c7 77be
00000030: e755 d93d 588d b83f 0bb2 d33d 3a36 513f
00000040: 1e9e 7e3f 70b8 323f 1293 ea3d 2367 5b3e
00000050: 113b 11be 3e9f 453f b169 313f c2a6 34be
00000060: 17db 76bd b12e 1fbe 6fd0 3bbd 844e efbd
00000070: 159e 183f 1073 1540 e8c1 3d3e 5dd5 4c3f
00000080: df0e b53f 7702 633f ddb8 a93e 75d5 9e3d
00000090: 5f68 16be 958e 943e 349b cc3f 6996 683c
000000a0: 84b9 25bd 2335 2ebe 0892 a13f eb04 48be
000000b0: c032 7a3f 4a26 f53f 930e c5bd 242c 873f
000000c0: 3fe6 5d3f 3970 083f d65a 083f fdd0 5dbc
000000d0: d72b 83bd f36c 203f fb89 313f 3a0e b33c
000000e0: 48af ca3d e9f6 86bd 205e 593f 6529 89bd
000000f0: b9e3 b73e eb06 853f 2f71 02bd 5b03 8a3f
00000100: 3500 c7be edbd 6a3e 170e 133d fb08 483f
00000110: 97fc 5bbf faae eb3d c27f 803f 1175 c3be
00000120: a996 d1bb d138 3ebf 8c12 403f 4a58 79bf
00000130: f110 0a3d e642 0c3f 970b c23e e220 9e3f
00000140: 0879 8e3f 3642 203f 4181 dd3e cafe 20bc
00000150: 6943 8cbd 5231 413f e965 6e3f bab7 15ba
00000160: 2ac4 ed3c 2651 9bbd 2811 253f 5345 a8bd
00000170: 7d71 643f edf7 8b3f 69ea a23c 0ae5 4a3f
00000180: 627c 753f b8c4 ec3e ce55 a53f 7e56 60be
00000190: 6402 0ebf 8359 863d 4b35 a63f 56f1 a93f
000001a0: 19fe 8e3e 0e7c 07bf 1487 4a3f 435c 18bf
000001b0: 5497 c23c 6cf4 a53f da5c 853f 1732 b5be
000001c0: 6436 b53f 46d9 7d3f 39d0 343f 734a 14bd
000001d0: 2757 67be bbf9 a13e 4980 f03f 697d 4abd
000001e0: 1dc6 07be 2402 4fbe b19f 513f 4dba 7ebe
000001f0: 12d7 8b3f 864a 2740 6cf5 593e c19e d23d
00000200: 7ea4 b33f 161b a63f b8b4 023f 2f9b 223e
00000210: 7e07 c3be ef4a 833f b837 1b3f e106 dbbe
00000220: 1e5f 0fbf b34a 83be 393f 2d3f 5f34 97be
00000230: 98c4 1b3f ae50 1d3f 3775 963d 6046 7b3e
00000240: b1d0 4d3f ee0b 073f 5a65 b73c fbd9 be3c
00000250: 3c3e 2abf 787b 093f c3c2 c83f 42d3 6abd
00000260: 3482 46be e5de d0be 9394 a03e d1f1 27bf
00000270: 3d8f 78be 9554 0e3e 9c28 26bc 0f21 113f
00000280: a7e6 493f f7d2 9b3f 13be 653f 3589 12be
00000290: 2f83 80be f300 27bd 4ec1 433f bbd2 293d
000002a0: d2d5 66be bf03 89be 623c 0d3f e4e9 8dbe
000002b0: 138b 423f 623f 0440 4bfe 343e 91f3 913f
000002c0: b45c 773f 43d2 38be 17f1 fc3e 899e 20bf
000002d0: 779d 4cbe c3d7 fa3e bcec 013f d3a9 5bbf
000002e0: acb6 38bf de40 a4be 5812 393f 95d7 99be
000002f0: b229 283e ae3d 4f3f a1b0 793d b9f6 963f
00000300: 792c 4a3f 8fee 8a3f 5eba 2b3f bd22 95bd
00000310: 6054 6dbe 4e58 b33e 0d54 553f 18bd f33d
00000320: ce7a 11be b66b 6abe 1b2c 643f f30b 89be
00000330: e547 2f3f 16cf 0e3f 6ad8 173e 1432 903f
00000340: 75cf c03f ab2d f23d 2da1 bb3e 30cf 5e3e
00000350: 36b8 8abe 3f74 a33e 6402 003f dd46 29be
00000360: 698f f83e 2361 bcbe a136 e53e e9a6 bebe
00000370: 8c24 e43e 2c0d a0be 67f0 8bbd 2d51 8f3e
00000380: 6d4d 02be 3a0c 203f e847 9c3e fc25 773e
00000390: 1ec5 aabe 6b3a 7b3f 59f5 e23f 3fc2 6ebe
000003a0: 4143 93be 84b2 73be 322d 0e3f 2222 a9be
000003b0: f421 3b3f d4bd 12be 86c9 183f 6655 6ebe
000003c0: ea95 d93e acc2 0cbe d06d b1bc 62a2 4d3f
000003d0: 0dcc a7be 8973 073f 9954 173f 51b4 27be
000003e0: ced3 cabe 5f36 d5be d087 d53f 2e9c c9be
000003f0: 448f 613f 38aa 8c3e 80e1 383f 8a32 173e

gru.weight_hh f4 [48, 16]
1.0844026 0.2168744 -0.037383836 0.16527411 -0.16045819 -0.13276838 -0.029954566 0.08061991
0.27581197 0.13303876 -0.16783571 -0.016854024 0.20734265 0.051537182 0.067255646 -0.23162365
0.43393955 1.7894527 0.7211075 0.5206762 0.19607937 0.2564512 -0.48712704 -0.08209788
-0.032820802 0.78395975 -0.35895666 0.34654096 -0.878443 0.11210959 0.45938265 0.11413205
0.2098271 0.03474831 -0.312305 0.15404667 -0.50985193 -0.0836094 -0.03786568 0.09916079
0.009341305 -0.028553715 -0.49543533 0.36588845 0.09589888 0.13625295 -0.09876331 -0.1953209
0.084164225 0.1588843 0.05353029 -0.18518135 -0.18568057 -0.096431516 0.023054715 -0.08573109
0.112645276 -0.02160023 -0.15175973 -0.0648255 0.13171548 0.018191788 0.039621156 0.068443514
0.36333233 -0.5974373 -0.22750255 -0.22343296 -2.8241208 -0.6233308 0.36304134 -0.019316282
1.3061371 -0.774221 -0.67147005 0.39389154 2.0551903 0.19283466 -0.5112701 -0.6346789
-0.06021028 0.048204806 -0.04926775 -0.028471505 -0.14330998 -0.056895804 -0.050924763 -0.050405998
0.1291359 -0.1205868 -0.015190371 0.019616423 0.17096378 0.027601987 -0.107578576 0.022221817
-0.49394408 -1.2937214 0.3240777 1.565599 -0.42656305 1.9326061 0.13633415 -2.2774048
0.3083218 -2.0922396 -2.137612 -0.41004363 0.15215173 2.5262613 -1.7948447 1.3822178
0.062408447 -0.2793674 0.16680148 -0.03721242 -1.425343 -0.2805416 -0.3649229 0.65902466
0.23489453 -0.6716654 -0.2601494 -0.10262022 0.6408858 0.18138367 -0.04794248 -0.1470527
-0.14454094 0.51288587 0.07044911 -0.58601177 -0.48404467 -0.7222104 -0.92896336 -0.11411889
2.0299447 -0.6736626 -0.0641188 0.29669428 1.4972488 0.47063538 0.25837576 -0.023273714
-0.41135624 -1.4337496 -1.0164182 0.09170748 -0.682594 0.007308365 0.4393721 -0.022978008
1.4757078 -2.02321 -0.9870979 -0.94688714 0.80824685 -0.068645656 -0.6022019 -0.9900698
0.32754818 0.18933558 0.58164644 0.44264117 -1.5062653 -0.15976988 0.3245962 0.28561687
-0.43654925 -0.6468119 -0.94467384 1.0760989 0.022938944 0.30135733 0.13717304 -0.19268955
-1.1074395 0.14520115 0.38383263 -0.41540882 0.16916594 -0.09351674 -0.9252671 -0.24682924
1.5790732 1.7612823 -2.1593351 0.65905726 0.35531217 0.20367773 1.2957151 0.46723524
-0.15154657 -0.67204994 -0.20800886 -0.074308276 -0.7787133 -0.17842482 0.23556599 0.36789152
0.38280234 -0.81516546 -0.45043072 0.4094317 0.8798052 0.050806064 0.16634668 -0.36839142
-0.19300349 0.10296056 -0.11166074 0.013214418 -0.6503099 -0.20766944 -0.3088172 -0.0117887035
-0.026911106 -0.6010545 -0.18500954 0.10031546 0.0053707296 1.4544003 0.16722955 -0.25578645
-0.50800943 -0.95674855 -0.95479345 -0.44645536 -1.5170286 0.016472653 -2.3968549 0.64697933
0.9370039 -1.1542952 0.027365671 0.23327707 2.685123 -1.0980366 -0.6960749 0.33822393
-0.97511184 -0.30780804 -0.6241244 -0.24150293 -0.24159154 -0.371903 -0.2418509 -0.37088633
0.3681866 -1.0062368 1.2179188 0.18551175 0.30442584 0.92731035 0.50532615 -2.4785044
00000000: b4cd 8a3f 5314 5e3e cb1f 19bd 9e3d 293e
00000010: 274f 24be 6ff4 07be 4763 f5bc 0d1c a53d
00000020: 3a37 8d3e 503b 083e 20dd 2bbe 7311 8abc
00000030: a251 543e a718 533d 54bd 893d c02e 6dbe
00000040: 532d de3e c90c e53f 809a 383f 094b 053f
00000050: 08c9 483e 924d 833e b768 f9be ef22 a8bd
00000060: 1b6f 06bd 96b1 483f 2bc9 b7be d16d b13e
00000070: a4e1 60bf b699 e53d 3434 eb3e 10be e93d
00000080: eadc 563e 3e54 0e3d 71e6 9fbe 69be 1d3e
00000090: a885 02bf 683b abbd 0b19 1bbd d014 cb3d
000000a0: 460c 193c 7be9 e9bc b3a9 fdbe bb55 bb3e
000000b0: a266 c43d e585 0b3e 6b44 cabd 3402 48be
000000c0: 4b5e ac3d 91b2 223e 9442 5b3d 2ea0 3dbe
000000d0: 0c23 3ebe e37d c5bd 3edd bc3c c893 afbd
000000e0: 91b2 e63d f7f2 b0bc e766 1bbe 3bc3 84bd
000000f0: 6ce0 063e f206 953c cb49 223d 1d2c 8c3d
00000100: b206 ba3e a7f1 18bf 6ef6 68be 9ccb 64be
00000110: 65be 34c0 9b92 1fbf 8ee0 b93e 2e3d 9ebc
00000120: 802f a73f 5933 46bf 76e5 2bbf 27ac c93e
00000130: 3d88 0340 7376 453e 99e2 02bf 517a 22bf
00000140: 0e9f 76bd 6772 453d fbcc 49bd 133d e9bc
00000150: dabf 12be 930b 69bd 7c96 50bd 8576 4ebd
00000160: 343c 043e 36f6 f6bd 09e1 78bc 9fb2 a03c
00000170: 2111 2f3e 901d e23c 2852 dcbd 870a b63c
00000180: 3de6 fcbe aa98 a5bf 83ed a53e 8c65 c83f
00000190: 7966 dabe a35f f73f 2e9b 0b3e 00c1 11c0
000001a0: 5bdc 9d3e 41e7 05c0 a3ce 08c0 3df1 d1be
000001b0: aacd 1b3e 44ae 2140 79bd e5bf 83ec b03f
000001c0: 00a0 7f3d 3e09 8fbe 02ce 2a3e 0d6c 18bd
000001d0: a471 b6bf 26a3 8fbe 2dd7 babe d7b5 283f
000001e0: 3188 703e 43f2 2bbf 4d32 85be 8d2a d2bd
000001f0: 1711 243f a4bc 393e 555f 44bd fc94 16be
00000200: 8a02 14be 7d4c 033f 9f47 903d de04 16bf
00000210: b4d4 f7be c8e2 38bf 8bd0 6dbf 2ab7 e9bd
00000220: 9dea 0140 2775 2cbf b850 83bd 50e8 973e
00000230: d9a5 bf3f 1ff7 f03e d449 843e 84a8 bebc
00000240: 499d d2be 1b85 b7bf fe19 82bf 22d1 bb3d
00000250: 7bbe 2ebf 027b ef3b 61f5 e03e 603c bcbc
00000260: fee3 bc3f 467c 01c0 73b2 7cbf 3267 72bf
00000270: 44e9 4e3f 1896 8cbd e729 1abf 3775 7dbf
00000280: 65b4 a73e 30e1 413e c8e6 143f dda1 e23e
00000290: 4dcd c0bf b79a 23be 7931 a63e 603c 923e
000002a0: 6283 dfbe 7795 25bf 25d6 71bf 9cbd 893f
000002b0: 74ea bb3c 824b 9a3e 1777 0c3e 6950 45be
000002c0: 94c0 8dbf 9caf 143e b685 c43e 77b0 d4be
000002d0: d639 2d3e b485 bfbd 4ede 6cbf cec0 7cbe
000002e0: 121f ca3f b371 e13f 8c32 0ac0 fab7 283f
000002f0: 7aeb b53e e590 503e fed9 a53f 7539 ef3e
00000300: 062f 1bbe 770b 2cbf 4600 55be f02e 98bd
00000310: c159 47bf ffb4 36be 3638 713e 475c bc3e
00000320: abfe c33e afae 50bf db9e e6be 08a1 d13e
00000330: ea3a 613f 051a 503d c956 2a3e cd9d bcbe
00000340: b5a2 45be fcdc d23d 63ae e4bd 4981 583c
00000350: b67a 26bf 4ca7 54be 4a1d 9ebe 6825 41bc
00000360: ae74 dcbc b5de 19bf 2473 3dbe 3172 cd3d
00000370: f2fc af3b ca29 ba3f 393e 2b3e 71f6 82be
00000380: e80c 02bf 79ed 74bf 586d 74bf cc95 e4be
00000390: fe2d c2bf a8f1 863c 1266 19c0 70a0 253f
000003a0: 7ddf 6f3f f2bf 93bf f92d e03c 2fe0 6e3e
000003b0: 0ed9 2b40 778c 8cbf f731 32bf b02b ad3e
000003c0: eea0 79bf 0499 9dbe 9ec6 1fbf 8b4c 77be
000003d0: c663 77be 126a bebe c3a7 77be d0e4 bdbe
000003e0: f482 bc3e 5ecc 80bf c3e4 9b3f cbf6 3d3e
000003f0: b4dd 9b3e 3664 6d3f 0e5d 013f d19f 1ec0

gru.bias_ih f4 [48]
0.79645944 0.8993611 0.6043198 1.1212059 0.8763479 0.95627606 0.3918508 0.552624
0.30900705 0.6679957 0.88660055 0.5611298 1.1060445 0.9900347 0.73713046 0.61261433
-0.11605814 -0.89100564 -0.27653158 -0.08998551 -0.8408907 -0.13144322 -0.7745306 -0.38772142
-0.70552355 -0.8842128 -0.9652183 -0.7912844 -0.73890734 -0.3509549 -0.9238224 -0.43439162
-0.032076016 -0.10427757 0.1976464 0.34770286 -0.10519165 -0.120031185 -0.02049844 0.08868194
0.080078304 -0.10228539 -0.029169455 -0.052230492 0.2719282 0.13866453 -0.017644078 0.015642215
00000000: c4e4 4b3f 873c 663f b4b4 1a3f ad83 8f3f
00000010: 5658 603f 82ce 743f aba0 c83e c478 0d3f
00000020: 2c36 9e3e c401 2b3f 41f8 623f 34a6 0f3f
00000030: de92 8d3f ea72 7d3f 95b4 3c3f 4bd4 1c3f
00000040: e4af edbd f218 64bf 8c95 8dbe 534a b8bd
00000050: 9d44 57bf 0d99 06be a347 46bf 6c83 c6be
00000060: 319d 34bf c55b 62bf 8c18 77bf 9d91 4abf
00000070: 0829 3dbf 5cb0 b3be a07f 6cbf 9468 debe
00000080: 2462 03bd 7b8f d5bd d163 4a3e 1c06 b23e
00000090: b86e d7bd e9d2 f5bd 58ec a7bc e19e b53d
000000a0: 1800 a43d 017b d1bd c8f4 eebc a4ef 55bd
000000b0: 2c3a 8b3e 13fe 0d3e 508a 90bc 1a24 803c

gru.bias_hh f4 [48]
0.51322454 0.5761603 0.5241195 0.7042914 0.7868156 0.9608217 0.3749143 0.60204893
0.59209204 0.5012776 1.0476727 0.3822243 1.1119975 0.769548 0.96736 0.6807942
-0.3269917 -0.72645056 -0.52915674 -0.44014716 -0.72785604 -0.26070446 -0.62874216 -0.6563604
-0.6181288 -0.6163554 -0.7495398 -0.9176277 -0.65665644 -0.3838535 -0.8251167 -0.44393608
0.14849105 0.29015273 0.04989244 -0.040081803 -0.33721188 -0.013854177 0.19878647 0.111258395
0.20324205 -0.22513026 -0.15526712 0.27620596 0.13624844 0.19890371 -0.16984084 -0.26156923
00000000: af62 033f 3e7f 133f b22c 063f 714c 343f
00000010: bf6c 493f 69f8 753f c4f4 bf3e e11f 1a3f
00000020: 5893 173f bb53 003f 241a 863f e7b2 c33e
00000030: ef55 8e3f 1901 453f e8a4 773f 8748 2e3f
00000040: 756b a7be aaf8 39bf d176 07bf f85a e1be
00000050: c654 3abf 0e7b 85be 3ff5 20bf 3c07 28bf
00000060: b03d 1ebf 78c9 1dbf d7e1 3fbf a6e9 6abf
00000070: a31a 28bf 7288 c4be d93a 53bf 974b e3be
00000080: 0a0e 183e e68e 943e 045c 4c3d d12c 24bd
00000090: 09a7 acbe a1fc 62bc ae8e 4b3e 71db e33d
000000a0: af1e 503e 8c88 66be 58fe 1ebe de6a 8d3e
000000b0: b684 0b3e 6aad 4b3e c2ea 2dbe 67ec 85be

linear.weight f4 [16, 408]
0.1300865 -0.25974604 -0.9116999 -0.7907317 -1.005026 -0.43680343 -0.051570483 -1.4086608
-0.2556483 -0.4972667 0.28048575 -0.37234733 -0.106357835 0.05641301 -0.68394536 0.95385295
0.57107395 -0.35138178 -0.16158174 -1.0449227 -0.49938723 0.27296665 0.35595223 -0.66862184
-0.03698065 0.110490575 0.23268938 0.60244685 -0.27240562 0.7732815 0.9183545 0.030891342
-0.5980398 -0.00014575676 -0.4733492 -0.5754058 1.02345 0.35385314 -0.9649777 0.19061424
0.58430076 0.30671692 0.45855036 0.1372048 0.5708949 0.7575423 -0.05522295 -0.53742474
-0.4630778 -0.037236467 0.7047116 0.49504477 0.7505838 -0.4454881 -0.79602146 -0.5773682
-0.050217357 -0.030115431 -0.8975047 -0.69465995 0.865695 0.9724468 0.5847266 0.11127038
-0.4493094 0.09811754 -0.59570646 -0.11000754 0.6222415 1.1539739 -0.008409799 -1.098812
0.12754813 0.31506154 0.2757141 0.33342668 0.17790247 0.553696 0.027705805 0.9197992
0.059166584 0.11748034 0.18137164 -0.44325566 -0.24279408 0.022721255 -0.4238016 -0.30611727
0.09782048 0.36210367 -0.23897748 0.19792989 0.1698689 0.43925267 -0.08519694 -0.39437073
0.51059955 0.25328213 -0.07752019 0.081319585 0.9866988 0.22908315 0.67990553 0.4800292
0.7121741 -0.16243276 0.04670904 0.043712217 0.5040322 0.13232799 1.1097201 1.0618943
-0.35505638 -0.078231424 -0.24919577 0.03506911 0.36672425 0.8326567 -1.0476159 0.56608796
0.6665775 0.22646736 0.4613877 0.40325725 -0.27776915 -0.56364596 0.4877753 0.10820045
0.13198835 -0.2214746 0.07385443 0.47591043 -0.11769142 -1.1834302 0.43902853 0.9015516
-0.20846401 0.4506805 0.64200425 0.23980507 -0.5968234 0.48927516 0.25005248 0.21056744
-0.111875616 0.14917544 0.87613285 0.1928302 0.57136637 0.100095384 0.035454508 -0.10411987
-0.37668672 -0.17119595 -0.003802598 0.80571425 0.054064948 -0.073306754 0.10007366 -0.37691206
0.077225775 0.037652172 -0.35031134 0.2605665 0.24807332 -0.08248445 0.4259778 0.18258145
-0.3053258 -0.39057857 0.5722499 -0.71048 0.67951185 -0.019968668 0.11846031 -0.70871145
0.24717073 -0.29541197 -0.73133785 0.45098153 -0.22587717 -0.5502543 0.5075439 -0.33032733
-0.9894496 -0.01237394 -0.45099622 0.35814136 0.14179645 0.43623927 0.34592772 0.080524385
0.26639202 0.12641703 -0.052609254 0.3089181 0.21655057 -0.7244767 -0.1621999 0.23422804
0.3957138 0.38813958 0.25944757 -0.44594726 0.215564 0.058118884 -0.24803492 1.0589169
0.035969194 0.19096416 -0.46541882 -0.08534076 0.3425247 0.32185113 -0.46433142 0.57668984
-0.19492298 0.36823422 0.0564579 0.41577142 -0.23942214 -0.34288993 -0.11609233 0.30578935
0.537443 0.08370046 0.6535599 -0.7495557 0.02826525 0.21877277 -0.09139861 -0.09866892
-0.09294824 0.22162776 -0.4599176 0.10702535 0.03293416 -0.3414533 0.042412218 0.41832453
-0.2684857 0.08038055 -0.24681233 0.3035694 -0.2873291 0.7147496 0.11536705 0.3163574
-0.80659753 0.4302745 0.55816525 -0.7657456 -0.46680048 0.032739773 -0.28182387 0.25618455
00000000: 6535 053e 6ffd 84be 2a65 69bf 656d 4abf
00000010: b1a4 80bf b3a4 dfbe 923b 53bd ff4e b4bf
00000020: 55e4 82be be99 febe d49b 8f3e 4fa4 bebe
00000030: 23d2 d9bd 5411 673d 0b17 2fbf b52f 743f
00000040: e731 123f 50e8 b3be af75 25be 07c0 85bf
00000050: afaf ffbe 49c2 8b3e 5f3f b63e cd2a 2bbf
00000060: 0679 17bd e248 e23d 2046 6e3e f539 1a3f
00000070: c078 8bbe c7f5 453f 4819 6b3f d70f fd3c
00000080: 2319 19bf 48d6 18b9 d45a f2be cb4d 13bf
00000090: 6900 833f 3d2c b53e c708 77bf 6130 433e
000000a0: bc94 153f 000a 9d3e 1dc7 ea3e 6a7f 0c3e
000000b0: 2b26 123f 4bee 413f 7631 62bd ab94 09bf
000000c0: 8918 edbe 4485 18bd fb67 343f 8276 fd3e
000000d0: 4326 403f 0417 e4be 10c8 4bbf 67ce 13bf
000000e0: b7b0 4dbd a3b4 f6bc dec2 65bf 3cd5 31bf
000000f0: 309e 5d3f 46f2 783f a4b0 153f bae1 e33d
00000100: e20b e6be d9f1 c83d 3880 18bf a24b e1bd
00000110: 384b 1f3f 6bb5 933f 41c9 09bc dfa5 8cbf
00000120: fa9b 023e bf4f a13e 662a 8d3e e7b6 aa3e
00000130: 112c 363e 05bf 0d3f 49f7 e23c f677 6b3f
00000140: a958 723d 8899 f03d 7db9 393e 68f2 e2be
00000150: 039f 78be ed21 ba3c 86fc d8be 67bb 9cbe
00000160: 1b56 c83d a765 b93e 83b6 74be 22ae 4a3e
00000170: 1df2 2d3e bae5 e03e bc7b aebd f6ea c9be
00000180: a7b6 023f 32ae 813e e8c2 9ebd e28a a63d
00000190: 4b98 7c3f c694 6a3e 4a0e 2e3f 63c6 f53e
000001a0: 0b51 363f c654 26be fa51 3f3d 950b 333d
000001b0: 4108 013f fd80 073e 4f0b 8e3f 27ec 873f
000001c0: f3c9 b5be cc37 a0bd 2d2d 7fbe a1a4 0f3d
000001d0: 48c3 bb3e fd28 553f 4718 86bf 24eb 103f
000001e0: d3a4 2a3f 0fe7 673e 023b ec3e bc77 ce3e
000001f0: c237 8ebe 1a4b 10bf afbd f93e 3398 dd3d
00000200: f427 073e 3dca 62be fe40 973d 88aa f33e
00000210: 3308 f1bd a47a 97bf 59c8 e03e 16cc 663f
00000220: 9777 55be 98bf e63e 645a 243f 768f 753e
00000230: 6bc9 18bf 4682 fa3e e106 803e fe9e 573e
00000240: 0b1f e5bd 72c1 183e 3e4a 603f 4875 453e
00000250: 1145 123f cffe cc3d bf38 113d cc3c d5bd
00000260: 15dd c0be fe4d 2fbe 0235 79bb 4a43 4e3f
00000270: 3573 5d3d da21 96bd 6bf3 cc3d 9efa c0be
00000280: 8c28 9e3d 2a39 1a3d 025c b3be f968 853e
00000290: ef06 7e3e 9bed a8bd c319 da3e a2f6 3a3e
000002a0: aa53 9cbe eaf9 c7be f87e 123f 04e2 35bf
000002b0: 7df4 2d3f 5595 a3bc 529b f23d 1d6e 35bf
000002c0: 531a 7d3e 3d40 97be f538 3bbf 0de7 e63e
000002d0: 584c 67be 77dd 0cbf 66ee 013f aa20 a9be
000002e0: 924c 7dbf 11bc 4abc fae8 e6be 4e5e b73e
000002f0: 1733 113e c15a df3e 701d b13e f8e9 a43d
00000300: 8964 883e 7773 013e cd7c 57bd 832a 9e3e
00000310: 6fbf 5d3e 4e77 39bf bb17 26be 7ad9 6f3e
00000320: 009b ca3e 3bba c63e 50d6 843e 3353 e4be
00000330: cfbc 5c3e 110e 6e3d defc 7dbe 978a 873f
00000340: 6f54 133d 1c8c 433e 604b eebe 23c7 aebd
00000350: 665f af3e acc9 a43e d9bc edbe f2a1 133f
00000360: e499 47be 3289 bc3e 6640 673d fedf d43e
00000370: 142b 75be 458f afbe d1c1 edbd 6c90 9c3e
00000380: dd95 093f 266b ab3d b44f 273f e2e2 3fbf
00000390: 878c e73c f805 603e 322f bbbd ee12 cabd
000003a0: a65b bebd 63f2 623e 527a ebbe 1b30 db3d
000003b0: f8e5 063d f8d2 aebe 6fb8 2d3d a22e d63e
000003c0: f576 89be 8f9e a43d 5fbc 7cbe 736d 9b3e
000003d0: cd1c 93be d4f9 363f 8f45 ec3d 99f9 a13e
000003e0: 2d7d 4ebf f04c dc3e ebe3 0e3f e707 44bf
000003f0: 7900 efbe 241a 063d 384b 90be 9f2a 833e

linear.bias f4 [16]
-0.027901689 -0.05197685 -0.07006664 -0.085214674 0.06233638 -0.29511946 0.0017473164 0.06933432
-0.0068826852 -0.25558373 0.06170623 -0.6378185 0.7178531 0.47281656 0.06841541 0.057906345
00000000: 1592 e4bc ade5 54bd 197f 8fbd 0885 aebd
00000010: 6f54 7f3d e619 97be 3606 e53a 27ff 8d3d
00000020: 2688 e1bb dfdb 82be acbf 7c3d 1348 23bf
00000030: 39c5 373f 0315 f23e 611d 8c3d 342f 6d3d

layer1.linear.bias f4 [32]
0.1534814 -0.1629289 0.14635873 0.122685336 -0.23297046 0.114964105 -0.0018884209 0.08145132
-0.017033502 0.0010660302 0.034546062 0.056345373 0.36454815 0.10867598 -0.09329626 -0.0918002
-0.03395468 0.10765839 -0.09923086 0.17080685 0.3512363 0.047465924 0.13723001 -0.14856043
-0.17360644 0.105613716 0.000940428 0.06785236 -0.047862075 -0.010034376 -0.0619192 0.08407298
00000000: 3a2a 1d3e d5d6 26be 10df 153e 7342 fb3d
00000010: cf8f 6ebe 4d72 eb3d e484 f7ba f3cf a63d
00000020: d889 8bbc 0aba 8b3a 2c80 0d3d 68ca 663d
00000030: 0ea6 ba3e 8391 de3d 1c12 bfbd be01 bcbd
00000040: 1014 0bbd 017c dc3d 8d39 cbbd fee7 2e3e
00000050: 3fd5 b33e a16b 423d 0686 0c3e 3a20 18be
00000060: e3c5 31be 014c d83d 0e87 763a 2ef6 8a3d
00000070: 060b 44bd 3967 24bc fd9e 7dbd 742e ac3d

layer1.linear.weight f4 [32, 32]
1.3009807 0.20791863 0.53896886 0.975719 -0.4075394 0.43249 -0.2176326 -0.26155156
-0.3192737 -0.42685592 -0.022922479 -0.050294407 0.706605 -0.44490835 -0.2699256 0.5257858
0.032680746 0.44351643 0.031192286 -0.14742619 -0.8537304 -0.73312676 0.23536128 0.6902362
0.108248085 0.64649016 0.62903285 0.9289341 0.23037887 -0.28302866 -0.76272464 -1.3192086
0.1394047 -1.0688058 0.042113718 0.19006874 0.22231191 -0.39495617 -0.17041776 -1.0078114
-0.054220386 -1.1887518 0.71748185 -0.23314193 0.3838956 0.59600794 0.25618854 0.5006956
-0.20727353 0.018855618 0.14931071 -0.09256502 0.57757944 0.52913654 -0.8542474 0.832903
0.050939538 0.961273 -0.7120659 -1.3836005 0.13413145 -1.2472824 1.0532705 0.8098003
0.26822683 -0.44201034 -1.0146369 -0.671911 -1.2801832 -0.07932732 0.65493757 0.16244447
-0.03912867 0.5394263 0.22606756 0.6573166 -0.24828763 -0.39966407 0.15442242 0.5765662
-0.42840806 -0.43103838 0.7214497 0.014509489 -0.41414312 -0.18417157 -0.64470595 0.20417304
0.7305354 0.315758 -0.05302339 0.2431137 0.09416915 0.44001558 -1.1421645 -0.7088164
-0.76527905 0.0019977032 0.22812015 -0.95215034 0.75670034 0.34204692 -0.23872347 0.11132113
-0.73340106 -0.27785814 0.33512065 -0.67452383 0.70357114 0.66563714 -0.2869996 0.32190344
-0.071209796 -0.89002436 0.030718163 -0.05124247 -0.4161446 0.4270724 -0.06954373 0.18438767
-0.6768458 0.8873897 -0.8558183 0.012610958 -0.3687614 -0.17674695 -0.9956025 -0.45823613
-0.301176 -0.74872017 0.52691066 0.08851484 -0.4545826 0.06008626 -0.7421968 -0.10270557
-0.9788604 0.3058484 0.12899213 -0.13323632 1.0030693 0.17455193 -0.17681164 0.16342165
0.6524483 -0.44942293 0.074978076 0.36232764 0.5874273 -0.08437444 0.666286 -0.9812165
-0.82385457 -0.42754534 -0.59274095 0.10913429 -0.04894852 -0.30911246 1.0011226 0.83581924
0.37264934 -0.7344622 0.13925473 -0.6177574 -0.1043249 0.79604423 0.17246597 0.77537376
-0.16318202 0.6578079 0.16494076 -0.026938602 0.11182037 0.03227633 0.40944946 0.20934345
-0.4333137 -1.8579227 -0.9001177 0.5267465 0.1263199 0.7256866 -0.6889113 0.22202589
0.38365915 0.024306593 -0.33523616 -0.5380346 0.11058707 0.8023587 0.2208252 -0.7863306
-0.5945962 0.7042512 -0.50350535 0.650456 -0.028335283 -0.11942786 0.543019 0.1725614
1.0383134 -0.30461022 0.5474703 -0.12747481 0.9584534 0.46304825 0.20800902 -0.22680582
0.35099202 0.6445863 0.327578 -0.45946333 0.8322835 -0.61378676 0.052643955 -0.95630604
0.17875786 0.4385029 0.70939857 1.2468518 -0.30983663 -0.33586907 0.77318084 1.1954561
-0.14032422 0.14348128 1.1039871 0.24948084 -0.06014639 0.8510009 -0.50666803 -0.40984008
-0.025434554 0.77620983 -0.53310984 -0.1226543 0.24112538 0.072389916 -0.2041661 -1.5261173
0.7088881 0.40708202 0.00057535456 0.16319522 -0.1922208 -1.122008 -0.5462902 -0.90341026
-0.2253278 -0.6107342 0.18616177 0.49327627 0.6478792 0.6305516 -0.86056536 -0.3887636
00000000: 8986 a63f 9fe8 543e ddf9 093f b8c8 793f
00000010: 01a9 d0be 546f dd3e 15db 5ebe 16ea 85be
00000020: d877 a3be dc8c dabe ecc7 bbbc 8201 4ebd
00000030: 11e4 343f 07cb e3be b033 8abe e699 063f
00000040: 3fdc 053d 9614 e33e f786 ff3c e4f6 16be
00000050: 138e 5abf 32ae 3bbf 8c02 713e 52b3 303f
00000060: 2cb1 dd3d 6180 253f 4c08 213f a0ce 6d3f
00000070: 70e8 6b3e 22e9 90be ec41 43bf d4db a8bf
00000080: 1bc0 0e3e a1ce 88bf 6f7f 2c3d 61a1 423e
00000090: bca5 633e b237 cabe fe81 2ebe f7ff 80bf
000000a0: 3216 5ebd 0529 98bf e4ac 373f c2bc 6ebe
000000b0: f78d c43e fa93 183f 252b 833e 962d 003f
000000c0: 833f 54be 1977 9a3c e8e4 183e bb92 bdbd
000000d0: 3fdc 133f 7e75 073f f5af 5abf 2239 553f
000000e0: faa5 503d fd15 763f f349 36bf d219 b1bf
000000f0: c159 093e f3a6 9fbf 91d1 863f 134f 4f3f
00000100: 0755 893e 2e4f e2be 9fdf 81bf 5c02 2cbf
00000110: 0bdd a3bf 5d76 a2bd fda9 273f d857 263e
00000120: 6245 20bd d817 0a3f 417e 673e e745 283f
00000130: 1d3f 7ebe c5a0 ccbe e920 1e3e d899 133f
00000140: 4d58 dbbe 10b1 dcbe edb0 383f 35b9 6d3c
00000150: 910a d4be 7997 3cbe 730b 25bf bd12 513e
00000160: 5e04 3b3f 08ab a13e 0e2f 59bd ccf2 783e
00000170: c1db c03d b949 e13e 7232 92bf fe74 35bf
00000180: 54e9 43bf e6eb 023b 5498 693e 20c0 73bf
00000190: 1db7 413f c620 af3e ed73 74be 55fc e33d
000001a0: 2cc0 3bbf 6c43 8ebe ef94 ab3e 98ad 2cbf
000001b0: 3d1d 343f 3267 2a3f 9df1 92be 87d0 a43e
000001c0: 71d6 91bd a3d8 63bf a8a4 fb3c a0e3 51bd
000001d0: e810 d5be 3ca9 da3e f16c 8ebd 1fd0 3c3e
000001e0: c445 2dbf f92b 633f e816 5bbf 319e 4e3c
000001f0: 4bce bcbe 27fd 34be cedf 7ebf ed9d eabe
00000200: be33 9abe 20ac 3fbf 9ee3 063f 4547 b53d
00000210: 0dbf e8be 031d 763d 9c00 3ebf 4c57 d2bd
00000220: 9896 7abf 2998 9c3e 8316 043e 1a6f 08be
00000230: 9364 803f bebd 323e 1c0e 35be 0158 273e
00000240: da06 273f c31a e6be 1b8e 993d 0283 b93e
00000250: a361 163f 82cc acbd b891 2a3f 0131 7bbf
00000260: 22e8 52bf 39e7 dabe dfbd 17bf cc81 df3d
00000270: 3e7e 48bd fd43 9ebe c924 803f 40f8 553f
00000280: e5cb be3e b705 3cbf cb98 0e3e 5925 1ebf
00000290: 4ba8 d5bd 8ec9 4b3f eb9a 303e e57e 463f
000002a0: 3019 27be 1966 283f 3be6 283e 58ae dcbc
000002b0: 1402 e53d 2f34 043d 5ca3 d13e 215e 563e
000002c0: 4bdb ddbe 69d0 edbf 1d6e 66bf dcd8 063f
000002d0: 015a 013e 99c6 393f 7e5c 30bf c15a 633e
000002e0: f96e c43e 9f1e c73c 13a4 abbe a3bc 09bf
000002f0: 797b e23d 6167 4d3f 0020 623e f64c 49bf
00000300: 7537 18bf cf49 343f bae5 00bf 4984 263f
00000310: 651f e8bc 9896 f4bd 4b03 0b3f f0b3 303e
00000320: 74e7 843f dff5 9bbe 0327 0c3f c288 02be
00000330: 345d 753f a914 ed3e 5100 553e c93f 68be
00000340: 3ab5 b33e 9c03 253f 4eb8 a73e c73e ebbe
00000350: 8810 553f 2121 1dbf 30a1 573d 79d0 74bf
00000360: 4d0c 373e 7483 e03e 259b 353f d798 9f3f
00000370: e8a2 9ebe 08f7 abbe 2eef 453f b504 993f
00000380: 27b1 0fbe c2ec 123e 734f 8d3f e877 7f3e
00000390: 105c 76bd 32db 593f ffb4 01bf 8fd6 d1be
000003a0: 205c d0bc b0b5 463f e379 08bf 2d32 fbbd
000003b0: 92e9 763e 2a41 943d eb10 51be d057 c3bf
000003c0: b179 353f 0e6d d03e 64d3 163a a61c 273e
000003d0: 88d5 44be f59d 8fbf add9 0bbf e545 67bf
000003e0: 55bc 66be 1459 1cbf 31a1 3e3e b58e fc3e
000003f0: 69db 253f d46b 213f 034e 5cbf 060c c7be

layer1.agg.bias f4 [32]
0.0 0.0 0.0 0.0 0.0 0.0 0.0 0.0
0.0 0.0 0.0 0.0 0.0 0.0 0.0 0.0
0.0 0.0 0.0 0.0 0.0 0.0 0.0 0.0
0.0 0.0 0.0 0.0 0.0 0.0 0.0 0.0
00000000: 0000 0000 0000 0000 0000 0000 0000 0000
00000010: 0000 0000 0000 0000 0000 0000 0000 0000
00000020: 0000 0000 0000 0000 0000 0000 0000 0000
00000030: 0000 0000 0000 0000 0000 0000 0000 0000
00000040: 0000 0000 0000 0000 0000 0000 0000 0000
00000050: 0000 0000 0000 0000 0000 0000 0000 0000
00000060: 0000 0000 0000 0000 0000 0000 0000 0000
00000070: 0000 0000 0000 0000 0000 0000 0000 0000

layer1.agg.mlp.0.weight f4 [1, 64]
-0.09515408 0.11642066 0.115902826 0.010909185 0.036783725 0.102570295 -0.0994201 -0.09003705
0.10025662 -0.051258653 0.014308929 -0.117378294 0.06549215 -0.075674176 0.07018235 0.048230574
-0.07442658 -0.07065487 -0.03408383 0.009941325 -0.038554013 -0.09748812 -0.01978214 0.07687618
0.05623108 0.085763216 -0.077844575 -0.12379624 -0.07750107 -0.070816636 -0.051294535 0.08211948
-0.03186676 0.0017923415 0.017711803 -0.104523495 0.031014636 -1.6137958e-05 -0.11504525 -0.002694875
-0.00445728 0.06909984 -0.025253564 -0.10687579 -0.017910093 0.036459044 0.026338264 0.057254836
-0.08126806 -0.020647064 -0.02909118 -0.049881876 0.105929926 -0.066994965 0.005402386 0.014664009
0.08837588 -0.060564905 -0.038512304 -0.07536124 0.048294142 -0.09566933 -0.039145783 -0.07526973
00000000: 24e0 c2bd f46d ee3d 765e ed3d 70bc 323c
00000010: 88aa 163d 6010 d23d c49c cbbd 5865 b8bd
00000020: 5853 cd3d 98f4 51bd 0070 6a3c 0864 f0bd
00000030: c020 863d 10fb 9abd c4bb 8f3d 6c8d 453d
00000040: f66c 98bd 80b3 90bd 7c9b 0bbd f0e0 223c
00000050: d0ea 1dbd daa7 c7bd 280e a2bc 4271 9d3d
00000060: 9052 663d a0a4 af3d fa6c 9fbd e288 fdbd
00000070: e2b8 9ebd 5008 91bd 381a 52bd 422e a83d
00000080: b886 02bd 00ed ea3a 5818 913c 6a10 d6bd
00000090: 6812 fe3c 0060 87b7 d89c ebbd 809c 30bb
000000a0: 600e 92bb 3884 8d3d 90e0 cebc b2e1 dabd
000000b0: 30b8 92bc 1456 153d 58c3 d73c 0c84 6a3d
000000c0: de6f a6bd 0824 a9bc a050 eebc f050 4cbd
000000d0: caf1 d83d a834 89bd 8006 b13b 5041 703c
000000e0: 6afe b43d e812 78bd 14bf 1dbd fe56 9abd
000000f0: 14d0 453d 48ee c3bd 5457 20bd 0427 9abd

layer2.linear.bias f4 [16]
-0.044715267 0.11577171 0.04356453 -0.008002103 -0.27779183 -0.023886865 -0.21685584 -0.16847648
-0.26692364 -0.25768384 0.16709179 -0.26974827 0.33979833 0.22269274 -0.27159753 0.34515554
00000000: 5b27 37bd b819 ed3d b870 323d 411b 03bc
00000010: bb3a 8ebe 63ae c3bc 750f 5ebe 1985 2cbe
00000020: 37aa 88be 23ef 83be 1c1a 2b3e 721c 8abe
00000030: 0cfa ad3e 9109 643e d50e 8bbe 3ab8 b03e

layer2.linear.weight f4 [16, 32]
-0.32670897 -0.072550505 -0.20467351 -0.39472264 0.6298829 0.113672234 0.52726597 0.7133915
-0.53224397 0.49087602 -0.42496192 0.21011233 0.139853 0.5264426 0.043555498 -0.14770362
0.2550874 0.6706352 0.050185207 0.58424115 0.2803024 0.1893694 0.109761156 0.33570734
0.80521154 0.025328744 0.73264116 0.32630706 -0.56662977 0.36961296 -0.0074884226 0.115082264
-0.37692338 0.9882877 0.07012636 -0.51186216 0.89830744 0.37555876 0.4779043 -0.014739642
-0.07216341 1.1965767 0.73888564 -0.37858352 -0.07584914 0.29252478 0.82076824 0.6647847
0.4500096 0.04787114 0.24800791 -0.05131796 0.42383137 0.047159515 0.5245074 0.64067763
-0.37540522 0.20551333 0.6467416 -0.39933097 0.5517722 0.053809416 -0.009170418 0.25823262
0.024922786 0.39929742 -0.3266882 0.6956728 0.8443655 0.42550182 0.41171578 0.12948018
0.6381179 -0.027907036 0.7426511 0.16530842 -0.19423963 -0.04610622 -0.019624533 -0.5683316
0.049039662 0.78671473 -0.7375421 0.45155156 0.764802 0.87313116 0.3974863 0.2897741
-0.36014825 0.7720467 0.85882264 0.34430474 0.22422187 0.2729379 0.1229138 -0.1298365
-0.31501418 -0.01952853 0.49484494 0.054223582 -0.21253905 -0.45278272 -0.4412858 -0.37406582
0.24684793 0.020535862 -0.0036037709 -0.4699413 -0.02169437 0.08824782 0.94544244 -0.25700116
0.4906879 -0.34606332 -0.30306217 0.23649356 0.012863257 0.5610589 -0.29013062 -0.15390629
-0.6110227 -0.08343622 0.049852356 -0.05279265 -0.02251219 -0.27923808 0.18002884 0.22986674
-1.2749606 -0.5515733 -0.76136434 -0.61397415 -0.40808782 -0.8539142 -0.55877405 -1.2636864
-0.84336925 -0.7369704 -0.36368835 -0.36322466 -1.3774102 -0.41849104 -0.59811056 -1.1148936
-1.2136793 -0.7325846 -0.9794545 -0.8413896 -1.1088824 -2.1022356 -0.9089781 -0.92775315
-1.0068384 -0.8383313 -0.37634745 -0.45612 -1.2579945 -0.5682946 -0.5814923 -0.23347363
0.087155275 -0.017890863 0.75362307 -0.4508238 -0.44366077 0.19166063 0.8833626 0.36864224
0.6404087 0.011858795 0.2656399 0.755806 0.40054303 1.0940711 0.88086826 0.019518318
0.48843148 0.5109462 0.32325932 0.63316226 0.7540984 0.06325908 0.00062809954 0.47870094
-0.44401103 0.26572657 0.5366273 -0.03768875 -0.13762508 -0.5446802 -0.13583352 0.44320515
-0.23305915 0.47132957 0.3708198 0.29916704 0.08246317 0.43077806 -0.159836 0.5740764
0.7140434 0.70007205 0.5648406 -0.57474315 0.4192926 0.71002847 -0.4225868 -0.80888766
0.28461727 0.9171793 0.36425945 0.60007393 0.14185737 -0.2235524 -0.3405265 0.70662653
0.35565788 -0.11965542 -0.040863514 0.8851896 -0.035535075 0.44141242 -0.39382744 1.1465219
-0.732002 -0.1997569 0.11105852 -0.820818 -0.084205374 -0.70940167 -0.6161055 0.19130707
-0.41291133 0.12797996 -0.6789626 -0.43380907 -0.6632766 -0.5101459 -0.0013343246 0.48994106
0.12266458 0.026638644 -0.19375263 -0.18904936 1.0202751 -0.38382545 1.0480229 0.1043248
-0.23066606 0.020876024 0.2302012 -0.23540583 -0.16170076 0.0540539 -0.38309523 0.04009692
00000000: 6646 a7be 5c95 94bd ef95 51be 1619 cabe
00000010: 0140 213f fdcc e83d e7fa 063f d3a0 363f
00000020: 2441 08bf 1a54 fb3e 9c94 d9be b027 573e
00000030: a035 0f3e f1c4 063f 4067 323d 9e3f 17be
00000040: d19a 823e c0ae 2b3f 018f 4d3d d490 153f
00000050: cc83 8f3e 0dea 413e 75ca e03d d5e1 ab3e
00000060: 5822 4e3f 3a7e cf3c 5f8e 3b3f b811 a73e
00000070: a60e 11bf e93d bd3e 7161 f5bb 40b0 eb3d
00000080: 1afc c0be 6c00 7d3f 699e 8f3d 6609 03bf
00000090: 7af7 653f 3d49 c03e dfaf f43e 8a7e 71bc
000000a0: 69ca 93bd 6d29 993f 9c27 3d3f b3d5 c1be
000000b0: cb56 9bbd cfc5 953e de1d 523f 552f 2a3f
000000c0: a967 e63e 8714 443d c9f5 7d3e c832 52bd
000000d0: 6d00 d93e 562a 413d 1e46 063f 7303 243f
000000e0: 1d35 c0be 1672 523e dc90 253f 1c75 ccbe
000000f0: f140 0d3f 4367 5c3d 853f 16bc 1137 843e
00000100: df2a cc3c b670 cc3e ad43 a7be 9d17 323f
00000110: 5628 583f 60db d93e 69cc d23e 7496 043e
00000120: b25b 233f 4c9d e4bc 621e 3e3f 9c46 293e
00000130: c1e6 46be e0d9 3cbd a1c3 a0bc 2e7e 11bf
00000140: d0dd 483d 2366 493f 8fcf 3cbf c431 e73e
00000150: 10ca 433f 8685 5f3f 5383 cb3e 455d 943e
00000160: 5a65 b8be daa4 453f cddb 5b3f b648 b03e
00000170: 6b9a 653e 84be 8b3e 3bba fb3d dcf3 04be
00000180: 8a49 a1be 4cfa 9fbc 515c fd3e 8c19 5e3d
00000190: d6a3 59be 23d3 e7be 36f0 e1be 8e85 bfbe
000001a0: b4c5 7c3e d33a a83c 3e2d 6cbb 259c f0be
000001b0: 64b8 b1bc 46bb b43d 8408 723f a895 83be
000001c0: 723b fb3e 362f b1be f72a 9bbe 5e2b 723e
000001d0: 69c0 523c 8ea1 0f3f 008c 94be 9c99 1dbe
000001e0: fc6b 1cbf 9ce0 aabd fc31 4c3d 1b3d 58bd
000001f0: 7c6b b8bc 4bf8 8ebe 7b59 383e 3062 6b3e
00000200: e931 a3bf e833 0dbf c6e8 42bf 692d 1dbf
00000210: e3f0 d0be 1f9a 5abf d10b 0fbf 7ac0 a1bf
00000220: 0ce7 57bf 18aa 3cbf 5c35 babe 95f8 b9be
00000230: fa4e b0bf 7544 d6be c61d 19bf d5b4 8ebf
00000240: d859 9bbf aa8a 3bbf 88bd 7abf 4f65 57bf
00000250: dcef 8dbf 078b 06c0 cab2 68bf 3b81 6dbf
00000260: 15e0 80bf e19c 56bf 9db0 c0be 9088 e9be
00000270: f705 a1bf c17b 11bf aedc 14bf b613 6fbe
00000280: 777e b23d dc8f 92bc 71ed 403f 61d2 e6be
00000290: 8127 e3be af42 443e 0d24 623f adbe bc3e
000002a0: d3f1 233f 644b 423c f401 883e 817c 413f
000002b0: fa13 cd3e 860a 8c3f 9580 613f e1e4 9f3c
000002c0: b113 fa3e 5fcd 023f 3f82 a53e ec16 223f
000002d0: 980c 413f fa8d 813d 0ca7 243a 4a18 f53e
000002e0: 6a55 e3be 500d 883e 6860 093f 855f 1abd
000002f0: 97ed 0cbe 2970 0bbf f117 0bbe c9eb e23e
00000300: 0fa7 6ebe 1c52 f13e 18dc bd3e 6c2c 993e
00000310: 73e2 a83d f18e dc3e 0cac 23be acf6 123f
00000320: 8ccb 363f ec37 333f 6599 103f 5e22 13bf
00000330: 85ad d63e 6dc4 353f 4c5d d8be 4313 4fbf
00000340: 5bb9 913e 43cc 6a3f 3780 ba3e 729e 193f
00000350: 0f43 113e ecea 64be 7d59 aebe 7ae5 343f
00000360: ca18 b63e e70d f5bd 8060 27bd c99b 623f
00000370: 3a8d 11bd cf00 e23e c0a3 c9be 3bc1 923f
00000380: 7c64 3bbf 138d 4cbe a672 e33d 2121 52bf
00000390: de73 acbd 599b 35bf 17b9 1dbf 00e6 433e
000003a0: 1d69 d3be 2e0d 033e 7ed0 2dbf 391c debe
000003b0: 7fcc 29bf ec98 02bf 81e4 aeba 8ed9 fa3e
000003c0: 9137 fb3d 4939 da3c 1767 46be 2896 41be
000003d0: 6098 823f c584 c4be 9d25 863f 3ea8 d53d
000003e0: b933 6cbe 3204 ab3c ddb9 6b3e 3a0e 71be
000003f0: e294 25be 9f67 5d3d 0f25 c4be ab3c 243d

layer2.agg.bias f4 [16]
0.0 0.0 0.0 0.0 0.0 0.0 0.0 0.0
0.0 0.0 0.0 0.0 0.0 0.0 0.0 0.0
00000000: 0000 0000 0000 0000 0000 0000 0000 0000
00000010: 0000 0000 0000 0000 0000 0000 0000 0000
00000020: 0000 0000 0000 0000 0000 0000 0000 0000
00000030: 0000 0000 0000 0000 0000 0000 0000 0000
