MMBenchmarkingCode/HTGN-EvoGCN/data/output/log/enron10/HTGN/model_checkpoint.pth (torch, 168882 bytes, 18 tensors)

feat f4 [184, 184]
000000 5f 3c cc bd 52 d5 d8 bd a0 4b c5 bc 91 cc b7 bb
       -0.09972452 -0.105875626 -0.024083912 -0.005609103
000010 71 9a 26 bd 92 88 cd 3d 86 cb 87 3d 7a 6b 6e bd
       -0.04067463 0.10035814 0.06630616 -0.058207966
000020 e7 9a be 3d 50 7d fd bd 4f bf a2 3d e5 67 5d bd
       0.09306889 -0.12377417 0.079466455 -0.05405416
000030 36 ab 4e 3d ad a3 d6 bb c7 6a 12 3d 4c 8f ce bd
       0.05045625 -0.0065502734 0.035746362 -0.100859255
000040 8f 6a ab bd 8e 24 07 3c 4d 4f 00 3e 69 5e ab bc
       -0.08369934 0.008248461 0.12530251 -0.020919042
000050 98 d5 7b 3c 0a 0a f9 bd b6 f7 6e 3d 0c 9a b0 bd
       0.015370749 -0.12160118 0.058341704 -0.08623132
000060 2a e6 a6 bc 42 13 00 bd 7d 30 2c bc 6d 3b 28 3d
       -0.020373423 -0.031268366 -0.010509607 0.041072298
000070 c9 2d a8 3d 9a c1 a6 3d 36 57 2d bd 17 b5 70 bd
       0.08211858 0.08142395 -0.0423195 -0.05876645
000080 81 de ea 3d 9c 67 bc 3d 55 b1 0b 3d f4 66 b3 bd
       0.114682205 0.091994494 0.034104664 -0.08759871
000090 f7 b5 3b bd 93 4a 27 bd 74 d3 00 3e 4d f4 62 bd
       -0.045827832 -0.040842604 0.12580663 -0.055408765
0000a0 45 fa 30 bd 2e c3 74 bd 6c 0f 7b 3d cc 1b 1e bd
       -0.043207426 -0.05975645 0.061294004 -0.038600728
0000b0 27 64 98 3c b6 1f ec 3d e6 8b 8e 3c bb 20 d6 3c
       0.018602444 0.11529486 0.017400693 0.026138654
0000c0 3d 6f cc bd 55 13 d5 bd c4 27 1e bd b6 1a d9 bc
       -0.099821545 -0.10404078 -0.038612142 -0.026501995
0000d0 0f 36 f5 bd ae dc e0 3c e8 57 5a 3d 71 ff d8 3d
       -0.119732015 0.027448978 0.05330649 0.105955966
0000e0 a2 cf f1 3b 69 ec 38 3d 2b 1b 8d bc 2b 32 c4 bd
       0.007379488 0.045147333 -0.017224869 -0.09579881
0000f0 e6 5e 52 3d a2 d6 ef bd dc 56 6a bd 18 61 9c 3d
       0.051360033 -0.1171086 -0.05721174 0.07635707
000100 c0 b3 31 bd 4c a8 fe 3d 53 d4 39 bd 90 65 c3 bd
       -0.043384314 0.12434444 -0.045368504 -0.09540856
000110 3a b1 ed bd 1e c4 0a bd eb 7c a3 bd bd 66 a6 bd
       -0.11606069 -0.03387844 -0.079828106 -0.081250645
000120 cd 8a c6 bd 06 40 fc bb d8 0c a6 3d 3e 92 f5 3d
       -0.09694443 -0.007698062 0.081079185 0.11990784
000130 b6 cd b1 3d 65 e7 fa ba 47 54 d3 bd 23 9a 63 3d
       0.086818144 -0.0019142447 -0.10318809 0.055566918
000140 aa 5b db bd 1e 3f d8 bd 15 b4 1d 3d f0 e0 4b bd
       -0.10710843 -0.10558914 0.038501818 -0.049775064
000150 8b 40 53 bc be ad e9 3d 20 d9 fa bd b2 0f 08 3c
       -0.012893806 0.11410092 -0.122484446 0.008304523
000160 a6 eb bf bd e1 f5 dd 3d 67 48 b3 bd 3f 8b 8f 3c
       -0.09371118 0.10837913 -0.08754044 0.017522452
000170 58 a9 a1 bd 0d 8b 2e bc c5 03 f1 3d ea e0 24 3d
       -0.07893628 -0.0106532695 0.11768297 0.040253557
000180 3a 6c 8e 3d 97 83 ae bd f9 7b 41 bd 50 24 ac bd
       0.06954236 -0.085211925 -0.04723737 -0.084053636
000190 6e e8 d0 3d 85 e5 85 3d 85 30 95 bb 83 c6 fc bc
       0.102005824 0.06537918 -0.004552903 -0.030856377
0001a0 6b bf 98 bd 53 93 e1 3d f3 11 36 3d b5 d1 6f bc
       -0.07458385 0.11014428 0.04445071 -0.0146374
0001b0 56 9a 74 bd 48 a8 26 bd fc 56 01 be 7a 62 19 bd
       -0.0597175 -0.04068783 -0.12630838 -0.03744743
0001c0 52 b2 b2 bd b9 f7 b2 3d a0 bb c7 bd b5 67 82 3c
       -0.08725418 0.087386556 -0.097525835 0.015918592
0001d0 9e b5 b1 bb 7c 7d 2f bd 3c 3a b7 3d f5 eb df 3d
       -0.005423262 -0.04284428 0.08946654 0.10933677
0001e0 78 b7 51 3d 2f 3b 64 bb 7e bc d5 3d 73 8f 02 3d
       0.05120036 -0.0034825315 0.10436343 0.031875085
0001f0 03 ab fc 3d dc 37 ec 3d 68 4a 9b 3c a1 0e 75 3d
       0.123373054 0.11534092 0.018956378 0.059828404
000200 52 a4 9d 3d e4 29 b9 3c b2 b8 f4 bc a5 22 20 bd
       0.07697357 0.022602983 -0.029873226 -0.03909554
000210 ca 27 67 bd 30 74 06 bd 12 24 bf 3d 4a 21 e3 3d
       -0.05643443 -0.03282565 0.09333052 0.11090334
000220 45 6c 77 3d 9a 0a 07 3d 7f a9 76 bd 6d 6d 4e bd
       0.06040599 0.032969095 -0.060220238 -0.050397325
000230 4c 0d 8b bd 7e 99 d4 bd 40 99 1f 3b 99 7c 92 3d
       -0.067896456 -0.10380839 0.0024352819 0.07152671
000240 3c b1 60 bd 9f c2 03 3d 17 42 f0 bd 5a 07 1a 3d
       -0.054856524 0.032168027 -0.11731356 0.037604667
000250 ad e1 44 3d 25 0d 74 3c d5 04 a9 bd 3d d7 b3 3d
       0.048066784 0.014895712 -0.08252875 0.08781288
000260 ea 37 c2 3d 46 7a fc 3d 7f ca 11 3d 95 c0 b2 3c
       0.09483321 0.12328009 0.035593506 0.021820346
000270 05 90 b5 bd 32 33 72 bd f8 9d 2c 3d 5f d6 14 bc
       -0.0886536 -0.059130855 0.04214284 -0.009084313
000280 2f 91 ac bd a2 84 dc 3d fe 70 7c 3c 97 0a 00 bd
       -0.08426129 0.10767485 0.015407799 -0.0312601
000290 13 45 c7 bd e5 82 68 bd d8 b9 e4 bd 6a 82 d4 bc
       -0.09729972 -0.056765456 -0.111682594 -0.025941093
0002a0 79 c5 c2 bd 62 ea 8e bd 46 3c c3 3c 50 10 d8 3d
       -0.09510321 -0.06978299 0.023832452 0.10549986
0002b0 8a be ed 3d 51 e4 1a 3d d7 62 1f 3d 39 f3 f7 3b
       0.11608608 0.037815396 0.03891262 0.007566836
0002c0 01 97 ef 3c 03 f6 06 3d 87 5c 0e 3c 7d b9 43 3d
       0.029246809 0.03294946 0.008689052 0.047784317
0002d0 7e 87 b1 3c 11 20 e2 3d bf 2f de bd 2e 7a 4b 3d
       0.021671053 0.110412724 -0.108489506 0.049677067
0002e0 a1 3e ea 3d 15 bd 3d 3c 7a 0d 95 bd f5 51 ce bb
       0.11437727 0.011580725 -0.07277961 -0.006296391
0002f0 26 fc 17 3d bf 19 d3 3d 67 9d 89 bd 3b f5 86 bd
       0.037105702 0.10307645 -0.06719475 -0.06589743
000300 17 88 87 3d 5e 75 5b 3d a2 dd 15 3d 53 e1 7d 3d
       0.06617754 0.053578727 0.03658832 0.061982464
000310 4a b4 e8 bd c8 37 00 3e 2e 53 d9 bd 97 c0 c1 bb
       -0.113625124 0.12521279 -0.106115684 -0.005912851
000320 a0 68 aa 3d 60 32 2d bd 8c 98 f6 bc d7 47 af 3c
       0.08320737 -0.04228437 -0.030102037 0.02139656
000330 b2 11 73 bd d2 e2 84 3d 1d 9a d3 3c d5 e5 b8 3c
       -0.059343047 0.06488575 0.025830323 0.02257053
000340 d5 31 aa 3c 7e a4 be bd c5 bb fb 3c 8f d4 09 3d
       0.020775715 -0.09308718 0.030729184 0.033649977
000350 48 a9 cb 3c f3 80 47 bd 8f b6 eb bd 5f d4 ab 3d
       0.024860993 -0.04870696 -0.1150943 0.08390116
000360 d7 6d f0 3c 78 f6 e7 bd cc 9f 34 bd 93 7f eb 3d
       0.02934925 -0.11326307 -0.044097707 0.11498942
000370 cb 9b 16 bb c7 c4 81 3c 34 33 90 3d cb 1d 36 3d
       -0.0022981043 0.015840901 0.07041016 0.044462007
000380 10 4b 4b bd 49 27 c4 3d 0a 50 9d 3d 29 56 ac 3b
       -0.049632132 0.095778055 0.07681282 0.0052592945
000390 9f 3c 68 3d 97 59 80 bd 70 b1 c1 3d 76 e2 cc bd
       0.056698438 -0.06267088 0.09457672 -0.100041315
0003a0 c3 ea 79 bc 82 79 d3 3d 55 30 0c 3d c7 21 26 3d
       -0.015253725 0.1032591 0.03422578 0.040559556
0003b0 53 5a 8e 3d ae b9 8b 3d c8 38 cc 3d 68 f5 b4 bd
       0.06950822 0.06822525 0.09971768 -0.0883587
0003c0 81 fc 47 bd 2c d5 51 bd 49 2c 83 3d 4f 15 aa bd
       -0.04882479 -0.051228687 0.06404931 -0.083048455
0003d0 70 82 01 be 1a 2b f5 3d 52 3d a3 bd 07 d9 06 3c
       -0.12647414 0.119711116 -0.0797068 0.008230454
0003e0 8a 8c 8a 3d 22 72 b7 3d 20 ab ca bd f8 92 c9 bd
       0.06765087 0.08957316 -0.09895921 -0.09842485
0003f0 f0 8e d8 3d 13 4e e5 3d 01 1c 39 bd ac 46 4e bd
       0.10574138 0.11196532 -0.045192722 -0.050360367

Q f4 [16, 16]
000000 27 41 07 3f c5 d3 39 3f 0d 2b 66 3f 94 1b fa 3b
       0.5283379 0.7258876 0.8990944 0.007632682
000010 28 89 5a 3f 48 71 c8 bd d7 a8 85 3f 60 29 88 3f
       0.85365534 -0.09787232 1.0442151 1.0637627
000020 09 af e8 be 75 5e a8 3d 7f 37 b3 3e e5 84 12 bf
       -0.4544604 0.08221141 0.35003278 -0.5723403
000030 4f e6 05 bf 7f 73 7d 3e 71 a7 a2 bd 9e 8a 58 be
       -0.5230455 0.2475109 -0.07942093 -0.21146628
000040 9e 20 a6 3e 19 12 9b 3f 36 6b a2 3e 5e 02 1e bf
       0.3244676 1.2114898 0.3172242 -0.6172236
000050 d9 7e 1e 3f 2f aa 04 3d e6 1c bc 3d 12 51 73 be
       0.61912304 0.032388862 0.091851994 -0.23761395
000060 24 9a 92 3e 53 6e 00 bf 6b cc bb be 40 54 60 bf
       0.28633225 -0.5016834 -0.36679396 -0.87628555
000070 d3 1e c3 3e 94 ca 83 3f ea ea 46 be 7d f3 0a 3d
       0.38109455 1.0296197 -0.1942555 0.033923615
000080 75 6f a2 3f 0f 84 54 be 48 41 43 bf 36 ec cd 3e
       1.2690264 -0.20753501 -0.76271486 0.40219277
000090 b4 1b 16 40 e5 36 64 be b0 0d 28 bf 8c 42 3e bf
       2.3454409 -0.22286566 -0.65645885 -0.7432029
0000a0 7a f6 c6 be 7e 66 8c 3f db 62 1f 3e 6b 34 9a be
       -0.38859922 1.0968778 0.15565054 -0.30118117
0000b0 47 b8 86 bc d4 84 be be 00 3c f0 3d a2 81 3f be
       -0.016445292 -0.37210715 0.11730194 -0.18701795
0000c0 78 8c c7 bf 22 85 12 bf ca 51 6c 3f 63 ee ba 3e
       -1.5589743 -0.57234395 0.923123 0.3651
0000d0 2b 66 59 3f ec 1e 4f bf 67 68 76 3a e8 52 d7 be
       0.8492152 -0.8090656 0.00093997124 -0.4205544
0000e0 db 4a 7b bf 5c a5 1d 3f ed b6 31 3f e7 6b 97 3f
       -0.98161095 0.61580443 0.6941975 1.1829804
0000f0 62 40 9a be 4b df 11 bf 0e c0 1b bf 9a a0 95 bf
       -0.30127245 -0.56981343 -0.6083993 -1.1689637
000100 bf a9 82 c0 27 93 cb bd 50 f5 9a bf ba b9 df bd
       -4.083221 -0.099401765 -1.2106113 -0.109240964
000110 e8 ad 66 be a9 09 76 3f 5a 0e dd 3e 2c ca aa bf
       -0.22527277 0.9610849 0.43175012 -1.3342948
000120 7f f2 64 bd 45 ae bc 3e d3 6e 38 3e a2 78 26 bf
       -0.055895325 0.36851707 0.18011026 -0.6502782
000130 88 88 84 3e d9 9e 94 3e 0b db 66 be 3b 16 71 3c
       0.25885415 0.2902744 -0.22544496 0.014714773
000140 63 87 e2 3f b7 d8 7b 3e 1b af 07 3f 3e cb 4d 3f
       1.7697567 0.24594389 0.53001565 0.8038825
000150 6d 09 b8 be 48 f4 e1 bc 8a 26 e6 3e 5b 0c 8f bd
       -0.3594469 -0.027582303 0.44951278 -0.069847785
000160 7c 48 36 3e a0 51 32 be 0d 4a aa 3d 60 26 8a 3f
       0.17801088 -0.1741395 0.08314905 1.0792961
000170 19 8d ae bc ff eb 85 bf 24 b1 97 bd 8c 1e d1 3e
       -0.021307515 -1.0462645 -0.07406834 0.40843618
000180 ec 8c 88 c0 90 5a 4b 3e f1 36 97 be e6 53 bc bc
       -4.2672024 0.19858766 -0.29534104 -0.022989225
000190 6f 21 a6 be c1 9d 9e 3f b5 c7 d1 3e ea 42 89 bf
       -0.32447383 1.2391893 0.40972677 -1.0723546
0001a0 c6 73 bd 3e 7d 13 97 3e 37 ba e8 be 94 ee bb bd
       0.3700239 0.29507056 -0.4545457 -0.091763645
0001b0 83 3a f4 3e 69 4f ae be 19 ef 93 3e 2a a3 00 3f
       0.4770089 -0.3404496 0.28893355 0.5024897
0001c0 7e 80 85 bf 45 80 f4 bf a1 61 96 3f 1d d5 91 3e
       -1.0429838 -1.9101645 1.1748544 0.28482905
0001d0 45 65 87 bf 25 90 57 bf 0a ae 89 be 65 d0 0c 40
       -1.057778 -0.8420432 -0.26890594 2.2002194
0001e0 80 0a 07 bf 61 5e 26 3f 6f ae fb 3c a3 9d 02 bf
       -0.52750397 0.6498776 0.030722825 -0.51021785
0001f0 63 84 f6 be aa 95 6f bd f6 41 f3 bd 24 92 55 bf
       -0.48147878 -0.05849234 -0.118778154 -0.8342612
000200 ae a5 1b 40 2c 5a b4 3e 36 7c 83 3f 32 4d 4a 3f
       2.4319873 0.35225046 1.0272281 0.7902404
000210 44 a9 59 be 5e 9f 02 3f 8f 45 85 3f 0b 31 49 40
       -0.21255976 0.51024425 1.0411853 3.1436183
000220 15 96 98 3e 27 f8 02 3f 17 3b 20 3e d6 fa 51 bd
       0.29802004 0.511599 0.15647541 -0.051264606
000230 dc 1d 45 be 3b 6b 45 be 37 86 1a be e3 8c e9 3e
       -0.19249672 -0.19279186 -0.15090261 0.456153
000240 b8 28 f2 bc af 51 fc 3d 1c 3b 0f 3f 2c 02 7e 3e
       -0.029560432 0.123202674 0.5594957 0.24805516
000250 12 65 c0 be 75 f8 f3 bd f8 1e a1 3e 86 e3 8a 3f
       -0.3757711 -0.11912624 0.3146894 1.0850685
000260 6e 0c 06 be 30 14 84 be a2 10 4d 3e 23 4a 47 bf
       -0.13090679 -0.25796652 0.20025876 -0.778475
000270 8a c8 2c be 4b 2a 8f 3e f6 1a 70 be 35 c1 94 be
       -0.16873375 0.27961954 -0.23447785 -0.29053655
000280 da c8 34 40 10 f1 53 3f 02 27 dd 3c 75 46 bc 3f
       2.824759 0.8278971 0.02699614 1.4709002
000290 33 df 87 3f 7e 50 1b 3d 90 a2 23 3f 68 20 0d bf
       1.061499 0.03791856 0.63919926 -0.55127573
0002a0 87 ce 0b 3e 55 c6 7b 3f 14 6c 02 be d3 ad 8a 3f
       0.13653003 0.98349506 -0.12736541 1.0834297
0002b0 d2 93 21 3e 93 23 af bf 2c 82 cb be b5 10 2e 3d
       0.15779045 -1.3682731 -0.3974775 0.0424964
0002c0 88 80 1f 40 14 b6 d6 3f 12 1d 19 3f 3e bf 9d 3e
       2.49222 1.6774316 0.5980998 0.3080997
0002d0 19 26 45 bf 53 02 61 bf 5c 54 91 be ca a2 8f be
       -0.7701126 -0.8789417 -0.28384674 -0.28053886
0002e0 85 fe 3b bf 4a 2f 1f bf 8b e1 1d 3e 99 c8 c7 3f
       -0.7343524 -0.6218153 0.15418069 1.5608093
0002f0 5a 1e b7 be 47 47 b6 be 95 36 36 be 54 95 0b bf
       -0.35765344 -0.35601255 -0.17794259 -0.5452473
000300 20 e6 ab bf 77 25 eb 3e ae 03 1d bf 82 49 e7 3d
       -1.3429604 0.4592702 -0.6133374 0.112933174
000310 ad 72 43 bf 4d d9 94 3e 7f 49 89 3d 1d 9a 10 bf
       -0.76346856 0.29072037 0.067034714 -0.5648516
000320 42 4e 25 be a5 60 1b bd 51 76 a5 3d 93 32 fa 3e
       -0.16143134 -0.037933964 0.08079208 0.4886671
000330 fb e7 fb 3d 77 9f 3d be 7a ee 80 be 92 5b 1d bd
       0.12300106 -0.18517862 -0.25181943 -0.038417406
000340 a6 a9 a1 3f 40 d4 ec 3e df 50 0c 40 88 c4 7a bf
       1.2629898 0.46255684 2.192436 -0.9795613
000350 9a 60 14 bf f2 6c d2 be a6 61 45 be 04 29 dc 3f
       -0.579599 -0.41098744 -0.19275531 1.7200017
000360 07 52 ca be 43 9c 8b bf 6d c2 52 3e c4 6d 35 3f
       -0.39515707 -1.0907062 0.2058198 0.70870614
000370 75 7f 39 bd cf 17 be 3e 98 9a f5 bc dc e3 d3 be
       -0.045287568 0.3712754 -0.029980943 -0.4138478
000380 dd 5b 9e be ba 11 a2 bf d5 e9 f9 3e 4f f2 bf 3c
       -0.3092946 -1.266166 0.48811212 0.023430971
000390 55 83 64 bf 25 63 3c 3f cf ba 7d 3e c7 bf 3e 3f
       -0.89262897 0.7358878 0.24778293 0.7451138
0003a0 62 67 87 3e 9c 95 89 bf 7c 5f a2 bd f5 90 d8 be
       0.26446062 -1.0748782 -0.079283684 -0.42298093
0003b0 16 4c 52 be 60 1a 1e bd 17 a0 f9 3e 53 55 fe bc
       -0.20536837 -0.038599372 0.4875495 -0.031046545
0003c0 77 30 cb be 83 fb f8 3e 79 97 e7 3e 1d 29 18 bf
       -0.39685413 0.48629388 0.45232752 -0.59437734
0003d0 9a e8 24 3b 96 db ee be e5 12 a0 bd 3a be eb bd
       0.0025163055 -0.46651906 -0.07816104 -0.11510892
0003e0 b2 af 12 bf 4c d7 a7 bc 64 c2 ab 3d 01 62 d7 be
       -0.5729934 -0.020488404 0.083866864 -0.4206696
0003f0 61 6d 87 be 4c a4 b2 3e 97 6c bb be 1e b9 10 bf
       -0.26450637 0.34890974 -0.36606285 -0.56532466

r f4 [16, 1]
000000 e8 c4 35 40 c6 1d 3f bf c5 d7 6a bf a9 9a 55 bf
       2.8401432 -0.74654806 -0.9173549 -0.8343912
000010 8a d9 9b bf 46 94 d0 be 45 a2 ec be 8f 1d c4 bf
       -1.2175763 -0.40738124 -0.46217552 -1.532152
000020 1d 13 8c be 91 47 2e bf 93 66 c1 3d db eb 4e bf
       -0.27358332 -0.6807795 0.094433926 -0.80828637
000030 6e 87 45 bd 1a be 35 3f cb ac ae bd aa f2 d1 be
       -0.04822486 0.70993197 -0.085290514 -0.4100545

c f4 [3, 1]
000000 00 00 80 3f 00 00 80 3f 00 00 80 3f
       1.0 1.0 1.0

gru.weight_ih f4 [48, 16]
000000 da 35 39 3f 16 5c da 3b 93 93 ac 3f 82 41 01 3f
       0.72347796 0.0066638095 1.3482536 0.5049058
000010 7d 5e 64 bd b6 fc 59 3f e4 8d 69 3f 48 23 c5 3e
       -0.055754174 0.8515123 0.9123213 0.3850348
000020 e9 e0 b8 3f d2 bb 60 3f b4 0a ea bd cf 72 0e 3f
       1.4443637 0.8778659 -0.11427823 0.55643934
000030 90 50 93 3f 5b 21 4d 3f 5f 6e af 3e 72 48 7b 3f
       1.1508961 0.8012902 0.34263894 0.9815742
000040 18 6c eb 3d c8 76 37 be 25 68 48 3f 6b 00 b4 3e
       0.114952266 -0.17916405 0.7828391 0.3515657
000050 ab c4 9f bd 0a 93 00 3e cf de 10 3e e7 ea c4 3e
       -0.07801183 0.12556091 0.14147495 0.38460466
000060 13 94 07 40 51 17 73 3f ae 16 a9 3e 25 b5 55 3f
       2.1184127 0.94957453 0.33025116 0.8347953
000070 2c c9 58 3f 10 3f 1f 3e 59 15 fe 3e f7 4c 90 3e
       0.84681964 0.155514 0.49625662 0.2818372
000080 0e 19 84 3f c6 7c e2 bc 05 75 80 3f 85 fd 8b 3f
       1.0320146 -0.027647387 1.0035712 1.0936743
000090 49 55 51 bb 6d 71 69 3f 57 eb 95 3f cd f8 14 3f
       -0.0031941703 0.911887 1.1712445 0.5819214
0000a0 dd 2d b6 3d 9e 32 03 3f d9 25 4c 3e 9f cd 83 3f
       0.088954665 0.5124911 0.19936313 1.0297126
0000b0 01 ae 35 3f 5b a4 84 3f 8c a6 55 3f 74 73 89 3f
       0.70968634 1.0362657 0.83457255 1.0738358
0000c0 c3 3f fd 3c 28 a3 69 be 6d 94 2b 3f 11 e3 d6 3e
       0.030914193 -0.22816145 0.67023355 0.41970113
0000d0 1c 01 ba bd 27 41 10 3f 40 a6 b3 3e c0 9a 76 3f
       -0.09082243 0.56349415 0.35087776 0.9632988
0000e0 ff c1 84 3f a8 34 9e 3d f6 0e 5c 3f e3 a1 6b 3f
       1.0371703 0.07724887 0.8596033 0.92043895
0000f0 07 68 92 3f 88 76 b2 3f 8b 66 84 3f 52 4d 82 3f
       1.1437997 1.3942423 1.0343794 1.0179846
000100 e0 05 3c 3f 6c 34 86 bd d7 25 91 3f 93 0e 4e 3f
       0.73446465 -0.065529674 1.1339673 0.8049099
000110 28 cd 37 bd 8b e3 68 3f 96 ac 92 3f 62 7b 06 3f
       -0.044873387 0.90972203 1.1458919 0.5253202
000120 ee 01 6a 3f 8b d2 64 3f 8e b9 dd be 3a a9 6c 3f
       0.91409194 0.89383763 -0.4330563 0.9244572
000130 53 3c 20 3f 00 18 61 3f ef f8 46 3f a7 9f 02 3f
       0.6259205 0.87927246 0.7772359 0.5102486
000140 4a 6b 4a 3f f9 95 0f bd 2f 39 8d 3f ba 40 a8 3f
       0.7906996 -0.035055134 1.1033076 1.3144753
000150 39 cc c9 bd f1 6b 3f 3f b7 97 b4 3f 72 d5 86 3f
       -0.098534055 0.7477408 1.41088 1.0533888
000160 87 ea 45 3f d4 27 2c 3f 10 c8 86 3c 4d 8f 4d 3f
       0.77310985 0.6724827 0.01645282 0.80296785
000170 9f e3 68 3f 23 ec 8e 3f a0 de 57 3f 0c b6 9b 3f
       0.9097232 1.1165813 0.84324074 1.2164931
000180 90 23 5e 3f 74 71 2d be 2c 58 6a 3f 8b 10 a3 3e
       0.86773014 -0.1693781 0.9154079 0.3184856
000190 fb 94 99 bd 21 f3 8e 3e 40 bd 11 3f b3 d8 76 3e
       -0.07499119 0.27919868 0.569294 0.24106102
0001a0 7f ad e3 3f 2c fa 41 3f 67 93 df 3f d4 97 86 3f
       1.7787322 0.75772357 1.7466859 1.0515084
0001b0 84 17 9f 3f 5d 34 43 3f 52 ea cc 3e d1 ed 80 3f
       1.2429051 0.76251775 0.40022522 1.0072576
0001c0 cd a3 f2 3e cf 83 03 bd b1 b1 1e 3f 86 c7 b5 3f
       0.47390595 -0.032108124 0.61989886 1.4201515
0001d0 12 65 51 bd 80 7f 3b 3f 8e a9 a9 3f 7c 4e 75 3f
       -0.05112178 0.73241425 1.3254869 0.9582288
0001e0 be 0c be 3d 62 a1 27 3f 6f 70 83 bc 52 99 75 3f
       0.09279774 0.65480626 -0.016044823 0.95937073
0001f0 ef a5 39 3f 3b 25 80 3f 94 7e 2e 3f b6 e5 96 3f
       0.7251882 1.0011362 0.6816189 1.1788852
000200 5c 45 4a 3f 1c a4 61 bd d1 63 22 3f 31 24 5d 3f
       0.79012084 -0.055088148 0.6343356 0.8638335
000210 93 86 dd bc 6b 6e 0c 3f b2 48 88 3f 25 2c 7d 3f
       -0.027041709 0.54855984 1.0647185 0.98895484
000220 fc 2c 54 3f 9d 1a 47 3f e3 74 80 bd 25 3d 44 3f
       0.8288114 0.77774984 -0.06272294 0.766558
000230 ad 53 2e 3f ec be 44 3f f0 54 4d 3f f7 77 59 3f
       0.6809643 0.76853824 0.8020773 0.84948677
000240 80 86 36 3f 7f 86 8c bc 33 18 51 3f 49 bb 82 3f
       0.7129898 -0.017153976 0.8167755 1.0213405
000250 26 06 7a 3c 63 cb 2e 3f 43 76 87 3f d5 20 21 3f
       0.015260255 0.68279094 1.0582966 0.6294072
000260 81 56 6a 3f 5d 5d 1a 3f 18 92 68 3e 75 27 2b 3f
       0.91538244 0.6029871 0.2271198 0.6685708
000270 ed 47 89 3f 68 4b 2a 3f ab 09 12 3f 38 15 77 3f
       1.0725075 0.6652131 0.57046 0.9651675
000280 2c 6a 0c 3f 13 e6 db bd 7e fe 91 3f ac 29 f0 3e
       0.54849505 -0.107372425 1.140579 0.46906793
000290 ec 9c ee 3c 0b 8c 7c 3d 71 75 83 3f d3 19 e2 3e
       0.02912756 0.061656993 1.0270215 0.44160327
0002a0 b8 83 e5 3f 10 78 b3 3e 4f da 87 3f d4 05 f0 3e
       1.7930822 0.35052538 1.0613497 0.46879447
0002b0 f2 57 1f 3f c8 33 d0 3d 63 90 3d 3f 5a 13 04 3f
       0.6224357 0.101661265 0.7404844 0.5159203
0002c0 3c a0 85 3e c5 ad ec bd 3f 25 de 3e 60 80 af 3e
       0.26098812 -0.115565814 0.43387792 0.3427763
0002d0 1c 9b 72 3e c0 79 95 3e 10 71 60 3f f7 48 d9 3e
       0.23691982 0.2919445 0.8767252 0.4243848
0002e0 1e dc 02 40 c3 ec a4 3e 9a d5 60 bf 85 68 87 3f
       2.044685 0.32211885 -0.8782593 1.0578772
0002f0 43 b6 04 3f 2c 55 e7 3e 1e 35 f6 3d 50 b3 93 3e
       0.5184061 0.45182168 0.1202185 0.28847742
000300 37 60 98 3e 28 c0 32 be 24 fb 8c 3f 89 e3 61 3f
       0.29760906 -0.17456114 1.1014142 0.88237816
000310 a1 37 ac bd c3 30 f4 3e ed 1e 11 3f ac c8 b3 3e
       -0.08409048 0.47693452 0.56687814 0.35114038
000320 69 f0 10 40 15 04 de 3e bf ce a2 3f 01 b0 24 3f
       2.2646735 0.4336249 1.2719344 0.6433106
000330 1b e4 9a 3e 2d 8f 5f 3f f9 b7 aa 3e c0 01 bd 3e
       0.30252156 0.87327844 0.33343485 0.36915398
000340 9b c9 12 3f 8e ab 14 be f0 7d 68 3f 13 35 5a 3f
       0.57338876 -0.14518568 0.90817165 0.85237235
000350 b2 48 ae bd 40 c3 96 3e 95 a2 88 3f 89 17 47 3f
       -0.08509959 0.2944584 1.0674616 0.77770287
000360 64 80 d4 3f d6 78 5a 3f 76 ca 47 3e e1 98 94 3f
       1.6601682 0.8534063 0.19510826 1.1609155
000370 36 8e 24 3f 3b ba 02 3f 2f d9 d8 3e 26 71 80 3f
       0.64279497 0.51065415 0.42353198 1.003453
000380 ec f2 58 3f 4a 57 b0 bd 3f b0 ca 3f f0 35 35 3f
       0.8474567 -0.08610399 1.5835036 0.7078543
000390 6b 72 17 bc 79 9b 30 3f 74 67 9c 3f 80 51 f4 3e
       -0.009243588 0.6898723 1.2219071 0.4771843
0003a0 8a 1e 2c 3f 61 ed 2b 3f 25 4e 4f bf 3b 6c 44 3f
       0.672341 0.67159086 -0.80978614 0.76727647
0003b0 fe 85 99 3e ba f1 88 3f 67 fe 23 3f 32 68 51 3f
       0.2998504 1.0698769 0.6406006 0.81799614
0003c0 b0 c4 19 3f ea 8f 78 be da 01 91 3f fc d8 18 3f
       0.60065746 -0.24273649 1.132869 0.5970609
0003d0 6b 27 06 be 48 47 59 3f 9c 0e 37 3f fb 9a 3f 3f
       -0.13100974 0.8487439 0.7150667 0.74845856
0003e0 dd 2c 90 3f 6e e5 05 3f f2 c0 ed 3e 4b d0 0e 3f
       1.1263691 0.52303207 0.46436268 0.5578658
0003f0 76 80 43 3f 23 00 82 3f 07 88 27 3f b3 20 64 3f
       0.7636789 1.0156292 0.65441936 0.89112395

gru.weight_hh f4 [48, 16]
000000 39 ba fc be 08 35 3a 3f 8d 69 ce 3d 4e 30 58 3e
       -0.49360827 0.7273717 0.10078726 0.21112177
000010 c1 3a a4 3e 8d be 9e 3c b2 ba 82 3e 3d d9 af 3e
       0.32076076 0.019377971 0.25533062 0.34345427
000020 30 2f 24 3e cf fd 7f 3e 97 53 89 be 2d ce 0e 3e
       0.16033626 0.24999164 -0.26821586 0.13945837
000030 9d 21 38 3e 1c cf 66 be ae af 9d 3e 77 98 df 3e
       0.17981572 -0.22539943 0.30798095 0.4367101
000040 c1 bb 0e bf 61 3f d9 3f 21 45 e5 be f3 dd e8 be
       -0.5575524 1.6972467 -0.44779304 -0.45481834
000050 0d 00 6d be a7 67 43 be 24 e8 18 be 8d b6 e6 be
       -0.2314455 -0.19082509 -0.14932305 -0.4506115
000060 ed 58 e1 bc 68 75 23 bf 0a 36 98 3e 32 33 4b 3d
       -0.027508223 -0.6385102 0.2972873 0.04960937
000070 2b 3f 99 be 6c ad bd 3d 66 51 cd 3e f8 c3 05 bf
       -0.29931006 0.09261593 0.40101165 -0.5225215
000080 a0 e6 00 3e 84 23 4c be 08 29 dc 3d fc 39 14 bd
       0.12587976 -0.19935423 0.107500136 -0.03618811
000090 01 e9 2a 3e 68 7d 17 be d4 da d9 3b f3 b1 36 3b
       0.16690446 -0.14793932 0.006648401 0.0027877062
0000a0 07 95 da bd d9 46 65 be ba 1d e1 3d ce 94 ce 3d
       -0.10672956 -0.22390307 0.10991998 0.10086976
0000b0 a3 b9 8c be 01 1e 47 be ca 92 59 3c 72 d5 a7 be
       -0.2748538 -0.1944504 0.013279626 -0.32780033
0000c0 42 20 fd bd 77 cc 84 be bc 01 e5 be f2 d0 a3 bf
       -0.12359668 -0.25937244 -0.44727886 -1.279814
0000d0 85 8a 57 3e 14 4b 39 be 41 4c 19 be 63 f6 87 be
       0.21048935 -0.18095046 -0.14970495 -0.26555166
0000e0 52 49 0c bf 52 27 9e bd 6e 62 f4 bd ba da c6 3d
       -0.5479938 -0.077223435 -0.119328365 0.097096875
0000f0 36 8e d7 be 24 d9 26 be 03 3a f4 be 5d 10 9b be
       -0.42100686 -0.1629377 -0.4770051 -0.30285922
000100 ac fa c9 be 24 a9 60 3e 03 b0 33 3d a4 07 0e bd
       -0.3944906 0.21939522 0.04386903 -0.034675255
000110 29 a0 de 3e c1 85 05 3e 7e 63 4a 3e 92 c9 51 3e
       0.43481568 0.13039304 0.19764516 0.20487049
000120 ad 45 d9 bd a6 06 c9 bb 84 6e 9f 3d 32 b1 1c 3f
       -0.10608993 -0.0061348258 0.07784751 0.6120788
000130 e5 80 87 3d 76 45 47 bf ee 2a c5 bb 54 2a 9f 3d
       0.066163816 -0.77840364 -0.0060170805 0.07771745
000140 bd a8 c5 bc a9 aa c2 bd f6 45 90 bc 04 5e 6e be
       -0.024128312 -0.09505207 -0.017611485 -0.23278052
000150 55 76 96 3e 90 c0 66 be b2 37 c9 3c 9d 37 a4 bd
       0.29387155 -0.22534394 0.02456269 -0.0801842
000160 76 0f 32 be 67 e0 3b 3d b1 b4 68 bd 99 8f 4d 3e
       -0.1738871 0.045868304 -0.056812946 0.2007431
000170 10 65 1b be 9a 1a 43 be 48 9c 09 bd 40 32 17 be
       -0.15175271 -0.19053116 -0.033596307 -0.14765263
000180 0e c2 49 bd c6 ce 43 3d 6d a7 0d 3e 4f c7 8d bc
       -0.04925733 0.047804616 0.13833399 -0.017306952
000190 3d 88 09 3d 6e 27 d5 bd 3d bf 4b bf 42 49 51 3e
       0.033577193 -0.10407911 -0.7958868 0.20438102
0001a0 0e 64 76 bd 97 03 ad 3d c0 b4 69 bd 6d 35 0a bd
       -0.060154013 0.0844795 -0.057057142 -0.033742357
0001b0 a4 a4 b1 be f1 68 3f 3c 37 86 9a bd 25 39 0a 3e
       -0.34695923 0.011682735 -0.07545131 0.13498361
0001c0 2e ae 94 bd 93 29 35 be 53 9e 37 be 38 33 3f be
       -0.07259785 -0.1769164 -0.1793149 -0.18671882
0001d0 90 4c 45 3c 88 17 78 bd 5f 8c 79 bc b3 d5 1e be
       0.01204218 -0.060569316 -0.015231221 -0.15511207
0001e0 8d 4b 63 be a6 fd a7 3a 27 21 48 3d 22 c2 82 3d
       -0.22196789 0.0012816682 0.04885974 0.06384684
0001f0 5f 00 1e be 5e c6 5d be 39 d2 18 be ce a8 c9 bd
       -0.15429829 -0.21657702 -0.14923944 -0.0984665
000200 26 63 83 bd c3 ae 9e 3c dd 22 d1 bd 5b fb 04 bd
       -0.064153954 0.019370442 -0.10211728 -0.032466274
000210 bd 52 09 3e 65 07 94 3c b6 80 7c 3d b0 93 8f bd
       0.13410468 0.018069932 0.061646186 -0.07010591
000220 5b ac 14 be 70 8a 13 3e 93 1d bd 3c e2 9a 84 3e
       -0.14518873 0.14408278 0.023085391 0.25899416
000230 b1 f9 45 bd 34 ef 94 bd 0c 4d 7d bd 95 33 b5 b9
       -0.048333827 -0.07272187 -0.061841056 -0.00034561442
000240 5d 38 0e be 79 9a 8d 3d 59 09 b6 3c d6 41 5f be
       -0.13888688 0.06914229 0.022221254 -0.21802458
000250 53 05 39 3e 93 a4 1a bd 7d 2f d6 3d 06 5f a3 bc
       0.18068437 -0.037754606 0.104582764 -0.019942772
000260 7d 10 06 3e b4 1d 22 3e cc ff d6 3c 95 84 26 3d
       0.13092227 0.15831643 0.02624502 0.040653784
000270 06 e1 d4 3d 5a 4b 8d be 06 28 f1 bd a1 71 a8 3d
       0.10394482 -0.2759655 -0.11775212 0.08224798
000280 a0 6b be 3a df 9c 81 3d f3 d4 92 bc fa 64 69 be
       0.0014527924 0.06328749 -0.017923808 -0.22792426
000290 94 24 a3 be 86 22 40 3e 65 b7 a7 be 47 a1 9e be
       -0.31863844 0.1876317 -0.32757106 -0.3098242
0002a0 14 0f 68 3d 1a 62 aa 3e 16 35 8b 3f ab 31 6a bc
       0.056655005 0.3327797 1.0875576 -0.014294068
0002b0 ce a8 1d be ce 93 4c be df 47 b8 3e 05 db eb bd
       -0.15396425 -0.19978258 0.35992333 -0.11516384
0002c0 73 40 15 bf 7e b6 c7 3e 37 f1 21 be a1 76 ff bd
       -0.58301467 0.39006418 -0.15814672 -0.124737985
0002d0 47 d7 2e 3f bc 38 4b 3f a0 2b 08 3e 06 89 86 3e
       0.6829724 0.79383445 0.13297892 0.26276416
0002e0 63 8f 81 bd 44 68 20 3f e6 62 24 bb c8 6f bb 3f
       -0.06326177 0.62659097 -0.0025083362 1.4643488
0002f0 84 b1 91 3e 9c 19 e0 be 9a 4e 5f be 29 42 2c 3e
       0.28455746 -0.43769538 -0.21807328 0.16822113
000300 6f e3 14 be 50 b3 25 3e 64 bb 2b be 9e 9e 6d be
       -0.14539884 0.16181684 -0.16770703 -0.23205039
000310 4c 07 28 3e c0 47 d6 bd 86 fd a9 be 02 9a 04 3e
       0.16409034 -0.10462904 -0.33201236 0.12949374
000320 ce d3 26 be d0 ba 87 bd 02 f2 87 bd 97 b7 84 3d
       -0.16291735 -0.066274285 -0.06637956 0.064803295
000330 bf a3 63 bf 4e ea 43 be 20 25 1e bd 5d 7c ec bd
       -0.8892173 -0.19132349 -0.038609624 -0.11547158
000340 59 2e e8 bd e5 ef 00 3e 1b d4 33 be ac f3 c0 bd
       -0.11336965 0.12591513 -0.1756138 -0.09421477
000350 8e 29 0f 3e 5f 4e 05 bd 27 5d 8a 3d 0a 94 9e 3d
       0.13980696 -0.032545444 0.06756049 0.0774308
000360 ed f0 ac bd 9c f8 23 3e 33 87 80 3d 20 81 36 3e
       -0.084443904 0.16012806 0.06275787 0.17822695
000370 2d 7b ea 3c 96 e6 f4 3c c3 c9 90 3c 30 a5 cf 3b
       0.028623188 0.029895108 0.017674332 0.0063368306
000380 de 4c 9c bd 4a d5 fe 3c 20 6c ac 3e 45 5c cb 3e
       -0.07631849 0.031107564 0.33676243 0.39718834
000390 4c 1f 75 3f 9a 4c cf be 9b 88 8f 3e 44 13 9b 3d
       0.9575088 -0.4048813 0.2803391 0.07572034
0003a0 20 39 c2 be c1 47 63 be 1e 8a ae 3d 83 ef 9d 3e
       -0.37934208 -0.2219534 0.085224375 0.30846795
0003b0 d8 9a 1f be 62 d4 a9 3c 64 40 88 be 2f 06 a0 bd
       -0.15586412 0.020731155 -0.26611626 -0.078136794
0003c0 1c dc 85 be 38 3b 2a 3e ae 2e 01 3e f7 0f 86 be
       -0.26144493 0.16624153 0.12615463 -0.26184055
0003d0 c4 7c 6b 3e 3f fe f9 bd 73 a0 ba bb 84 e6 22 be
       0.22996813 -0.12206697 -0.0056953966 -0.15908247
0003e0 33 92 13 be 02 dc 01 bf 18 fe 86 3b 9d 51 e1 bd
       -0.1441124 -0.5072633 0.004119646 -0.110018946
0003f0 91 5b c5 bd fd 7a 75 bd a5 4d 67 3b d7 f1 72 bf
       -0.096366055 -0.059931744 0.0035294082 -0.9490027

gru.bias_ih f4 [48]
000000 0b 0e 44 3d e5 06 b5 3e d9 55 95 3e ed 9a 19 3f
       0.047864955 0.35356823 0.2916706 0.60002023
000010 93 88 48 bd 9c ea c2 3e 39 83 f7 3e 36 b1 7a 3f
       -0.048958372 0.38069618 0.48342302 0.9792665
000020 c8 f6 5d 3f c7 db d9 3e 46 96 10 3f e1 f4 10 3e
       0.86704683 0.4255049 0.564793 0.14155914
000030 21 1b 29 3f 8c 61 ee 3e a0 25 f3 bc 3b ae 06 3f
       0.6605702 0.46558797 -0.029681027 0.52609605
000040 34 4b 5c bf dc 1b 3a bf 76 da 5f bf bd d3 33 bf
       -0.8605225 -0.7269876 -0.8744272 -0.7024496
000050 9c ec 0d bf 79 6d 53 bf 1d 53 1c bf c5 59 67 bf
       -0.5543916 -0.82588917 -0.6106432 -0.9037135
000060 95 7a 5f bf c9 d8 59 bf 52 b3 6c bf 20 67 0b bf
       -0.8729642 -0.8509641 -0.9246112 -0.5445423
000070 31 dc 2c bf c4 59 35 bf 01 e7 22 bf 79 cc 21 bf
       -0.67523485 -0.70840096 -0.63633734 -0.63202626
000080 10 04 cf bc b6 73 2a be c8 06 dd bd 9e a4 73 3e
       -0.025270492 -0.16645703 -0.10792309 0.23793265
000090 03 77 29 bb 67 99 b8 bd 1e c4 1b bd 58 6d b3 3d
       -0.002585829 -0.09013634 -0.03802883 0.0876109
0000a0 9b 72 4c bc f1 57 2e 3c cd 15 42 be a0 c2 1e be
       -0.012478496 0.010641084 -0.18953629 -0.15503931
0000b0 8e ad 87 bb e3 f5 93 bc d0 8e a0 bd 82 d6 25 3e
       -0.0041405624 -0.018061584 -0.07839739 0.1619511

gru.bias_hh f4 [48]
000000 7c e9 81 3e 3f 18 10 3f 66 41 9b 3e 41 0c 2a 3f
       0.25373447 0.56286997 0.30323333 0.6642495
000010 da 89 71 bd 49 f9 f5 3d a6 34 6d 3e 5b b6 3f 3f
       -0.058969356 0.12010438 0.23164615 0.7488763
000020 90 5b 2c 3f b7 94 29 3f 09 38 ce 3e 4a c1 b6 3e
       0.67327213 0.66242546 0.40277126 0.35694343
000030 db 51 28 3f bd fd b4 3e 51 22 af 3e 54 9d 22 3f
       0.657499 0.35349837 0.3420587 0.63521314
000040 70 7e 47 bf 73 5b 7c bf c1 2a 46 bf 40 fe 42 bf
       -0.77927303 -0.9857704 -0.7740899 -0.76169205
000050 69 e9 59 bf 9d b8 0a bf 75 1c 63 bf f6 ae 47 bf
       -0.8512178 -0.5418795 -0.88715297 -0.78001344
000060 61 6d 4c bf 81 65 6d bf cc f9 80 bf 28 23 55 bf
       -0.798544 -0.9273301 -1.0076232 -0.8325677
000070 d4 84 2c bf 96 22 5e bf 6e c7 72 bf 18 d0 26 bf
       -0.6739018 -0.86771524 -0.94835556 -0.65161276
000080 c6 45 16 3d b8 bf 5d 3e 83 85 82 3d 09 35 78 be
       0.036687635 0.21655166 0.063731216 -0.24238981
000090 9d c5 87 3d 4a 94 24 3d dc 16 8d 3c 3f 57 3d bd
       0.066294886 0.040180482 0.017222814 -0.046225782
0000a0 86 f7 33 3b b4 cb ad bc 2d 4f 2e 3e aa 37 31 3e
       0.0027460768 -0.021215297 0.1702239 0.1730639
0000b0 ce 98 31 3c d2 73 4d bc 3e 91 a5 3d 11 4e 60 be
       0.010839654 -0.012539821 0.080843434 -0.2190478

linear.weight f4 [16, 184]
000000 ef e0 ab be 4d 06 ba 3e 73 45 30 be cc d8 5f 3f
       -0.33570048 0.36332932 -0.17213993 0.8744018
000010 76 72 70 3d 40 b9 d2 3d 30 47 83 3e f8 c3 46 be
       0.05870291 0.1028924 0.2564025 -0.19410694
000020 61 fc a1 be d3 1b db 3d 3a 65 68 3c 50 bb f3 3e
       -0.31637862 0.106986664 0.014184291 0.47603846
000030 e8 2f 38 3e 80 bd e6 be bd 44 2a 3f d6 0e 19 bd
       0.17987025 -0.45066452 0.66511136 -0.037367664
000040 8f 46 8c be 9b 04 07 3e 37 aa ac 3b 1d c6 94 3e
       -0.27397582 0.1318535 0.0052693146 0.29057398
000050 b2 52 ad be 2d 7b b9 bd 7b 24 4e 3e 55 82 94 bd
       -0.33852154 -0.09056697 0.20131104 -0.07251421
000060 d9 a2 0c be 10 5b 64 3e 01 e3 34 3e 83 1a 80 be
       -0.13733996 0.22300363 0.1766472 -0.25020227
000070 ef 1a 98 3d ff f8 87 3e 67 df 8d 3e 10 3f 99 3d
       0.07427012 0.26557156 0.27709505 0.07482731
000080 2c 09 2f bc 66 22 de 3d 54 a8 7f be 07 c7 39 be
       -0.010683339 0.10846405 -0.24966556 -0.18142329
000090 f9 3b 0e 3f 96 79 b8 bd 8e 7a f5 3d d3 f1 ce bd
       0.5556026 -0.09007566 0.11986266 -0.10104718
0000a0 b0 0b ab 3e 81 fd 0e 3e 10 cc 0f bf 34 da f7 3c
       0.33407354 0.13963892 -0.5617075 0.030255415
0000b0 18 56 4d be 91 81 06 3e a9 7d 6b 3e 8e 69 5d be
       -0.20052373 0.13135363 0.22997154 -0.21622297
0000c0 38 8a c1 be dc 56 6e be 74 6e 14 bf 1e ef 65 be
       -0.37800765 -0.23275322 -0.5798104 -0.22454497
0000d0 ec de 36 be 1f 04 ca bd be 95 d5 bd 69 7c 3f bd
       -0.17858475 -0.09864067 -0.10428952 -0.046749506
0000e0 80 ee 57 3f f0 d2 b3 3e ad 62 9b 3e 0c 1f ca 3e
       0.843483 0.3512187 0.3034872 0.39476812
0000f0 c8 df fd be f8 c7 1c 3d 6f 65 1b 3d 4a 99 16 3e
       -0.49584794 0.038276643 0.03793853 0.14706913
000100 92 34 27 bb 1d bf 34 3f 93 8c a2 3e 50 1c be 3e
       -0.0025513512 0.70604116 0.31747875 0.37130976
000110 1f 67 cf bd bc 48 d5 be 8c 2b 18 3d fb dc 3d 3e
       -0.10127091 -0.41657054 0.037150905 0.18541329
000120 79 49 6c bd b5 e0 15 3c 7b c6 e8 3e b2 90 b3 3d
       -0.057687256 0.009147813 0.4546393 0.08767833
000130 84 8a ea bd f4 51 a3 bc 61 8e 1e bf 42 e5 ca 3e
       -0.11452201 -0.01993654 -0.61936 0.39628035
000140 0d e4 a9 be 0d d6 71 bd 56 f4 5e be 2d de 42 bc
       -0.331818 -0.059042025 -0.21772894 -0.011893791
000150 cb b0 50 bd b9 49 4b be 66 16 df be 09 75 3a bf
       -0.050949853 -0.19852342 -0.43571776 -0.7283483
000160 bb f3 6a 3e 83 9e d7 3d 98 1b 2d be e0 bd ba bd
       0.22944538 0.105282806 -0.16905057 -0.09118247
000170 6e d7 c9 3e d1 e4 0c be f9 88 3b be d2 6c 63 3d
       0.39422172 -0.13759162 -0.1831397 0.0555237
000180 30 fd 54 3f 2b c3 21 bf d1 6f c0 bc 55 ce 13 bd
       0.83198833 -0.6318843 -0.023490818 -0.036085445
000190 10 cb 65 be b0 05 0f be d2 95 c7 be 2f 3f d4 3e
       -0.22440743 -0.13967013 -0.3898149 0.41454455
0001a0 2e 22 a3 bb 16 f8 05 3d 6c d0 bd 3d fc 94 8b bd
       -0.00497844 0.032707296 0.09268269 -0.06815526
0001b0 2f b3 7d 3e 4c e7 bd 3e 6b 49 0a 3c fc fe 06 be
       0.24775384 0.37090528 0.008440356 -0.13183206
0001c0 cf fb 4f 3e 40 44 3a bd bc b0 5e bb 03 71 4a bf
       0.20310901 -0.045475245 -0.0033979854 -0.7907869
0001d0 33 94 87 bd 9f 41 52 3e a9 13 d1 bc cb 11 16 be
       -0.06620064 0.20532845 -0.02552207 -0.14655225
0001e0 7a 90 a7 3e e5 3c 14 be 9b 06 88 be 3f 93 70 3e
       0.32727414 -0.14476354 -0.2656754 0.2349367
0001f0 16 90 bc 3e 40 45 64 3d f3 6f 88 be 4a 41 59 3e
       0.3682868 0.055730104 -0.2664791 0.21216312
000200 08 a5 d5 3e d5 5f 73 3d a4 5e 1d bf c6 17 8d 3e
       0.4172747 0.059417564 -0.61472535 0.275572
000210 c7 81 27 bd 56 bb 40 3e d3 38 9b bd e7 e5 bf 3e
       -0.04089525 0.18821463 -0.07579198 0.3748009
000220 0b 11 d5 be 05 72 52 be 16 8d 60 3e 3c 26 4f 3f
       -0.41614565 -0.20551307 0.2192882 0.80917716
000230 74 65 0b 3e 73 ef 80 3d 7d ba 43 bd d7 9d 84 bd
       0.1361292 0.06295671 -0.04778527 -0.06475418
000240 8e d7 49 be d3 d1 ed 3c d1 b1 26 be c4 3e d3 3d
       -0.19711134 0.029030716 -0.16278769 0.10314706
000250 72 9d b8 3d 44 8c 58 3e b5 e0 02 be 8d 8a 9d be
       0.09014405 0.21147257 -0.12781031 -0.30769768
000260 64 46 65 be 9e a7 25 bd fa 7a 5e bd c6 f4 58 bd
       -0.22390133 -0.040443055 -0.0543165 -0.05296781
000270 b7 bd 51 3e 06 7f fd 3c 1f ed 78 3e 93 f2 58 be
       0.20482527 0.030944359 0.24309205 -0.21186285
000280 f3 07 74 3e 34 cc 7e 3e 3b 31 ee 3e 01 07 56 be
       0.23831157 0.24882585 0.46521935 -0.2090111
000290 14 d4 85 be c7 84 b8 3d cb bd 76 be 70 23 c6 be
       -0.26138365 0.090097 -0.24095838 -0.38698912
0002a0 86 9d f5 3d f4 6f 14 be 99 1b e5 3c c6 dd 3e bf
       0.11992936 -0.14495832 0.027967261 -0.7455715
0002b0 48 0e 2e be d9 3c 35 3f 19 05 39 bd d2 13 92 be
       -0.16997635 0.7079597 -0.045170877 -0.28530747
0002c0 4b a0 a1 3d fd 71 c0 3d 22 00 90 be 2c 7f da 3d
       0.078919016 0.093967415 -0.281251 0.10668787
0002d0 61 fa 1c bd d3 d8 9f 3e d6 88 7b 3e 0a 9c 75 be
       -0.038324717 0.3122011 0.24563918 -0.23985305
0002e0 a6 4e f7 3e a9 21 92 3d 52 89 a3 bd 3c 7d da be
       0.48302191 0.071353264 -0.07985176 -0.4267367
0002f0 50 85 69 3d a5 fa 8b be 55 69 32 3e 7a de 33 bd
       0.057011902 -0.27339664 0.17422993 -0.043913342
000300 5f 7d ad 3e 9f f6 65 be 9f 8d 9e be 34 22 d9 bd
       0.33884713 -0.2245736 -0.30967423 -0.10602227
000310 fe d7 f1 bd ee e4 d2 3b 37 a8 ba bd 0a da de 3d
       -0.11808775 0.006435982 -0.09114116 0.108814314
000320 bc ff 28 3d 0f d8 bf bd 5d 8e 34 3e ba c5 03 3e
       0.041259512 -0.09367382 0.17632432 0.12868395
000330 e2 7b fa 3e 78 d8 80 be 62 ec 42 be 5c f5 a9 be
       0.4892264 -0.25165153 -0.19035485 -0.33195007
000340 1c 6e a2 3e 4b 8a 08 3d 1f 50 0c 3f 3f 5d 69 3e
       0.31724632 0.03333501 0.54809755 0.22789477
000350 ac f5 88 be f5 1e e6 be 48 0d 62 be 70 4e a2 bd
       -0.26749933 -0.44945493 -0.22075379 -0.07925117
000360 10 69 b0 bc 74 e8 fc bd 2b d7 7c be b1 63 b7 3e
       -0.021534473 -0.123490244 -0.24691455 0.35818246
000370 20 99 a0 be 36 1c 07 bf 48 12 39 be 06 dc 9c be
       -0.31366825 -0.5277742 -0.1807338 -0.30636615
000380 52 f1 e2 be fb a5 1d be c5 85 fd 3e d0 8d 0c be
       -0.44324738 -0.15395348 0.4951612 -0.13725972
000390 fc 44 4d be 07 fe 25 3b 88 cd 82 3d bc fe 5d 3e
       -0.20045847 0.0025328414 0.06386858 0.21679205
0003a0 65 eb a9 3e 68 52 6b bb 10 1e bc 3c bb c2 6d bd
       0.33187404 -0.0035907272 0.022963554 -0.058047038
0003b0 cd 86 17 be f7 d6 31 3e 62 d4 fe be e4 64 13 be
       -0.14797516 0.17367159 -0.4977141 -0.14393955
0003c0 c6 d3 14 3e 80 1c 94 be 25 a2 9b bc d2 a1 18 3f
       0.1453391 -0.28927994 -0.018998215 0.5962192
0003d0 9c eb b0 be 1a c3 6d 3d 43 08 18 3e 26 64 12 bd
       -0.34554756 0.05804739 0.14846902 -0.03574004
0003e0 36 2e 7b 3d d4 ae c0 bc 28 f0 24 3e ff 20 bd be
       0.061323367 -0.023520865 0.16107237 -0.36939237
0003f0 f9 95 a0 be 7c f5 1a be de 70 34 3c e5 d1 29 be
       -0.3136442 -0.15132707 0.011013238 -0.16583975

linear.bias f4 [16]
000000 d5 10 f1 3d ba d5 1e 3c e2 b9 a3 be cb 54 da 3c
       0.117707886 0.009694511 -0.31977755 0.02665176
000010 7c b6 c2 3d 98 53 46 bc b6 1d 67 3d 61 0d e2 3e
       0.095074624 -0.012104891 0.05642482 0.44150832
000020 30 e2 06 be f6 64 8f 3c 58 02 7c 3d e3 5e 44 3e
       -0.13172221 0.017504197 0.061525673 0.19176821
000030 0d 56 68 3e 05 16 83 bc 08 b6 d7 3c 04 7f 61 3d
       0.22689076 -0.01600171 0.026331916 0.055052772

layer1.linear.bias f4 [32]
000000 fe 42 17 bd 99 5a c5 bd 3b db be bd 36 2f c5 bd
       -0.036929123 -0.09636421 -0.09319159 -0.096281454
000010 2b 1b 66 bd b4 14 fc bc 02 12 ac bd 87 5d 2f be
       -0.056178253 -0.03077159 -0.08401872 -0.17125522
000020 15 57 16 bd 3b 38 97 3d 3f 56 5c be 78 ae d3 3b
       -0.03670414 0.07383772 -0.21517275 0.0064600073
000030 0c 0f d0 bc 64 0e 21 bd c8 d3 ec bd 16 0b 85 bd
       -0.0253978 -0.039320365 -0.115638316 -0.06496255
000040 3a 0f 9b bd 60 62 61 be 5c 38 f0 bd 08 df 53 be
       -0.075712636 -0.22010183 -0.117295 -0.20690548
000050 79 61 bc bd ca 4b f0 bd 9e 36 35 be 24 9e 45 bd
       -0.09198279 -0.117332056 -0.17696616 -0.048246518
000060 aa ed d4 bc 51 f1 91 bd 44 b4 1d bd aa f3 8a bd
       -0.025992233 -0.071261056 -0.038501993 -0.067847565
000070 d4 8c 58 bd 7b 03 f9 3c 7a c7 0f bd 7f a8 8e bd
       -0.05286868 0.030397167 -0.035102345 -0.06965732

layer1.linear.weight f4 [32, 32]
000000 9f 85 04 bd fa 80 ea 3e 81 ba 44 be e1 33 14 3e
       -0.032353994 0.45801526 -0.1921177 0.14472915
000010 ee af bd 3d 7b 31 2a be b9 93 4e 3e fa aa 03 3e
       0.092620715 -0.16620438 0.20173539 0.12858191
000020 43 4e 4d 3e 65 91 1c be 77 bf c5 3e 2a 9e d2 3e
       0.20049386 -0.15289839 0.3862264 0.41136295
000030 48 3e a5 3d 47 c9 0a be da d0 a8 bd e3 5a 3b 3d
       0.0806852 -0.13553344 -0.0824296 0.045740973
000040 44 bb 60 be e8 39 a7 3e 47 6c 49 3e fb 99 9a 3e
       -0.21946436 0.32661366 0.19670211 0.30195603
000050 35 b5 73 3e 79 c7 e1 be 85 06 20 3e 6e 16 58 3e
       0.23799594 -0.44097498 0.15627487 0.21102306
000060 46 33 d9 3e b3 2c 18 bf df 4e 53 be 17 af 58 3e
       0.4242193 -0.59443206 -0.20635556 0.21160541
000070 10 de 4a bf de 4a 33 be 3f 25 e9 bd fd b6 7b 3d
       -0.7924509 -0.17509028 -0.11384057 0.061453808
000080 3c 4b fc 3c 52 f5 94 3e c4 6c 34 be 72 c5 97 3e
       0.030797593 0.29093415 -0.17619616 0.29642826
000090 7b 12 85 3d 8e f9 49 bd 42 23 af 3d 2d 17 c9 3e
       0.064976655 -0.04931026 0.08551647 0.39275494
0000a0 89 73 0a 3e d1 d8 64 be a2 ff 38 3f 0f 8a ba 3e
       0.13520636 -0.22348334 0.72265065 0.36433455
0000b0 8c 0f 9a bd 67 df f4 3d 65 e1 d2 3d b3 71 f2 3d
       -0.075224966 0.11956673 0.10296897 0.11838093
0000c0 6d f2 69 3e f0 70 8b 3e 4b e3 59 bf 42 a5 21 be
       0.22846384 0.27234602 -0.85112447 -0.15785697
0000d0 80 3a b3 3e ce fe 2e 3d 58 87 90 be d8 5a 7f 3e
       0.3500557 0.04272347 -0.2822826 0.24936998
0000e0 b9 8a 21 be 17 3b 5c 3e 51 3d 45 be 19 90 57 3d
       -0.15775575 0.21506916 -0.19261672 0.052627657
0000f0 61 2f d2 be bc 8b d0 3e 35 2c ef be 44 be 06 3d
       -0.41051772 0.4073161 -0.46713415 0.032896295
000100 e9 d7 0e 3f 46 26 29 be 18 70 1c be 6e 5a 93 be
       0.557982 -0.16518506 -0.15277135 -0.2877993
000110 eb b0 e1 3e 06 e7 12 be 41 96 85 3b 6b ba 93 3e
       0.4408029 -0.14345941 0.0040767496 0.28853163
000120 44 60 34 3e 23 f8 53 3c c4 19 a1 3e ed 80 b3 3e
       0.17614847 0.012937578 0.3146497 0.350593
000130 6e dd 83 3d 21 ea a0 3d d0 b2 0c 3e 4e 73 5f 3e
       0.06438719 0.078571565 0.13740087 0.21821329
000140 83 a9 a3 be 64 aa d6 3e 73 59 2d 3c ac 03 73 3e
       -0.31965265 0.41926873 0.010580408 0.2373187
000150 1f d6 ae 3e 73 75 81 be 49 00 50 3e 5d a9 9a be
       0.34147736 -0.2528492 0.20312609 -0.3020734
000160 34 9b 57 bf 36 a5 4d 3e 0b f4 2f 3f c3 8c 99 3e
       -0.84221196 0.20082554 0.68731755 0.29990205
000170 26 73 c3 3e ee f9 dd be 40 df 75 3e a6 45 9b bd
       0.3817379 -0.43354744 0.24010944 -0.07581644
000180 e5 a7 9f bc 3e 17 e1 3c a9 9f 65 be 4f 3b 97 bd
       -0.019489238 0.027476903 -0.22424187 -0.07384359
000190 0a bb 5c 3e 5e f3 2a be 13 1f 12 3e 8f de 2a bd
       0.21555725 -0.166944 0.14269666 -0.041716155
0001a0 cd 5e ad be 8c 7d 0c 3e 39 58 3d bd 1f 47 e1 bc
       -0.3386139 0.13719767 -0.046226714 -0.027499733
0001b0 00 17 e5 3e 17 de 89 bd 09 81 55 3d 06 6f 90 3e
       0.4474411 -0.067318134 0.05212501 0.28209704
0001c0 7e dd c4 bd 02 60 b0 3d 8e af 3b bd 44 cd 34 bf
       -0.09612559 0.08612062 -0.04582172 -0.7062571
0001d0 6e 93 23 3f f2 70 83 3d ae a9 8d be f1 f5 20 3f
       0.63896835 0.06418027 -0.27668518 0.62875277
0001e0 87 57 85 3e ee 64 05 3e 5d 7f 73 be f9 54 1e be
       0.2604334 0.13026783 -0.23779054 -0.15462102
0001f0 33 4a 81 be 84 89 75 bf 55 35 4e 3e 5c 51 82 3d
       -0.25251922 -0.9591296 0.20137532 0.06363174
000200 cc a7 64 3e 90 e1 ac bd b3 22 31 be 44 ff 20 3e
       0.22329634 -0.0844146 -0.17298393 0.15722376
000210 d8 97 cb 3d 78 ef 1f 3e 46 32 49 be b6 17 b9 3e
       0.09941071 0.15618694 -0.19648084 0.36150903
000220 e4 3e 70 3d ae 1f 1b bf 1e c4 48 3e ac 5e 03 3e
       0.058653727 -0.60595214 0.19606063 0.12829083
000230 a2 66 8b 3d 14 a6 3a bd 64 86 2b 3c 31 d2 06 be
       0.06806685 -0.04556854 0.010469053 -0.13166119
000240 79 3e 58 3e be 40 ad be b9 fa b1 be bf 41 28 bf
       0.21117581 -0.33838457 -0.347616 -0.6572532
000250 ba 19 03 bf 6d cf 93 be b4 c1 70 3e bc a6 31 bd
       -0.5121113 -0.2886919 0.23511392 -0.0433719
000260 d2 1a 9b be b9 48 b9 3e bb f8 38 3d 35 99 f3 3d
       -0.302939 0.36188295 0.045159083 0.11894456
000270 bb 99 01 bf 0a fd 90 be c1 e9 75 3f d5 35 99 bd
       -0.506252 -0.28318053 0.96059805 -0.07480971
000280 99 98 0f be 22 fb ab 3d df 48 6b bc f1 bc e8 bd
       -0.14023055 0.08397509 -0.014360636 -0.11364163
000290 82 c4 c9 bc 02 1f 9f bc b0 41 71 3e 3e 71 36 3e
       -0.024629835 -0.019423965 0.23560214 0.17816636
0002a0 fc 71 b1 bd 60 92 10 bd d5 d0 bf 3e 61 c4 1d 3e
       -0.08664319 -0.035295844 0.37464014 0.15406944
0002b0 ec ea a9 3e a0 db 69 be 16 37 ea 3e 3a 34 52 3e
       0.33187044 -0.22837687 0.45745152 0.20527735
0002c0 ac 3a 1c bf 8d 72 f4 3e 1d f9 9b 3e 04 78 e1 be
       -0.61027026 0.47743645 0.30463496 -0.44036877
0002d0 8b 74 24 3f 6a 1c 77 3e 51 43 bb bd a4 6c 24 bf
       0.6424033 0.24131933 -0.09143699 -0.6422827
0002e0 89 d5 55 bf 48 78 13 be 3e 2d 99 be 1f 51 32 3f
       -0.83528954 -0.14401352 -0.2991733 0.6965503
0002f0 db e8 c5 be 1d 68 e4 be 1f 56 98 3e b8 b8 a6 3c
       -0.38654217 -0.44610682 0.29753205 0.020351753
000300 aa 54 d6 3e 86 1e 49 3e d5 be 8f be 7b 93 44 3d
       0.4186147 0.1964055 -0.2807528 0.04799221
000310 83 0f 17 bd bc a2 38 bd cf 4b 42 3d 06 17 1e 3e
       -0.036880028 -0.04507707 0.047435578 0.1543847
000320 65 ab 57 bd a2 90 cb bd fe 3c c4 bd 67 0d 8b 3d
       -0.05265369 -0.09939696 -0.09581946 0.06789666
000330 0e 61 b2 3e 2f bb 44 3d db 65 2b 3d 0d 0b a0 3e
       0.34839672 0.048030075 0.041845184 0.3125843
000340 ee bb e2 be a8 98 2d 3d bd b9 24 3d 52 57 08 bf
       -0.44284004 0.042381912 0.040216196 -0.5325824
000350 1b 4c de 3c ad f9 3a 3e b7 9f 93 3e 29 de 82 3e
       0.0271359 0.18259306 0.2883279 0.2556012
000360 ef 2c cb 3e d4 77 c9 be 57 e9 13 bf 44 38 9b 3e
       0.3968272 -0.39349234 -0.57777923 0.30316365
000370 9e 41 c0 3e 30 66 56 bd a7 65 08 3f 41 04 a9 bd
       0.37550062 -0.052343547 0.5328011 -0.082527645
000380 6d 0c 8f 3e 29 b1 09 3e 93 88 d1 be fa 78 9c bd
       0.27939168 0.13446487 -0.4092451 -0.07640262
000390 7c b8 8b 3e 31 fc 12 bf 94 ae ca be 3d f2 b5 3d
       0.27289188 -0.57416064 -0.39586318 0.08884094
0003a0 63 c9 1e be be 95 e9 bd 4b 79 9a bd ba bf 2e bd
       -0.1550651 -0.11405514 -0.07542666 -0.042663313
0003b0 87 36 57 bd c5 87 d3 bc c7 26 4c be af 9f 6b 3e
       -0.052542236 -0.025821576 -0.19936667 0.23010133
0003c0 52 3c c8 3d 4d 64 07 bf 81 c1 9b 3e a7 cc 46 be
       0.0977713 -0.5288742 0.3042107 -0.19414006
0003d0 c2 4e bb 3e 65 bb f7 3e 8b 25 6a be 43 25 58 3f
       0.36583525 0.48385158 -0.22865884 0.84431857
0003e0 4d b7 97 bd 6e 7e 05 3c 0d 4f 5a 3e 68 4f 36 3e
       -0.07408009 0.008147819 0.21319218 0.17803729
0003f0 d0 49 5a be ff 4e b5 3e dc 35 21 3d cd 13 0d bf
       -0.2131722 0.35411832 0.039358005 -0.5510834

layer1.agg.bias f4 [32]
000000 00 00 00 00 00 00 00 00 00 00 00 00 00 00 00 00
       0.0 0.0 0.0 0.0
000010 00 00 00 00 00 00 00 00 00 00 00 00 00 00 00 00
       0.0 0.0 0.0 0.0
000020 00 00 00 00 00 00 00 00 00 00 00 00 00 00 00 00
       0.0 0.0 0.0 0.0
000030 00 00 00 00 00 00 00 00 00 00 00 00 00 00 00 00
       0.0 0.0 0.0 0.0
000040 00 00 00 00 00 00 00 00 00 00 00 00 00 00 00 00
       0.0 0.0 0.0 0.0
000050 00 00 00 00 00 00 00 00 00 00 00 00 00 00 00 00
       0.0 0.0 0.0 0.0
000060 00 00 00 00 00 00 00 00 00 00 00 00 00 00 00 00
       0.0 0.0 0.0 0.0
000070 00 00 00 00 00 00 00 00 00 00 00 00 00 00 00 00
       0.0 0.0 0.0 0.0

layer1.agg.mlp.0.weight f4 [1, 64]
000000 f8 62 b8 3c e2 34 83 bd c0 8b bd bb e4 32 86 bd
       0.02250813 -0.06406571 -0.0057844818 -0.06552675
000010 cc 30 e1 bd 30 c5 4f bc 78 97 da bc 90 42 fb bd
       -0.109956354 -0.0126812905 -0.026683554 -0.12268555
000020 d0 e5 1b 3d 84 18 3c bd 00 18 54 3a 1e c9 dd bd
       0.038060963 -0.045921817 0.00080907345 -0.10829376
000030 d0 6e 98 3c 58 ca 85 3c 64 82 cc bd f0 c2 3e bd
       0.018607527 0.016331837 -0.099858075 -0.046572626
000040 7c d3 4f 3d d8 51 dc bc d0 26 98 bc 20 a5 c8 bd
       0.050738797 -0.026894495 -0.018573195 -0.0979712
000050 52 00 a4 bd 80 6a 58 3d e2 3d 91 bd f8 a9 28 bd
       -0.080078736 0.05283594 -0.07091881 -0.04117772
000060 80 ca 90 3a b0 43 f0 bc b0 4d 82 3d 12 69 ec bd
       0.0011046678 -0.02932915 0.06362474 -0.11543478
000070 14 2a d0 3d c0 2c b3 bc 74 ae 51 bd 80 46 96 bb
       0.10164276 -0.021871924 -0.051191762 -0.004586041
000080 6e 59 eb bd 2c b7 c7 bd 50 ad 8b 3d 9a 74 cc bd
       -0.11491667 -0.09751734 0.06820166 -0.099831775
000090 20 1e 01 3d 60 8f b3 bd 46 0d 80 bd 84 25 c8 3d
       0.03152287 -0.08767581 -0.06252532 0.097727805
0000a0 22 90 d1 3d 04 41 6c 3d 98 bf 31 bd 50 ef a1 bc
       0.10232569 0.05767919 -0.04339561 -0.019767433
0000b0 ca 76 f1 3d 30 52 3a 3d 46 b0 c5 bd 4a 86 f3 3d
       0.11790235 0.045488536 -0.09652762 0.11890848
0000c0 46 6d aa 3d 3e 8e a8 bd 1e 6c da 3d c6 02 c9 bd
       0.083216235 -0.082302555 0.10665153 -0.09814982
0000d0 e0 04 20 3d b6 f6 ca 3d 9c d2 91 bd e0 7e 94 3d
       0.03906715 0.099103376 -0.07120249 0.07250762
0000e0 b8 63 47 bd 04 96 dc 3d 56 7d f5 3d 26 8a bc 3d
       -0.048679084 0.10770801 0.119867966 0.09206037
0000f0 80 9f fc 3b 38 8e d5 3c 7c 54 21 bd e8 ec 64 bd
       0.0077094436 0.026068792 -0.03938721 -0.055889994

layer2.linear.bias f4 [16]
000000 52 fc f4 3d b8 17 cf be 53 e4 5e 3d 6e ea 01 3e
       0.11962189 -0.40447783 0.054416966 0.12687084
000010 5c 71 ab be 9e f1 36 3e 92 50 7e 3e 32 a4 ca 3e
       -0.33484924 0.17865607 0.24835423 0.39578396
000020 6a 4a 64 be c1 a9 41 3b 0e bb a0 be e2 b1 3b 3e
       -0.22294012 0.0029550644 -0.3139271 0.18329576
000030 f7 41 f1 bd db df 6c 3e 46 dc 12 3d bf d4 46 3e
       -0.1178016 0.23132269 0.0358546 0.19417094
