MMBenchmarkingCode/HTGN-EvoGCN/data/output/log/dblp/HTGN/model_checkpoint.pth (torch, 438706 bytes, 18 tensors)

feat f4 [315, 315]
0	0x3dbe7832	0.09300269
1	0xbdb13e2a	-0.08654435
2	0xbd9a974b	-0.07548388
3	0x3db004f7	0.08594697
4	0x3d16964f	0.03676444
5	0x3c671567	0.014104224
6	0x3d4970a8	0.049179703
7	0xbd8ac9ca	-0.067767695
8	0x3d5f978a	0.05458788
9	0x3dc1ab51	0.09456504
10	0x3a83f945	0.0010068795
11	0xbd423e86	-0.04742291
12	0x3d4da2d8	0.050204128
13	0x3c6203f2	0.013794886
14	0xbcee8c9b	-0.02911978
15	0xbd7149e9	-0.058908377
16	0xbdc67fe4	-0.09692362
17	0x3bd9d8c9	0.0066481573
18	0xbb290769	-0.002579177
19	0xbd144d32	-0.03620643
20	0xbdb5b73c	-0.0887284
21	0x3da9c8c2	0.08290245
22	0xbdc3f9fe	-0.095691666
23	0xbd669109	-0.05629066
24	0xbd3650a1	-0.044510487
25	0xbc1dce75	-0.009631743
26	0x3d3d791a	0.04625807
27	0xbda3cf24	-0.07998493
28	0xbda4a4b6	-0.080392286
29	0x3d12c3ad	0.035831142
30	0x3bc24d3c	0.005929617
31	0x3dba4d97	0.0909683
32	0x3c7eb502	0.015546085
33	0x3d9b97e3	0.075973295
34	0x3d167246	0.036730073
35	0x3d1312ec	0.035906717
36	0xbd2f6ec0	-0.04283023
37	0xbdb37f0b	-0.08764466
38	0x3db16253	0.08661332
39	0x3d139b70	0.03603691
40	0x3d9d7f50	0.076902986
41	0xbd01b09c	-0.03166257
42	0x3a1d44f4	0.00059993495
43	0x3d7b076f	0.061286386
44	0xbd21984b	-0.03945188
45	0xbdc27b5e	-0.09496187
46	0x3dabd7ee	0.08390795
47	0x3c888353	0.016664183
48	0x3c2e9dc9	0.010657736
49	0x3cbb919a	0.022896577
50	0xbdabd6e9	-0.083906
51	0xbd5627d5	-0.05228408
52	0xbd5dcda9	-0.05415121
53	0x3d8afd03	0.067865394
54	0xbd8930f9	-0.06698794
55	0x3db01b68	0.08598977
56	0x38def1c2	0.00010630816
57	0x3d844000	0.064575195
58	0x3cb47909	0.02203037
59	0x3cf24db2	0.029578064
60	0xbc0539b5	-0.008131434
61	0xbd8a5b82	-0.06755735
62	0xbc32e56e	-0.010918958
63	0xbc4f2d0c	-0.012645017
64	0x3d870524	0.06592777
65	0xbbf9a9a6	-0.0076191006
66	0x3cb1f794	0.0217245
67	0x3dc2bc50	0.09508574
68	0x3d5d64b1	0.054051105
69	0xbdc4260c	-0.09577569
70	0xbd763d37	-0.060116973
71	0xbc321e0d	-0.0108714225
72	0xbda3c259	-0.07996053
73	0x3d5f9a39	0.054590438
74	0xbd6b1cde	-0.057400577
75	0xbd56aa11	-0.05240828
76	0xbd6b7d91	-0.057492796
77	0xbd590a59	-0.052988384
78	0xb9172ddb	-0.00014417565
79	0x3d3811ef	0.044938978
80	0xbdb6b6cc	-0.089215845
81	0xbd94eae7	-0.072713666
82	0x3d738906	0.059456848
83	0xbd520d6c	-0.05128233
84	0x3d8c8e84	0.0686312
85	0x3d238d27	0.039929535
86	0x3d559ffa	0.05215452
87	0x3d0de15b	0.034638744
88	0xb9bf7d6a	-0.000365238
89	0xbc79d577	-0.015248648
90	0x3c52bb2c	0.012862008
91	0xbd0c29f8	-0.034219712
92	0x3d8e2ef9	0.06942553
93	0x3d9210ff	0.07132148
94	0xbd881d03	-0.066461585
95	0x3da09579	0.0784101
96	0xbcbb2315	-0.022843877
97	0xbcac8e1e	-0.02106386
98	0x3d0363d0	0.03207761
99	0x3d906c2e	0.07051884
100	0xbd2d26c6	-0.042273305
101	0xbc769225	-0.015049492
102	0x3d7bb547	0.061452176
103	0xbcf1b9cd	-0.029507542
104	0x3ca0ceb6	0.019629817
105	0xbd0baaa9	-0.0340983
106	0x3cff2e37	0.031149967
107	0x3d9ecddd	0.07754109
108	0xbd5bef40	-0.053694963
109	0xbd723075	-0.059128243
110	0x3db30f28	0.08743125
111	0xbd320f28	-0.043471485
112	0xbd96f7f6	-0.073715135
113	0xbc2a715f	-0.010403006
114	0x3dc64734	0.0968155
115	0xbdbcf9ba	-0.09227319
116	0xbd7c5c67	-0.06161156
117	0xbd932fac	-0.07186827
118	0x3c9def4c	0.019279145
119	0x3b71a96e	0.003687467
120	0xbc0d064d	-0.008607459
121	0x3cc11f45	0.02357448
122	0x3d87a1e7	0.06622677
123	0xbdb7092c	-0.08937296
124	0xbd286985	-0.041116256
125	0x3cbb930a	0.022897262
126	0x3c1fa92f	0.009744926
127	0x3db9e5f8	0.09077066
128	0x3d0214cf	0.031758126
129	0xbc517032	-0.012783097
130	0x3d8b5fd5	0.06805388
131	0x3d13ac1d	0.036052812
132	0x3cf7f1dc	0.030266695
133	0xbd93ee78	-0.07223219
134	0x3da28bfc	0.07936856
135	0x3d3e2b8e	0.046428256
136	0xbc82a9ce	-0.01595011
137	0xbcfaf4e4	-0.030634351
138	0xbd791eb4	-0.060820296
139	0xbdb28f50	-0.08718741
140	0xbc60235d	-0.013680306
141	0x3dbcf2fb	0.09226032
142	0x3d5a6473	0.053318452
143	0xbce11cc7	-0.027479542
144	0x3c87af04	0.016562946
145	0xbdb43c59	-0.08800573
146	0x3db137c4	0.086532146
147	0xbb27977f	-0.0025572476
148	0xbc7daaee	-0.015482647
149	0x3d95ce1e	0.07314704
150	0x3cb32860	0.021869838
151	0xbce2628f	-0.027634887
152	0x3dadb258	0.08481282
153	0xbd7ef723	-0.062247407
154	0x3d5ee59c	0.05441819
155	0x3da53c9f	0.08068203
156	0xbd6bd215	-0.057573397
157	0x3daa1e1c	0.08306524
158	0xbc2868c7	-0.010278887
159	0x3a8be2d9	0.0010672464
160	0xbd302689	-0.0430055
161	0xbc4bd93b	-0.0124419285
162	0x3d8a5436	0.06754343
163	0x3d0b5907	0.03402045
164	0xbd025a22	-0.03182424
165	0x3d5e7b2a	0.054316677
166	0x3c1e3306	0.00965572
167	0x3d406969	0.046975527
168	0x3d0be10e	0.034150176
169	0x3dc16de7	0.0944479
170	0xbd584cff	-0.052807804
171	0x3d8bd59b	0.068278514
172	0xbd8f8288	-0.07007319
173	0x3d8a4cf9	0.067529626
174	0xbd86a27b	-0.065739594
175	0x3cb85d9a	0.02250557
176	0xbdbc857f	-0.0920515
177	0x3db7ef26	0.08981161
178	0xbd9ba92d	-0.07600627
179	0x3db5277c	0.08845422
180	0x3bd44cf3	0.0064788996
181	0xbcbcd087	-0.023048652
182	0x3db072e0	0.08615661
183	0xbbf75a0f	-0.0075485776
184	0x3c89253a	0.016741384
185	0xbdc00d70	-0.09377563
186	0xbd7c68a0	-0.061623216
187	0x3db84ed3	0.089994095
188	0x3d434772	0.047675557
189	0x3ceeda69	0.02915688
190	0xbd120b4b	-0.0356553
191	0x3d9736a5	0.073834695
192	0x38f3a869	0.00011618512
193	0x3c0fd439	0.008778625
194	0xbdc1009d	-0.09423945
195	0xbdb881a5	-0.09009103
196	0x3da0f595	0.07859341
197	0xbd4e4bf1	-0.050365392
198	0xbbfa0d62	-0.00763099
199	0xbc0925aa	-0.008370796
200	0xbd5fb3e1	-0.054614905
201	0xba509b98	-0.00079577556
202	0x3c683807	0.014173514
203	0xbd181f1f	-0.037139054
204	0xbc5de3f9	-0.013543122
205	0x3c140baa	0.009035984
206	0xbca38054	-0.019958653
207	0xbc2e7650	-0.010648325
208	0xbcc6e07d	-0.024276966
209	0xbd748031	-0.059692565
210	0xbce8503a	-0.028358568
211	0xbbaa8feb	-0.0052051446
212	0xbdacd954	-0.084398896
213	0xbb845e47	-0.004039559
214	0xbd4e829e	-0.050417535
215	0xbd043b57	-0.032283153
216	0x3cf82324	0.030290194
217	0xbbd006ac	-0.0063484516
218	0x3d94521b	0.07242223
219	0x3da34b13	0.07973304
220	0xbd08dd3a	-0.033414103
221	0xbc823a81	-0.015897037
222	0x3d9508dd	0.07277081
223	0xbd3f51ca	-0.04670886
224	0xbd833aed	-0.064077236
225	0x3d7d443a	0.061832644
226	0xbd6fa4bd	-0.058506716
227	0x3dc0bc16	0.094108745
228	0x3d3793a0	0.04481852
229	0x3d6c3fbc	0.05767797
230	0xbdaf83c5	-0.08570055
231	0xbcab714d	-0.02092805
232	0x3d1ea046	0.038727067
233	0x3ad01c56	0.0015877585
234	0xbdaccc59	-0.08437414
235	0x3db02449	0.08600671
236	0xbcee4f0d	-0.029090429
237	0xbc954d1a	-0.018225241
238	0xbdbd65be	-0.092479214
239	0xbd6544ca	-0.055973805
240	0x3da96292	0.08270754
241	0x3dc27c75	0.094963945
242	0xbd582eac	-0.052778885
243	0x3bfef145	0.0077802264
244	0x3cd99828	0.026561812
245	0xbd7dcb32	-0.06196136
246	0x3d8cfa8e	0.06883727
247	0xbc80dd0f	-0.015730409
248	0xbd688b74	-0.056773618
249	0xbdb29a91	-0.087208875
250	0x3c207c45	0.009795253
251	0xbd6d81c2	-0.057985075
252	0x3d83b324	0.06430653
253	0x3c85db00	0.016339779
254	0x3dbe20c4	0.09283593
255	0xbdc787e7	-0.09742718

Q f4 [16, 16]
0	0xbd0d48fe	-0.03449344
1	0xbd966024	-0.07342556
2	0x3f159f3f	0.58446115
3	0x3f941f44	1.1572042
4	0x3f4fd305	0.81181365
5	0xbf93941f	-1.1529578
6	0xbe7f7c2c	-0.24949712
7	0x3cf8b4bd	0.03035962
8	0xbfa5f013	-1.296389
9	0x3f5f9558	0.87337255
10	0x3f4634fa	0.77424586
11	0x3ebde431	0.3708816
12	0xbe7d93ba	-0.24763384
13	0xbc812db2	-0.01576886
14	0x3f6cc908	0.9249425
15	0xbee5fe7e	-0.44920725
16	0x3ec5e4db	0.38651165
17	0x3ee0f9a1	0.43940452
18	0x3ea6994a	0.32538825
19	0xbe74b1d0	-0.23895955
20	0x3f994db0	1.1976833
21	0xbf621c6f	-0.88324636
22	0x3ee5a699	0.44853666
23	0xbff063fd	-1.8780514
24	0xbf55925d	-0.8342646
25	0x3fb67d10	1.4256916
26	0x3e391b3a	0.18076792
27	0xbde4e060	-0.11175609
28	0x3f7cfffc	0.988281
29	0x3edcf59a	0.4315613
30	0x3f26ee1f	0.65207094
31	0xbed68438	-0.4189775
32	0xbfa86e3d	-1.3158642
33	0xbf067eb5	-0.5253709
34	0xbf374306	-0.71586645
35	0x3f4b71be	0.7947043
36	0xbf97ee63	-1.1869625
37	0x3f22d629	0.6360803
38	0xbfbf3caa	-1.4940388
39	0x3f916538	1.1359015
40	0x3fb3aa06	1.4036262
41	0xbfc85bcc	-1.5653014
42	0x3f58932d	0.8459957
43	0x3f1d15d7	0.6136145
44	0xbe9b829a	-0.3037308
45	0xbf84bd33	-1.0370239
46	0xbf10cac4	-0.56559396
47	0x3ebb8b03	0.36629495
48	0x3f53b32b	0.82695264
49	0xbe021cf6	-0.1270636
50	0x3e02dffd	0.12780757
51	0x3f08efcc	0.534909
52	0x40185931	2.3804438
53	0x3e962ffa	0.29333478
54	0xbdfa19e1	-0.12211967
55	0xbf447bae	-0.7675122
56	0x3d30d2e4	0.04316987
57	0xbec5198d	-0.38496056
58	0x3df69b3f	0.120413296
59	0x3e8eebba	0.2791422
60	0x3ed73302	0.42031103
61	0x3dc32ce2	0.09530045
62	0x3ecd88c0	0.40143394
63	0xbdba5a58	-0.09099263
64	0x3de0b750	0.10972464
65	0xbe2dfe79	-0.16991605
66	0xbdc70a92	-0.09718813
67	0xbf772271	-0.9653693
68	0x3f36156c	0.7112644
69	0x3f40ee06	0.75363195
70	0x3f276657	0.65390533
71	0x3e5744ba	0.21022311
72	0x3f5da38c	0.8657768
73	0xbf577ab2	-0.84171593
74	0xbfbd2386	-1.4776466
75	0x3daf2262	0.0855148
76	0x3d3300ce	0.04370194
77	0xbec8e509	-0.3923724
78	0xbf33cfaf	-0.70238775
79	0xbc3c3885	-0.011488085
80	0xbdf3082f	-0.11866795
81	0x3f36c362	0.7139188
82	0x3d221a7a	0.03957603
83	0xbf10123d	-0.5627783
84	0xbff4d29f	-1.9126776
85	0xbf20bb96	-0.62786233
86	0xbeef3226	-0.46717948
87	0x3e748f86	0.23882875
88	0x3dab9bb3	0.08379307
89	0xbe800b0b	-0.25008425
90	0xbe15287a	-0.14566222
91	0xbf87aaab	-1.0598959
92	0x3f89e329	1.0772449
93	0xbdb6b96a	-0.08922084
94	0x3f1e0dc4	0.61739755
95	0x3e4fc792	0.20290974
96	0xbd86d586	-0.06583695
97	0xbf83127a	-1.0240014
98	0x3db90d2c	0.090357155
99	0xbf3e36b6	-0.7430223
100	0x3f33a4a1	0.7017308
101	0x3f6c8907	0.9239659
102	0x3ed6ee14	0.41978514
103	0x3dab689d	0.08369563
104	0x4011bfd1	2.2773325
105	0xc0286c66	-2.631616
106	0xbf83afc4	-1.0288014
107	0x3e5b460e	0.21413442
108	0x3db7e911	0.08980001
109	0xbec425ec	-0.38310182
110	0xbf8b10d2	-1.0864508
111	0x3d4e17bd	0.050315607
112	0x3dcb1df3	0.09917822
113	0x3d5fe0cf	0.054657754
114	0xbeb6e46f	-0.35721156
115	0x400c04d7	2.1877954
116	0x3f7186e1	0.94346434
117	0x3f0956ed	0.53648263
118	0x3e1b87ad	0.15188475
119	0xbfd9c125	-1.7012068
120	0x3f5e81fa	0.8691708
121	0xbe695f4f	-0.22790264
122	0x3fd724c7	1.6808099
123	0x3e83411d	0.25635615
124	0x3f6ad3c0	0.91729355
125	0x3ebcbe6d	0.36864033
126	0xbee3e853	-0.44513187
127	0x3ed52cb6	0.41635674
128	0xbecdb6aa	-0.40178424
129	0xbe75c15c	-0.23999542
130	0x399dfc49	0.0003013334
131	0x3e15df6e	0.14636013
132	0xbfc9e3aa	-1.5772603
133	0x3e3fb699	0.18721999
134	0xbeccd35e	-0.4000501
135	0xbb443f50	-0.0029944964
136	0x3e2eb23b	0.17060177
137	0x3e9a8793	0.3018156
138	0x3e24bf07	0.16088496
139	0x3f02a824	0.5103781
140	0xbf78cc90	-0.9718714
141	0xbdd25376	-0.10269825
142	0xbf2431c4	-0.64138436
143	0x3e8a0739	0.26958635
144	0x3e89b5e7	0.26896593
145	0xbdb47083	-0.088105224
146	0xbe593412	-0.2121127
147	0x3f04ba55	0.5184682
148	0x3feeef38	1.8666754
149	0x3f8f80c6	1.1211174
150	0xbea04845	-0.31305137
151	0xbfb96284	-1.448319
152	0x3fd3d3ce	1.6549013
153	0xbfac67b2	-1.3469145
154	0x3ecda72c	0.40166605
155	0x3f3a5d0a	0.72798216
156	0x3f124a8f	0.5714502
157	0xbeae57cf	-0.34051368
158	0xbe7854eb	-0.24251144
159	0x3ec2535b	0.3795422
160	0xbdefeb9b	-0.1171486
161	0x3ed744c2	0.42044646
162	0xbe39dc4b	-0.18150441
163	0xbef5a91d	-0.47980586
164	0xbf2a2a10	-0.6647043
165	0x3f09b053	0.53784674
166	0x3ea6fb2d	0.32613507
167	0xbf8e4e41	-1.1117631
168	0x3ef9ecb5	0.48813406
169	0x3f54ab9d	0.8307436
170	0xbeb7e4f3	-0.35916862
171	0x3d9347ed	0.07191453
172	0xbe395f51	-0.18102767
173	0x3f1f60d9	0.6225715
174	0xbee6e5a7	-0.45097086
175	0xbcd767dc	-0.026294641
176	0x3ec55e57	0.38548538
177	0xbedbf809	-0.42962673
178	0xbd91d040	-0.07119799
179	0x3fb8020a	1.4375622
180	0x4004f949	2.0777152
181	0x3d8c89f8	0.06862253
182	0xbfa0c8f9	-1.2561332
183	0xbd9c597d	-0.07634256
184	0x3ebc04ea	0.367225
185	0xbf9531e3	-1.1655849
186	0x3fe2198c	1.7664046
187	0x3ebf4e0f	0.3736424
188	0xbb93992d	-0.004504344
189	0xbec41f1b	-0.38304982
190	0x3e9d7059	0.30749777
191	0x3e5d2ddc	0.21599525
192	0x3c654194	0.013992686
193	0xbe9bad5e	-0.30405706
194	0x3d3689c8	0.044564992
195	0xbf220a61	-0.63297087
196	0xbeb7b1d6	-0.35877866
197	0x3f5be637	0.85898155
198	0x3f11ca8e	0.569497
199	0x3fd118b0	1.6335659
200	0x3f74e0a3	0.9565527
201	0xbff813e3	-1.9381069
202	0xbf7fd521	-0.99934584
203	0x3f73d995	0.9525388
204	0xbfcc8475	-1.5977923
205	0xbec41423	-0.38296613
206	0xbf0537e3	-0.520384
207	0x3e55d1ac	0.20880765
208	0xbeccd953	-0.40009555
209	0xbd7abaf5	-0.061213452
210	0xbf21e5f6	-0.6324152
211	0x3fe8531c	1.8150363
212	0x3fd8d2f5	1.6939379
213	0xbcb24753	-0.021762526
214	0xbfb88316	-1.4415004
215	0x3dc3462f	0.09534871
216	0xbeab3fb3	-0.33447036
217	0x3e3d6418	0.18495214
218	0x3ffec30c	1.9903274
219	0xbe2fc04a	-0.17163196
220	0xbf533f4e	-0.8251847
221	0xbede99bf	-0.43476674
222	0x3eb715bd	0.35758772
223	0xbd07f29f	-0.033190366
224	0x3eced550	0.4039712
225	0xbcf6e159	-0.030136751
226	0xbd9e983e	-0.07743882
227	0xbf071404	-0.52764916
228	0x400985e8	2.148798
229	0x3e6f04bf	0.23341654
230	0xbe7bf616	-0.24605593
231	0x3c7d3ae8	0.015455939
232	0x3e84ac5e	0.25912756
233	0xbf39a130	-0.7251158
234	0xbe859256	-0.26088208
235	0xbddad5e8	-0.10685331
236	0xbe76ba26	-0.24094447
237	0xbd0d7831	-0.03453845
238	0xbee36120	-0.44410038
239	0x3ddbff3c	0.107420415
240	0xbd8d17e0	-0.068893194
241	0x3ea58413	0.32327327
242	0xbe0d6be2	-0.13810685
243	0x3ebb746d	0.36612263
244	0x3f9f775c	1.24583
245	0x3e7cf4c7	0.2470275
246	0xbf8af4f5	-1.0856005
247	0xbfd751fd	-1.6821896
248	0xbddf59e5	-0.10905818
249	0x3f27d677	0.6556162
250	0x3f41b5c2	0.75667965
251	0xbed20386	-0.41018313
252	0xbe77af0c	-0.24187869
253	0x3d9fec64	0.0780876
254	0xbe85f736	-0.2616517
255	0xbeb8fc2a	-0.36129886

r f4 [16, 1]
0	0xbe2b54d5	-0.1673158
1	0xbe88ac44	-0.26693928
2	0xbd1abec6	-0.037779592
3	0x3f8f0b33	1.1175293
4	0xc00fa2b5	-2.2443058
5	0x3f7090de	0.9397105
6	0xbf095f98	-0.5366149
7	0x3fc86bb7	1.5657872
8	0x3f93ed4a	1.155679
9	0xbfe9bf59	-1.826152
10	0x3f8c9b9a	1.0984986
11	0x3f0c9787	0.5491871
12	0xbf36c50e	-0.7139443
13	0xbee9514d	-0.4556984
14	0xbf1d91bc	-0.615505
15	0xbdabfb83	-0.083975814

c f4 [3, 1]
0	0x3f800000	1.0
1	0x3f800000	1.0
2	0x3f800000	1.0

gru.weight_ih f4 [48, 16]
0	0x3efa6064	0.48901665
1	0x3ee98136	0.45606393
2	0x3f210b86	0.6290821
3	0x3f044bc4	0.5167811
4	0x3f3e91be	0.74441135
5	0x3f4fa634	0.8111298
6	0x3e2af641	0.16695501
7	0x3db784c2	0.089608684
8	0x3f14cb1b	0.58122414
9	0x3f5e0808	0.86731005
10	0x3ee6f61c	0.45109642
11	0x3f41fd77	0.7577738
12	0x3f18fae2	0.59757817
13	0x3f8c49c0	1.0960007
14	0x3eb0b110	0.34510088
15	0x3ef633ed	0.4808649
16	0x3f00384d	0.5008591
17	0x3f19d9f1	0.6009818
18	0x3effa97a	0.49933988
19	0x3e7dfba5	0.24803026
20	0x3ed52c88	0.41635537
21	0x3f06f91c	0.5272386
22	0x3f0a0909	0.53920037
23	0x3f182241	0.5942727
24	0x3ec21c95	0.3791243
25	0x3eec1d5a	0.46116143
26	0x3e8eefb4	0.27917254
27	0x3ed3086a	0.41217357
28	0x3f0e9db3	0.5570938
29	0x3f464584	0.7744982
30	0x3f5862e7	0.84525913
31	0x3f8bb2ef	1.0913981
32	0x3f1eceba	0.6203419
33	0x3e87ffe1	0.26562408
34	0x3f7e6e91	0.9938746
35	0x3ef4c5e7	0.47807238
36	0x3f169e7d	0.58835584
37	0x3ffd428a	1.9785931
38	0x3f08beeb	0.5341632
39	0x3eab015f	0.33399484
40	0x3e92ff9c	0.2871064
41	0x3e85b3cc	0.26113737
42	0x3ea7c15c	0.3276471
43	0x3eba8291	0.3642774
44	0x3ed752c5	0.42055336
45	0x3f875182	1.0571749
46	0x3f342950	0.7037554
47	0x3f4c31d6	0.79763544
48	0x3f2bce06	0.6711124
49	0x3f36d318	0.71415854
50	0x3f1cd977	0.61269325
51	0x3f01f977	0.5077128
52	0x3f5dccd5	0.86640674
53	0x3fc02709	1.5011913
54	0x3e4dc01f	0.2009282
55	0x3f079e40	0.52975845
56	0x3e97325c	0.2953061
57	0x3f4928a7	0.78577656
58	0x3eb850a2	0.35999018
59	0x3f2ed9e4	0.68301225
60	0x3f27bea0	0.65525246
61	0x3f8a7ab9	1.0818702
62	0x3f34d3ac	0.70635486
63	0x3f6596ba	0.89683115
64	0x3ea59e03	0.32347116
65	0x3ec1da6f	0.37861964
66	0x3eadf8f8	0.3397901
67	0x3f25a662	0.64707005
68	0x3e7fb8a4	0.24972779
69	0x3f33a7a3	0.7017767
70	0x3e9a920e	0.30189556
71	0x3f1549ac	0.5831554
72	0x3e8e153d	0.2775058
73	0x3f43b97a	0.7645489
74	0x3e9bc139	0.30420855
75	0x3e89c760	0.26909924
76	0x3f1ac789	0.60460716
77	0x3f1aadfa	0.6042172
78	0x3f3f8d7e	0.74825275
79	0x3f74f62a	0.95688117
80	0x3eb432dd	0.35195056
81	0x3f1faf1b	0.62376565
82	0x3faa688c	1.3313155
83	0x3f4a586a	0.7904116
84	0x3ecdf2bc	0.40224254
85	0x3f9eaf8f	1.2397326
86	0x3f3eae3f	0.7448463
87	0x3f123bfe	0.5712279
88	0x3ea4b5ea	0.3217004
89	0x3e92ea54	0.28694403
90	0x3ec75d96	0.38938588
91	0x3ea01f45	0.31273857
92	0x3f1e5c53	0.61859626
93	0x3f537310	0.82597446
94	0x3ef3dc33	0.47628936
95	0x3f2a4247	0.6650738
96	0x3f19767e	0.5994643
97	0x3eeab20c	0.45838964
98	0x3f18f3a1	0.5974675
99	0x3efd7743	0.49505052
100	0x3f08b7fb	0.5340573
101	0x3f2585f3	0.64657515
102	0x3f111f47	0.5668835
103	0x3f22b798	0.6356139
104	0x3f4298bf	0.7601432
105	0x3eef84bc	0.46780956
106	0x3ee9915e	0.4561872
107	0x3f115ac5	0.5677913
108	0x3f13421e	0.5752276
109	0x3f8ae216	1.0850246
110	0x3f4f6c06	0.81024206
111	0x3f675e26	0.90378034
112	0x3e3c0dd0	0.18364644
113	0x3eb8b85f	0.36078164
114	0x3f7b083c	0.9805944
115	0x3f0f1099	0.558847
116	0x3edc84a7	0.43069956
117	0x3fadf03d	1.358894
118	0x3f27d4a4	0.6555884
119	0x3edff260	0.43739605
120	0x3f352b24	0.7076895
121	0x3f422ae7	0.75846714
122	0x3e9c7e07	0.305649
123	0x3f17a4d9	0.5923591
124	0x3e90925c	0.28236663
125	0x3f90b1d4	1.1304269
126	0x3f0580d6	0.52149713
127	0x3f216ad1	0.63053614
128	0x3ecccfb2	0.4000221
129	0x3f06d1db	0.52663964
130	0x3f415156	0.75514734
131	0x3f0d3e34	0.5517304
132	0x3ebde9c6	0.37092417
133	0x3fadc9b9	1.3577186
134	0x3ee3e19c	0.44508064
135	0x3e02e058	0.12780893
136	0x3eb947d2	0.36187607
137	0x3eb8087e	0.3594398
138	0x3eae8860	0.3408842
139	0x3ec8971d	0.3917779
140	0x3e5787bd	0.21047874
141	0x3f8db27b	1.1070093
142	0x3efb8d5f	0.49131295
143	0x3f145870	0.57947445
144	0x3f5b2aee	0.8561238
145	0x3f20c5e9	0.62801987
146	0x3f3e5781	0.7435227
147	0x3efedd24	0.49778092
148	0x3f3f3a78	0.7469859
149	0x3f6cb467	0.9246277
150	0x3f1db645	0.61606246
151	0x3f407e9e	0.751932
152	0x3ecafddf	0.39646813
153	0x3f025c2d	0.509219
154	0x3e590213	0.21192198
155	0x3f0d2750	0.5513811
156	0x3f468c45	0.77557784
157	0x3f67dbf0	0.90569973
158	0x3f67650e	0.9038857
159	0x3f779f3c	0.9672735
160	0x3f2a7094	0.6657803
161	0x3f86cb5d	1.0530812
162	0x3f0a23c3	0.5396082
163	0x3ec23174	0.37928355
164	0x3f2df3ba	0.6795002
165	0x3f1324ba	0.57477915
166	0x3f74c1f0	0.95608425
167	0x3f47d508	0.78059435
168	0x3ef2bb94	0.47408736
169	0x3f5847fc	0.8448484
170	0x3f00ff2c	0.5038936
171	0x3f380477	0.7188181
172	0x3f6bfabc	0.92179465
173	0x3f6d0dd6	0.92599237
174	0x3f32ab01	0.6979218
175	0x3f1b0182	0.60549176
176	0x3ef6375a	0.48089105
177	0x3e70a5d8	0.23500764
178	0x3f91349e	1.1344182
179	0x3f16bd7b	0.58882874
180	0x3f648264	0.8926146
181	0x3f8354cf	1.0260257
182	0x3eeaef90	0.45885897
183	0x3ec7ac32	0.38998562
184	0x3f5210b4	0.82056737
185	0x3f628c1e	0.8849505
186	0x3ea0eadf	0.31429192
187	0x3ed686db	0.41899762
188	0x3eb69974	0.3566395
189	0x3efee956	0.49787396
190	0x3f075ff9	0.5288082
191	0x3f1b53c6	0.60674703
192	0x3e5fc63b	0.21852963
193	0x3e854d27	0.26035425
194	0xbde5cc19	-0.11220569
195	0x3d693f6f	0.05694526
196	0x3eaf1ce2	0.34201723
197	0x3fbef136	1.4917362
198	0x3f0425a0	0.5161991
199	0x3efba787	0.4915125
200	0x3d5df38d	0.054187346
201	0x3da55b55	0.08074061
202	0x3eac2d92	0.33628517
203	0x3ea44c2a	0.3208936
204	0x3f191a65	0.598059
205	0x3f9e40e9	1.2363559
206	0x3e7e172b	0.24813525
207	0x3f45ae64	0.77219224
208	0x3ec15f3d	0.37767974
209	0x3ea90be0	0.33016872
210	0x3f367b77	0.7128214
211	0x3e7a1698	0.24422681
212	0x3f23ee60	0.64035606
213	0x3fe413fb	1.7818598
214	0x3e79bc96	0.24388346
215	0x3e835dff	0.2565765
216	0x3eeb7d33	0.45993957
217	0x3edf25f1	0.43583634
218	0x3dd4f49d	0.10398219
219	0x3f0f5bf6	0.55999696
220	0x3f311e51	0.69186884
221	0x3f18d5db	0.5970132
222	0x3f29b17a	0.6628643
223	0x3eb0de22	0.34544474
224	0x3e13c4b3	0.14430504
225	0x3f23c888	0.6397786
226	0x3f5ae616	0.85507333
227	0x3f2ad626	0.66733015
228	0x3f75fbe2	0.9608747
229	0x3fb07d00	1.3788147
230	0x3f3a7e2a	0.7284876
231	0x3f41e30f	0.7573709
232	0x3f4f7e2e	0.8105191
233	0x3f10675b	0.5640771
234	0x3f0d23d4	0.55132794
235	0x3ee2fc14	0.44332945
236	0x3f6e2fdf	0.93041795
237	0x3f0d631d	0.5522936
238	0x3f117d4e	0.56831825
239	0x3f567f77	0.83788246
240	0x3f1849fe	0.59487903
241	0x3e95efe9	0.292846
242	0x3f7a53cd	0.9778412
243	0x3eecb064	0.46228325
244	0x3f015465	0.505194
245	0x3f817a04	1.0115361
246	0x3f1d4b8e	0.6144341
247	0x3f11441b	0.56744546
248	0x3ee9478d	0.455624
249	0x3ed68319	0.41896895
250	0x3f0f9a4c	0.56094813
251	0x3f1ec6f2	0.62022316
252	0x3e33eab7	0.17570005
253	0x3f54ee21	0.83175856
254	0x3f2ee9b5	0.6832536
255	0x3ee773df	0.4520559

gru.weight_hh f4 [48, 16]
0	0xbeb02bbb	-0.34408364
1	0xbbb72b80	-0.0055899024
2	0x39366175	0.00017393178
3	0xbc9e2739	-0.019305812
4	0xbd0efb05	-0.03490736
5	0xbc37f176	-0.011227002
6	0x3d06bc16	0.032894216
7	0x3d4fe46d	0.050754953
8	0xbcdf0ead	-0.027228678
9	0x3b72656f	0.0036986729
10	0x3cdd95f5	0.027049044
11	0x3b6b7900	0.0035930276
12	0x3c82dd5f	0.015974699
13	0xbdae1ca2	-0.08501555
14	0xbb30b3a0	-0.0026962534
15	0xbb92cfcb	-0.0044803373
16	0xbbe6e34d	-0.0070461393
17	0xbde1a85f	-0.11018442
18	0x3ccabcda	0.024748255
19	0xbc61ae27	-0.013774431
20	0x3b0ec13d	0.002178266
21	0x3c4ebd4c	0.012618374
22	0x3b9dc4e5	0.0048147314
23	0x3c587ded	0.013213617
24	0xbc44fa61	-0.012022586
25	0xbc4578e5	-0.012052749
26	0x3b5a108b	0.003327402
27	0xbc7c4405	-0.0153970765
28	0xbc87c0ed	-0.016571486
29	0xbbb7ffe3	-0.005615221
30	0xbbfa248d	-0.0076337517
31	0x3b030e3e	0.0019997503
32	0x3da4f261	0.080540426
33	0xbd5c5a8e	-0.053797297
34	0x3f61a8bd	0.881481
35	0xbe3aafb5	-0.1823109
36	0x3cbbd786	0.022929918
37	0x3d1e4a67	0.038645174
38	0xbe6907ae	-0.22756836
39	0x3e097847	0.13424788
40	0xbeb3e825	-0.3513805
41	0xbe4af8e0	-0.19821501
42	0x3cff6482	0.031175856
43	0x3ea3adcf	0.31968543
44	0xbd847bbc	-0.06468913
45	0xbdd930ae	-0.10604988
46	0x3c6da328	0.0145042315
47	0xbcc5a5cb	-0.024126908
48	0xbce7671e	-0.028247412
49	0xba00c195	-0.00049116585
50	0x3d0265e7	0.031835463
51	0xbf0387f3	-0.5137932
52	0x3be4b847	0.0069799754
53	0x3d7a9057	0.06117281
54	0x3cd9f8bb	0.026607862
55	0x3cccf097	0.025017066
56	0xbc951ae7	-0.018201305
57	0xbc2a961a	-0.010411764
58	0x3cba3322	0.02272946
59	0x3d0790b6	0.03309699
60	0xbb050409	-0.0020296595
61	0xbc789bbd	-0.01517385
62	0x3c1f096b	0.009706835
63	0xbd78956c	-0.060689375
64	0xbe8a47d6	-0.2700793
65	0xbe014fab	-0.12628047
66	0xbdb65a53	-0.08903947
67	0xbdf17997	-0.117907695
68	0xbfa36010	-1.2763691
69	0xbe2fbed9	-0.17162646
70	0x3e08d7a6	0.13363513
71	0x3eac8515	0.33695284
72	0x3bc6bba7	0.0060648504
73	0xbdbe44dd	-0.092904784
74	0xbe8a882c	-0.27057016
75	0x3e324d46	0.1741229
76	0x3e3b2cce	0.1827881
77	0xbd0fa3d7	-0.03506836
78	0x3dfe097e	0.12404154
79	0x3da93480	0.08261967
80	0x3d1fb5c4	0.038991705
81	0xbd918e66	-0.071072385
82	0xbd81a67c	-0.063305825
83	0x3cc0e8d2	0.023548517
84	0x3e117cba	0.14207736
85	0xbf2f86ac	-0.6856487
86	0x3c7b0656	0.015321335
87	0x3d08edb2	0.03342981
88	0xbd246d7a	-0.040143467
89	0xbe6051d4	-0.21906215
90	0x3d377b45	0.044795293
91	0xbd41f3ee	-0.04735177
92	0x3e0b5568	0.13606799
93	0x3da33c64	0.07970503
94	0xbbd0f9c5	-0.006377431
95	0x3db1fe30	0.086910605
96	0x3cbabad7	0.02279417
97	0xbb971da1	-0.0046116863
98	0x3c6e0c4f	0.014529302
99	0xbc8f64fc	-0.017504208
100	0xbc54368c	-0.012952458
101	0xbab9b560	-0.0014168434
102	0xbd9d1926	-0.07670812
103	0x3cbe3609	0.023219125
104	0xbb6fa5e4	-0.0036567384
105	0xbbc0e585	-0.005886736
106	0xbc6cf878	-0.014463536
107	0xbc57eed3	-0.013179499
108	0xbc256b4e	-0.010096384
109	0x3befd54c	0.007319128
110	0xbbf03ef6	-0.0073317243
111	0x3c1ed09c	0.009693291
112	0x3cb72f74	0.022361495
113	0xbcd0351b	-0.025415948
114	0x3beb096f	0.0071727554
115	0x3bbb4ea4	0.005716162
116	0x3dc1287b	0.09431549
117	0x3d9c84cd	0.07642517
118	0xbdca0db9	-0.09865899
119	0xbf36bc75	-0.7138131
120	0xbb6b2851	-0.0035882185
121	0x3d838dce	0.064235315
122	0x3dab16d2	0.08353962
123	0x3d2b51d6	0.04182609
124	0xbd1c99ed	-0.038232733
125	0xbd185abd	-0.03719591
126	0x3b8b0ba0	0.004243329
127	0x3d970824	0.073745996
128	0xbe9697f7	-0.29412815
129	0xbdf781ee	-0.12085329
130	0x3eb77f66	0.35839385
131	0xbe153b71	-0.14573456
132	0xbb9a39d7	-0.004706602
133	0x3dac3129	0.08407814
134	0x3dfae512	0.12250723
135	0x3d4d9aff	0.050196644
136	0xbf613973	-0.87978286
137	0xbe2f97a0	-0.17147684
138	0x3e9933f1	0.2992244
139	0x3e52c07e	0.20581242
140	0xbd93ffa2	-0.072264925
141	0xbea7009c	-0.32617652
142	0x3c2d2088	0.010566838
143	0xbe5fe23a	-0.21863642
144	0xbc79be46	-0.015243119
145	0x3c260489	0.010132917
146	0x3b312b60	0.002703391
147	0xbcf29e07	-0.029616369
148	0x3bd14360	0.0063862056
149	0xbd4fb31b	-0.050707918
150	0xbb8fb81d	-0.0043859617
151	0x3c800d4f	0.015631346
152	0xbc571bea	-0.013129214
153	0xbe45067f	-0.1924076
154	0xbba3cc79	-0.0049987403
155	0xbc486f09	-0.012233504
156	0x3cac7875	0.021053532
157	0x3bd395cb	0.0064570657
158	0xbc095c47	-0.008383817
159	0xbb785c52	-0.0037896824
160	0xbc9167de	-0.017749723
161	0xbc34599a	-0.011007691
162	0x3addf8d3	0.0016935117
163	0xbc63766d	-0.013883215
164	0x3c2007b0	0.009767458
165	0x3a8e7f08	0.0010871598
166	0x3c0f7ff7	0.008758537
167	0x3babeb64	0.0052465666
168	0xbbf19daf	-0.0073735337
169	0xbc07355c	-0.008252468
170	0x3d12f92b	0.035882156
171	0xbb412586	-0.0029471829
172	0x39ec3912	0.00045055948
173	0xbb678292	-0.0035325629
174	0x3b41ff65	0.002960169
175	0xbbc6d322	-0.0060676495
176	0xbccb2f1a	-0.024802733
177	0xbcc00da6	-0.023444008
178	0x3c13a646	0.009011811
179	0x3ab8a3f1	0.0014086944
180	0x3d0e0d91	0.034680907
181	0xbd78733b	-0.060656767
182	0x3d31888c	0.043343112
183	0x3d500205	0.050783176
184	0xb9b5b037	-0.000346543
185	0x3a758b2c	0.00093667465
186	0x3c6f9ee3	0.014625284
187	0xbf13c683	-0.5772478
188	0xbd85185a	-0.06498785
189	0x3c9cbc30	0.019132704
190	0xbc685d0d	-0.014182341
191	0x3cf0bff7	0.029388411
192	0x3cb6f04d	0.022331381
193	0x3e2126c8	0.1573745
194	0xbd2dc372	-0.04242272
195	0xbd1e621f	-0.038667794
196	0xbe1a0ad3	-0.15043192
197	0xbd11ff98	-0.035644144
198	0x3dbb2dba	0.09139581
199	0x3ce68299	0.028138446
200	0x3ed930f0	0.4242015
201	0xbd857e93	-0.06518283
202	0xbe4bf908	-0.19919217
203	0x3ea0f40a	0.31436187
204	0x3fbe2be5	1.4857146
205	0x3d861266	0.06546478
206	0x3e35d8a6	0.17758426
207	0x3ea74381	0.3266869
208	0xbe763c43	-0.24046426
209	0xbe65b518	-0.22432363
210	0x3e89fe00	0.269516
211	0xbd309613	-0.043111872
212	0xbda39f5a	-0.07989378
213	0x3dbd7801	0.092514046
214	0x3d2a7da2	0.04162372
215	0x3cd794d3	0.026316082
216	0xbe8dcc90	-0.2769513
217	0xbd021d17	-0.031766023
218	0x3dc8035d	0.097662665
219	0x3ce31d9c	0.02772408
220	0xbe0ae40c	-0.13563555
221	0xbf808b92	-1.0042593
222	0xbbed5241	-0.0072424714
223	0x3d60c454	0.054874733
224	0xbc2e220a	-0.010628233
225	0xbc594335	-0.013260652
226	0x3ce72bc5	0.028219113
227	0xbbac818e	-0.0052644676
228	0x3b8c3db9	0.004279819
229	0xbccd5bfd	-0.025068277
230	0xbc389544	-0.011266056
231	0xba1f438f	-0.00060754357
232	0x3b369663	0.0027860634
233	0xbb630933	-0.0034642934
234	0x3d486d74	0.048932508
235	0xbaccbbc4	-0.0015619923
236	0x3c0b5a25	0.008505379
237	0x3c350334	0.011048127
238	0x3f1ad7a7	0.6048531
239	0x3d24bdf3	0.040220212
240	0xbd9dcec1	-0.07705451
241	0xbd1c4d6a	-0.038159765
242	0x3ced2229	0.028946953
243	0xbd04a9b0	-0.03238839
244	0xbc47a110	-0.012184396
245	0xbd84da33	-0.06486931
246	0xbb1cb2a4	-0.002391019
247	0xbc119fce	-0.008888198
248	0x3d6b9cd7	0.05752262
249	0xbb04e0b3	-0.0020275533
250	0xbd4d0443	-0.050052892
251	0xbcc87d9c	-0.024473958
252	0x3d094076	0.03350874
253	0x3c424c0b	0.01185895
254	0xbc247ecc	-0.010039996
255	0x3ec95d65	0.39329067

gru.bias_ih f4 [48]
0	0x3f479d3d	0.779743
1	0x3f0567b9	0.52111393
2	0x3d476161	0.048676852
3	0x3e4d8ee3	0.20074038
4	0x3ee9894e	0.45612568
5	0x3ef7974b	0.48357615
6	0x3f052273	0.5200569
7	0x3e817343	0.2528325
8	0x3ecf7e9f	0.40526292
9	0x3dd3d592	0.1034347
10	0x3dc1f41d	0.09470389
11	0x3f414864	0.75501084
12	0x3eb92453	0.36160526
13	0x3f1bcc77	0.60858864
14	0xbda75661	-0.08170772
15	0x3f06ff08	0.52732897
16	0xbf0f4cbb	-0.55976456
17	0xbec983bd	-0.3935832
18	0xbed93216	-0.42421025
19	0xbefb62f2	-0.49098927
20	0xbf24b992	-0.6434566
21	0xbf3ab86f	-0.72937673
22	0xbf268254	-0.65042615
23	0xbf42dab8	-0.7611499
24	0xbee34b1d	-0.44393244
25	0xbf2843c0	-0.6572838
26	0xbf0dc8dd	-0.5538462
27	0xbe8dfaed	-0.27730504
28	0xbf16e39d	-0.5894106
29	0xbe8928ee	-0.2678904
30	0xbf3d9777	-0.7405924
31	0xbf1431f2	-0.5788871
32	0x3d2c5e9b	0.04208241
33	0x3d81a11a	0.06329556
34	0x3cecae92	0.028891835
35	0xbbe95945	-0.0071212375
36	0x3e886e36	0.26646584
37	0x3da55e59	0.08074636
38	0xbcaab1b4	-0.020836689
39	0x3e2617fb	0.16220085
40	0x3dc7d3e8	0.09757215
41	0xbcbd9d32	-0.023146246
42	0x3da5b89f	0.08091854
43	0x3de2d192	0.110751286
44	0xbe7f2fd4	-0.24920589
45	0x3e4da6c6	0.2008315
46	0xbd11af9e	-0.035567872
47	0xbdc88250	-0.0979048

gru.bias_hh f4 [48]
0	0x3f3b24a2	0.7310277
1	0x3f5aba9b	0.8544099
2	0x3d59dc65	0.0531887
3	0x3cb9b42e	0.022668924
4	0x3ec31cba	0.38107854
5	0x3ee7ea8f	0.45296142
6	0x3eb3e922	0.35138804
7	0x3ef92d1e	0.48667234
8	0x3eb236da	0.34807473
9	0x3d2fda37	0.042932715
10	0x3e7bebbf	0.24601649
11	0x3ea6aafb	0.32552323
12	0x3ed23fcc	0.41064298
13	0x3f1a7aa9	0.60343415
14	0x3e4d0ff9	0.20025624
15	0x3ee241f5	0.44190946
16	0xbec4c024	-0.38427842
17	0xbecea26a	-0.40358287
18	0xbee29826	-0.44256705
19	0xbf200327	-0.6250481
20	0xbf143947	-0.578999
21	0xbf1c8c01	-0.6115113
22	0xbf18ce01	-0.59689337
23	0xbef2416f	-0.47315547
24	0xbf0dbcfc	-0.5536649
25	0xbec01ee5	-0.3752357
26	0xbf12ebfd	-0.5739134
27	0xbf186687	-0.59531444
28	0xbec59876	-0.3859288
29	0xbf022f45	-0.5085338
30	0xbf08cfd0	-0.53442097
31	0xbf04ff6f	-0.5195226
32	0xbd45a3a3	-0.04825176
33	0xbd6403b4	-0.055667594
34	0xbd258d16	-0.040417753
35	0x3cd42512	0.025896583
36	0xbe69ff45	-0.22851284
37	0xbdaf20b6	-0.08551161
38	0x3c8adba9	0.016950445
39	0xbdfe28c3	-0.124101184
40	0xbdc7e795	-0.09760968
41	0xbba9f55f	-0.005186721
42	0xbd71462c	-0.05890481
43	0xbe26a9ff	-0.16275786
44	0x3e4b3057	0.19842659
45	0xbe1b5fcf	-0.15173267
46	0x3bb0de96	0.005397628
47	0x3ddf5979	0.109057374

linear.weight f4 [16, 315]
0	0xbebfe021	-0.37475684
1	0x3f1a4c9f	0.60273165
2	0x3df1ee7a	0.11813064
3	0x3d9a3daf	0.075312965
4	0xbe64606a	-0.22302404
5	0x3db4346b	0.087990604
6	0xbba43059	-0.0050106463
7	0x3dad502b	0.084625565
8	0xbec32c85	-0.38119903
9	0x3e028c78	0.12748897
10	0x3dafb34b	0.08579119
11	0x3d0c713d	0.03428768
12	0xbeb4b9d5	-0.3529803
13	0xbdccad03	-0.09993937
14	0x3e43f45f	0.19136189
15	0x3ded8afe	0.11598776
16	0xbc559bdf	-0.013037651
17	0x3e05b60b	0.13057725
18	0xbd92f64f	-0.07175886
19	0xbda58b91	-0.08083261
20	0xbdbf133b	-0.0932984
21	0xbd8098cb	-0.06279143
22	0xbbfbbe54	-0.007682601
23	0x3e149e8c	0.14513606
24	0xbeae8ae0	-0.34090328
25	0x3a44425a	0.0007486694
26	0x3c848e3e	0.016181108
27	0xbc07fefc	-0.008300539
28	0x3e9f87c7	0.31158277
29	0x3e319600	0.17342377
30	0xbe531208	-0.20612347
31	0xbd19d4e7	-0.037556555
32	0xbc85909a	-0.016304303
33	0x3cf93d9d	0.030424887
34	0xbcd28905	-0.025700102
35	0x3d985cb9	0.074395604
36	0xbec50bf9	-0.38485697
37	0xb9f77dcc	-0.00047205237
38	0x3eac9404	0.33706677
39	0xbe9a8765	-0.30181423
40	0xbd2c9c62	-0.042141326
41	0xbe960971	-0.29304078
42	0xbdebe730	-0.11518705
43	0xbd9cf22a	-0.07663377
44	0x3ddb71b9	0.1071505
45	0x3dcb4842	0.099258915
46	0xbd33560d	-0.043783236
47	0xbef076b4	-0.46965563
48	0xbdda11ab	-0.10647901
49	0x3d786907	0.060647037
50	0x3cd4ef0b	0.02599289
51	0x3dbb6043	0.0914922
52	0xbda4fe2d	-0.08056293
53	0x3d8b622d	0.06805835
54	0xbdb3dddb	-0.0878255
55	0xbc191aa6	-0.009344732
56	0x3c69e47b	0.014275665
57	0xbe64ca7e	-0.2234287
58	0xbd5376ba	-0.0516269
59	0xbd72481b	-0.059150796
60	0x3ec58a5f	0.3858213
61	0x3d9d6174	0.07684603
62	0x3e9849e9	0.2974389
63	0x3dc8e0d5	0.09808508
64	0xbe032db5	-0.12810405
65	0x3dcc98bf	0.099900715
66	0x3eb3401a	0.35009843
67	0xbda9dc7d	-0.08294008
68	0xbd59771c	-0.053092107
69	0x3d482264	0.048860922
70	0xbda07dbb	-0.07836481
71	0x3c817dca	0.015807051
72	0xbe7d812c	-0.24756306
73	0xbd5c49e8	-0.05378142
74	0x3e108afe	0.14115521
75	0xbe72a5fb	-0.23696129
76	0x3c62a2a9	0.0138327265
77	0x3c218ba2	0.009859951
78	0x3e1be995	0.15225823
79	0xbdd1e952	-0.102495804
80	0x3d1047fd	0.035224903
81	0xbf0246b3	-0.5088913
82	0xbe873f5c	-0.26415527
83	0xbd0300fd	-0.031983364
84	0xbe93ab05	-0.28841415
85	0xbc01a16a	-0.007912019
86	0x3ee7a1d0	0.4524064
87	0x3e6597a0	0.22421122
88	0x3ec46dad	0.38364926
89	0xbe3c63f1	-0.183975
90	0xba64e9ad	-0.000873233
91	0xbde773ce	-0.11301385
92	0xbe7d75f2	-0.24752024
93	0xbe474693	-0.19460516
94	0x3e66678e	0.2250044
95	0xbe23523b	-0.15949337
96	0x3e26748b	0.16255395
97	0x3eb7048c	0.35745656
98	0x3e643a2b	0.22287814
99	0x3e561bd7	0.20909058
100	0xbec1fad8	-0.3788669
101	0x3ec81b44	0.39083302
102	0x3dc0ea2b	0.09419664
103	0x3d807979	0.06273169
104	0xbe218b2d	-0.15775748
105	0x3dc2b50e	0.0950719
106	0x3d8eebb9	0.06978554
107	0x3c9a8bd6	0.018865507
108	0x3e6e0b68	0.23246539
109	0xbe1561c5	-0.14588077
110	0xbd1ae182	-0.037812717
111	0x3e2dc597	0.16969906
112	0x3d744d97	0.059644308
113	0xbed2a118	-0.4113853
114	0xbe695883	-0.22787671
115	0xbea2325b	-0.31679043
116	0xbe371db0	-0.17882419
117	0x3daa9abd	0.08330295
118	0x3e95d47e	0.2926368
119	0xbe730a73	-0.23734455
120	0x3db55a8d	0.08855162
121	0xbe08099c	-0.13284916
122	0xbed9c4da	-0.42532998
123	0x3d535955	0.051598866
124	0xbdb6d34c	-0.089270204
125	0x3d85c76d	0.06532178
126	0xbd7c270e	-0.061560683
127	0x3ebe6660	0.3718748
128	0x3d7eb2f9	0.0621824
129	0x3d0db82b	0.034599464
130	0x3da56a73	0.08076944
131	0xbee35e74	-0.44408
132	0x3eb86a00	0.36018372
133	0xbe0ff765	-0.14059217
134	0xbdc872f9	-0.09787554
135	0x3e7f0f18	0.24908102
136	0x3e8af473	0.27139625
137	0xbd7801fa	-0.06054876
138	0x3f24cc1c	0.64373946
139	0xbdddad45	-0.10824064
140	0xbd929708	-0.07157713
141	0xbdce04b8	-0.10059494
142	0xbe32c244	-0.17456919
143	0xbdb1b5bd	-0.08677242
144	0xbe895303	-0.26821145
145	0xbe91d4cb	-0.2848266
146	0xbe03da9f	-0.12876366
147	0x3e64a8b4	0.2232998
148	0x3e1a590b	0.1507303
149	0x3bcf41f7	0.0063250023
150	0x3e880fc9	0.26574543
151	0x3d8b1a9e	0.06792186
152	0x3e78547c	0.24250978
153	0x3ea36bd4	0.31918204
154	0xbed51471	-0.41617158
155	0x3e2d0d07	0.16899501
156	0xbe0d4ea3	-0.13799529
157	0x3be88562	0.0070959786
158	0x3dfa41da	0.122195914
159	0x3e1e3637	0.15450369
160	0x3e241831	0.16024853
161	0xbdb1659a	-0.08661957
162	0x3d8688da	0.06569071
163	0xbd35b06f	-0.044357713
164	0x3eae2de2	0.3401938
165	0x3e4bb50b	0.19893281
166	0x3da50b4d	0.08058796
167	0x3df19fa4	0.11798027
168	0xbe05ce04	-0.1306687
169	0x3ead95e3	0.33903417
170	0xbd850b23	-0.06496265
171	0x3d83e3ac	0.06439909
172	0xbeef3b1d	-0.46724787
173	0xbdacd218	-0.0843851
174	0x3e82311b	0.2542809
175	0xbc9995ee	-0.01874825
176	0xbf15096e	-0.58217514
177	0xbd93b8c8	-0.072129786
178	0xbe63cbb4	-0.22245675
179	0xbb4cdd1f	-0.0031259728
180	0xbe2e66b2	-0.17031363
181	0x3d1380a9	0.03601137
182	0xbbd482ee	-0.0064853346
183	0xbdd424e9	-0.103586026
184	0xbdf26c72	-0.118370906
185	0xbeaaf76f	-0.33391902
186	0xbe533940	-0.20627308
187	0xbdb70b4d	-0.08937702
188	0xbb34923f	-0.002755299
189	0x3dd1cae3	0.10243776
190	0xbd5e6323	-0.054293763
191	0xbe5e7732	-0.21725157
192	0x3ea0a301	0.31374362
193	0x3d25cba1	0.0404774
194	0xbe49fb71	-0.19724824
195	0xbdc5d10d	-0.09659014
196	0x3d9b6d07	0.07589155
197	0x3d685a0a	0.056726493
198	0x3e3eeb51	0.18644454
199	0x3d9e5ad2	0.07732166
200	0x3d861c2c	0.06548342
201	0xbe19962a	-0.1499869
202	0x3d0328b8	0.032021254
203	0x3e3b368a	0.18282524
204	0x3e030c7a	0.12797728
205	0x3eb426ca	0.35185844
206	0x3d813c11	0.06310285
207	0xbdf8ef1b	-0.12154981
208	0xbe8a8da4	-0.27061188
209	0xbeb2f5d9	-0.34953192
210	0x3d90f895	0.07078663
211	0x3e171bf4	0.14756757
212	0x3e280fb7	0.16412245
213	0xbe631043	-0.22174172
214	0xbd9b1057	-0.07571476
215	0xbe03775a	-0.12838498
216	0xbe1a7480	-0.15083504
217	0xbf06fc3c	-0.5272863
218	0xbe54a0b5	-0.2076443
219	0x3e282bd2	0.16422966
220	0x3e447588	0.1918546
221	0x3c23eca6	0.010005152
222	0xbd09e891	-0.03366906
223	0xbda5580b	-0.080734335
224	0xbebef178	-0.372936
225	0x3e368546	0.17824277
226	0xbde29f15	-0.11065499
227	0xbd4e8dac	-0.050428078
228	0xbdc6174b	-0.096724115
229	0x3c5b91ee	0.013401492
230	0x3cb4e5e4	0.022082277
231	0xbd0bc7cc	-0.034126088
232	0xbe77b680	-0.24190712
233	0x3dafa6b1	0.08576716
234	0x3c246558	0.010033928
235	0xbe2df249	-0.16986956
236	0x3f3413e5	0.70342857
237	0xbc8e08cb	-0.017338177
238	0xbe97de87	-0.29661962
239	0xbe328000	-0.1743164
240	0xbf158dbb	-0.5841939
241	0xbe05f6ac	-0.13082379
242	0xbea08eb8	-0.31358886
243	0x3e998f30	0.29992056
244	0x3e7acdf1	0.24492623
245	0xbdcf6cce	-0.10128175
246	0xbe0f245f	-0.13978718
247	0x3c9748f8	0.018467411
248	0xbef8197c	-0.48456943
249	0x3db1e04a	0.08685358
250	0x3e00504d	0.12530632
251	0x3d516378	0.05112025
252	0x3e096e3f	0.13420962
253	0xbe3da67c	-0.1852054
254	0x3da8617d	0.082217194
255	0xbdf3d1da	-0.119052604

linear.bias f4 [16]
0	0x3c5b86c6	0.013398832
1	0x3ea5286a	0.32257396
2	0xbe7991ef	-0.24372075
3	0x3b9824ae	0.0046430444
4	0xbd54e32a	-0.051974453
5	0xbc206e5f	-0.0097919395
6	0x3dbd382a	0.09239228
7	0xbd2eddae	-0.04269188
8	0xbc805412	-0.015665088
9	0xbb4bc5fe	-0.0031093354
10	0xbd9ac6d9	-0.075574584
11	0x3df2305e	0.118256316
12	0xbe7945de	-0.24343058
13	0x3eb0d095	0.34534135
14	0xbe262ecd	-0.1622879
15	0xbd2393d0	-0.039935887

layer1.linear.bias f4 [32]
0	0xbe788ad4	-0.24271709
1	0xbe337890	-0.1752646
2	0xbe767214	-0.24066955
3	0xbdbe0b15	-0.092794575
4	0xbe111217	-0.14167057
5	0xbe292823	-0.16519217
6	0xbe73aa31	-0.23795392
7	0xbe19bcbb	-0.15013401
8	0xbe4a8e2f	-0.19780801
9	0xbe391164	-0.1807304
10	0xbdcc0e75	-0.09963695
11	0xbe5c7cb1	-0.21531941
12	0xbe86a08b	-0.2629436
13	0xbe565ead	-0.20934553
14	0xbe0ef67e	-0.13961217
15	0xbe364dba	-0.17803088
16	0xbdf0ec9d	-0.117638804
17	0xbe1115fc	-0.14168543
18	0xbe83b344	-0.25722706
19	0xbe6956a4	-0.22786957
20	0xbea54068	-0.322757
21	0x3db615c7	0.088908724
22	0xbe41e942	-0.18936637
23	0xbe70dd10	-0.23521829
24	0xbe539c06	-0.20664987
25	0xbe825f71	-0.2546344
26	0xbdf66c33	-0.12032356
27	0xbe17f17e	-0.14838216
28	0xbe1542e6	-0.14576301
29	0xbe572d39	-0.21013345
30	0xbd821530	-0.063516974
31	0xbe29ada5	-0.16570146

layer1.linear.weight f4 [32, 32]
0	0xbc3098b0	-0.010778591
1	0x3e85a40c	0.2610172
2	0x3ddf3092	0.10897936
3	0x3dd38ca0	0.103295565
4	0xbb579f9c	-0.003290153
5	0x3e2c606d	0.16833659
6	0xbe2ee8e4	-0.17081028
7	0x3dd45261	0.10367275
8	0x3df4b169	0.11947901
9	0x3e4fcc88	0.20292866
10	0x3e3030b8	0.17206085
11	0xbe11f0e5	-0.1425205
12	0xbea636a7	-0.3246357
13	0x3e78f6b6	0.24312863
14	0xbe002902	-0.12515643
15	0x3e846fde	0.25866598
16	0xbe01d1ce	-0.1267769
17	0xbdfaa7b6	-0.122390196
18	0xbe4bae65	-0.19890745
19	0x3d664c87	0.056225326
20	0x3f0e85a2	0.5567266
21	0x3d62e6ef	0.055396017
22	0xbdd71c33	-0.105034254
23	0x3efcd7f1	0.493835
24	0x3eb7c6ff	0.3589401
25	0x3d3f7d9c	0.04675065
26	0x3eae054d	0.3398842
27	0xbd823319	-0.06357402
28	0xbdd7c4cf	-0.10535585
29	0xbdaa4910	-0.08314717
30	0xbe92049c	-0.28519142
31	0xbe625e68	-0.22106326
32	0xbd1acb5d	-0.0377916
33	0xbc89281d	-0.01674276
34	0xbe7815cb	-0.24227063
35	0x3e581c2b	0.21104495
36	0xbe297b03	-0.16550831
37	0x3e44cd5a	0.1921896
38	0x3e472e58	0.19451272
39	0x3d8d7a50	0.06908095
40	0xbe6103e2	-0.21974137
41	0x3e1eaf1e	0.1549649
42	0x3e1a8d35	0.15092929
43	0x3ebae1a1	0.36500266
44	0xbe12151c	-0.14265865
45	0x3e3aadf0	0.18230414
46	0xbd396c4f	-0.045269307
47	0xbda798cf	-0.08183443
48	0xbe5299a5	-0.20566423
49	0x3e403e0b	0.18773668
50	0xbe8ed1da	-0.2789448
51	0xbe95485c	-0.29156768
52	0xbdc8d24f	-0.09805738
53	0x3eadabe9	0.3392022
54	0x3e66c229	0.22535004
55	0xbdbf351a	-0.093363
56	0x3db1c37c	0.08679864
57	0x3ebba48a	0.3664897
58	0x3e1b4c78	0.1516589
59	0x3f1ed9eb	0.62051266
60	0xbe271cd8	-0.16319597
61	0x3e055b2c	0.1302306
62	0x3dfb21a9	0.122622795
63	0xbedbda49	-0.42939976
64	0x3d9fb2df	0.07797789
65	0x3d5616c0	0.05226779
66	0xbe479b6b	-0.19492881
67	0xbdac17ed	-0.08403001
68	0xbd848ffb	-0.064727746
69	0xbd817ffc	-0.06323239
70	0x3b65fadc	0.003509215
71	0xbc4b4749	-0.012407132
72	0x3e496d63	0.19670634
73	0xbd3c195e	-0.04592263
74	0xbeb7c286	-0.35890597
75	0xbd1034e6	-0.035206698
76	0xbed46d4e	-0.41489643
77	0x3ea11bd2	0.31466538
78	0x3e31cc08	0.17362988
79	0xbe9aa2ac	-0.30202234
80	0xbe1fd8cb	-0.15610044
81	0xbe933499	-0.28751066
82	0xbdbe0f8e	-0.092803106
83	0xbe5a74dc	-0.21333641
84	0x3d1b1960	0.037865996
85	0x3da6089f	0.08107113
86	0xbcf2cf65	-0.029639909
87	0xbe562db2	-0.20915869
88	0x3daa4c00	0.08315277
89	0xbdf072c1	-0.117406376
90	0x3c25f8f4	0.010130156
91	0xbd9f22b5	-0.07770292
92	0xbe81e51a	-0.25370103
93	0xbd5dfd3c	-0.05419658
94	0xbec6c3b2	-0.3882118
95	0xbf13f605	-0.5779727
96	0x3d2b3c06	0.04180529
97	0xbd3ae30f	-0.045626696
98	0xbe903290	-0.28163576
99	0x3e118e02	0.14214328
100	0xbdb46358	-0.08808011
101	0xbd8ac7c6	-0.06776385
102	0x3e311b5b	0.17295592
103	0xbd52c3c9	-0.051456247
104	0x3b2a3a06	0.0025974526
105	0xbd99b4eb	-0.075052105
106	0xbdf94d9b	-0.12173005
107	0xbcfd9ded	-0.030959094
108	0x3d744ff3	0.059646558
109	0x3da5e186	0.08099656
110	0x3dfe45ab	0.12415632
111	0xbdb5ba0f	-0.088733785
112	0x3e77f4c8	0.2421447
113	0xbe509041	-0.20367528
114	0xbda4cfd7	-0.08047455
115	0x3d2f7acd	0.04284172
116	0x3e93bab2	0.28853375
117	0x3e4ebf19	0.20190085
118	0xbe25abde	-0.16178843
119	0xbd41b024	-0.04728712
120	0x3d3fc908	0.046822578
121	0x3f5878c1	0.84559256
122	0xbef1d80c	-0.47235143
123	0xbe0785f7	-0.13234697
124	0xbf13743f	-0.5759925
125	0x3e5a2c33	0.21305923
126	0x3ec0e3bd	0.3767375
127	0xbe84f242	-0.25966078
128	0x3e0492c5	0.12946613
129	0x3e090ea7	0.13384496
130	0x3e3cc11c	0.1843304
131	0x3d896415	0.06708542
132	0x3e405741	0.18783285
133	0xbdccd7da	-0.10002108
134	0xbebe644e	-0.371859
135	0xbe9024f8	-0.28153205
136	0x3e2e7da8	0.17040122
137	0x3d3bae8a	0.04582075
138	0x3e543161	0.20721962
139	0x3e407cad	0.1879756
140	0xbdc7e398	-0.09760207
141	0x3e8fadd3	0.28062305
142	0xbe76f9f3	-0.24118786
143	0xbde22840	-0.11042833
144	0x3eb6ad8e	0.35679287
145	0xbdc97a0e	-0.09837733
146	0x3ebddf0c	0.37084234
147	0xbeae6c3c	-0.3406695
148	0x3f1f906c	0.62329745
149	0xbf280770	-0.6563635
150	0x3f5d8535	0.8653138
151	0xbe64f6d6	-0.22359785
152	0x3f012295	0.50443393
153	0x3efbb45f	0.4916105
154	0x3e157641	0.14595892
155	0x3d67dc9d	0.056606878
156	0x3f8a8e57	1.0824689
157	0xbee0cbb2	-0.43905407
158	0x3e05e4c9	0.13075556
159	0xbc76bf02	-0.015060188
160	0x3d53d7e4	0.05171956
161	0x3e97b49b	0.2962998
162	0x3dcedfa0	0.10101247
163	0x3cb86f37	0.022513969
164	0xbe8d4e9e	-0.27599043
165	0xbe2dc169	-0.16968311
166	0x3eb4bd04	0.35300457
167	0xbce2c8a8	-0.027683571
168	0x3d25e843	0.040504705
169	0x3e09f7d4	0.13473445
170	0xbeb25aa1	-0.3483477
171	0x3df6ddca	0.12054022
172	0xbcc9fba6	-0.024656128
173	0x3e8bfd44	0.27341664
174	0x3d59853e	0.053105585
175	0xbc58f656	-0.013242325
176	0x3eb277b6	0.34856957
177	0x3ec920ba	0.3928278
178	0x3dda6a21	0.10664774
179	0xbe9ee507	-0.3103411
180	0xbe8dd5eb	-0.2770227
181	0x3e0f764a	0.14009967
182	0xbe5838aa	-0.21115366
183	0x3efb25a6	0.4905216
184	0x3eab48a9	0.33453873
185	0xbdb08e41	-0.08620883
186	0x3b11b214	0.0022231387
187	0xbdb5ae1c	-0.08871099
188	0x3e18838b	0.1489393
189	0xbe550617	-0.20803104
190	0xbe8b226c	-0.271747
191	0xbe2c65a3	-0.16835646
192	0xbdfd0c3c	-0.12355849
193	0x3e3bb781	0.1833172
194	0x3c47f3ef	0.012204154
195	0x3d6af0c4	0.05735852
196	0xbd98d650	-0.07462752
197	0xbe932a75	-0.2874333
198	0x3e13f753	0.14449815
199	0xbc094153	-0.008377391
200	0xbd2b451f	-0.041813966
201	0x3d8fd473	0.07022943
202	0x3da0e657	0.07856434
203	0x3e6ee65d	0.23330064
204	0xbe097cbd	-0.1342649
205	0x3eac73ab	0.33681998
206	0x3d893101	0.066988
207	0xbe8371c6	-0.2567274
208	0xbd64f409	-0.055896793
209	0x3f281e4e	0.6567124
210	0x3dcccd81	0.10000134
211	0xbde8a19a	-0.11358948
212	0x3eaae282	0.33375937
213	0xbe577ee3	-0.21044497
214	0xbd2c6063	-0.04208411
215	0x3e35ec49	0.17765917
216	0xbe991212	-0.298966
217	0xbe451641	-0.1924677
218	0xbe70e8c5	-0.23526295
219	0xbd024ab3	-0.03180952
220	0xbee00a69	-0.43757942
221	0x3e4491ca	0.19196239
222	0x3c913e52	0.017729912
223	0xbe234bb1	-0.15946843
224	0x3e75585a	0.23959485
225	0x3da99d9a	0.08282013
226	0xbd1b5884	-0.037926212
227	0xbe7ceaf7	-0.24699007
228	0x3d8eb98d	0.06968985
229	0x3e4d7fed	0.20068331
230	0xbe04371b	-0.12911646
231	0xbe93f4dc	-0.2889775
232	0xbd92307b	-0.07138153
233	0xbd2817ee	-0.041038446
234	0xbe0ed814	-0.13949615
235	0xbd53dad6	-0.05172237
236	0xbd63205c	-0.055450782
237	0x3e97efa4	0.2967502
238	0x3a859f81	0.0010194631
239	0xbc5ee017	-0.013603232
240	0x3ed1b35c	0.40957153
241	0x3da077c0	0.078353405
242	0x3e7b5c43	0.24546914
243	0xbe043929	-0.1291243
244	0xba2997d6	-0.00064694637
245	0x3e93a464	0.28836358
246	0x3ea5bd89	0.32371166
247	0x3e8d996a	0.27656108
248	0xbdf4aae8	-0.1194666
249	0xbe9b7540	-0.30362892
250	0xbd684d77	-0.0567145
251	0xbe0bf5ed	-0.13668032
252	0xbddd6157	-0.10809582
253	0x3ef3dc72	0.47629124
254	0x3e47d25b	0.19513838
255	0x3f108739	0.56456333

layer1.agg.bias f4 [32]
0	0x00000000	0.0
1	0x00000000	0.0
2	0x00000000	0.0
3	0x00000000	0.0
4	0x00000000	0.0
5	0x00000000	0.0
6	0x00000000	0.0
7	0x00000000	0.0
8	0x00000000	0.0
9	0x00000000	0.0
10	0x00000000	0.0
11	0x00000000	0.0
12	0x00000000	0.0
13	0x00000000	0.0
14	0x00000000	0.0
15	0x00000000	0.0
16	0x00000000	0.0
17	0x00000000	0.0
18	0x00000000	0.0
19	0x00000000	0.0
20	0x00000000	0.0
21	0x00000000	0.0
22	0x00000000	0.0
23	0x00000000	0.0
24	0x00000000	0.0
25	0x00000000	0.0
26	0x00000000	0.0
27	0x00000000	0.0
28	0x00000000	0.0
29	0x00000000	0.0
30	0x00000000	0.0
31	0x00000000	0.0

layer1.agg.mlp.0.weight f4 [1, 64]
0	0x3dce043c	0.100594014
1	0xbbe72780	-0.0070542693
2	0x3c05b660	0.008161157
3	0x3dfc050e	0.123056516
4	0xbb5d66c0	-0.0033783168
5	0xbcbe00c0	-0.023193717
6	0xbc8d2130	-0.01722774
7	0xbd2faf60	-0.04289186
8	0x3c70b840	0.014692366
9	0x3dde54de	0.10856031
10	0x3defc842	0.11708118
11	0x3d59ef50	0.05320674
12	0xbd6b2c2c	-0.057415172
13	0x3d752648	0.05985096
14	0xbd77b474	-0.060474828
15	0xbcf06038	-0.029342756
16	0xbde222a6	-0.11041765
17	0x3c35c5d0	0.011094525
18	0x3d5d002c	0.053955242
19	0x3dfe291a	0.12410183
20	0xbded5e16	-0.11590211
21	0xbccb0b40	-0.024785638
22	0x3d499ad0	0.049219906
23	0x3d6739ac	0.056451485
24	0x3c5965f0	0.013268933
25	0xbd78b730	-0.060721576
26	0x3d8c9b6e	0.06865583
27	0x3ce7ac10	0.028280288
28	0xbcfa63c8	-0.030565158
29	0xbc8e4138	-0.017365083
30	0xbb40fc40	-0.0029447228
31	0xbdd0fb12	-0.10204138
32	0xbdfcc004	-0.123413116
33	0xbc9eb658	-0.019374058
34	0x3d5859ac	0.052819893
35	0xbc810cd0	-0.01575318
36	0xbd7488f8	-0.059700936
37	0xbb9d5ba0	-0.0048021823
38	0xbdd3934e	-0.103308305
39	0xbb01c080	-0.0019798577
40	0x3dd45270	0.10367286
41	0xbb43a340	-0.0029851943
42	0x3c611a50	0.013739184
43	0x3d9fc598	0.0780136
44	0x3d86b722	0.065778986
45	0xbdd72876	-0.10505764
46	0x3df44e40	0.119289875
47	0x3cfc7338	0.03081666
48	0x3d42e074	0.047577336
49	0xbd51047c	-0.051029667
50	0xbdbb7ac6	-0.091542765
51	0x3d08aeb0	0.03336972
52	0x3b608700	0.0034260154
53	0xbd72435c	-0.05914627
54	0xbc656ee0	-0.014003485
55	0x3ae8ed80	0.0017770976
56	0x3d457500	0.048207283
57	0x3d9b8aac	0.07594809
58	0x3c88e120	0.01670891
59	0x3d8291f0	0.063754916
60	0xbcb409c0	-0.021977305
61	0x3dfa9922	0.12236239
62	0x3c88fc50	0.016721874
63	0x3dc67ed6	0.09692161

layer2.linear.bias f4 [16]
0	0x3dfc2f0d	0.12313662
1	0x3e393335	0.1808594
2	0xbc8f2501	-0.0174737
3	0xbde83d5a	-0.11339827
4	0x3dd81ad5	0.10551993
5	0xbd52859f	-0.051396962
6	0x3df0cb83	0.11757567
7	0x3d74d42c	0.059772655
8	0x3e1c3267	0.15253602
9	0x3e00e884	0.12588698
10	0x3c2f9d9c	0.010718729
11	0x3d5f1951	0.054467503
12	0xbd9722c6	-0.073796794
13	0xbdef1da8	-0.11675578
14	0x3e26b6ef	0.16280721
15	0x3c2505ab	0.010072152
