MMBenchmarkingCode/HTGN-EvoGCN/data/output/log/facebook200/HTGN/model_checkpoint.pth (torch, 809970 bytes, 18 tensors)

feat f4 [436, 436]
000000 97 f5 a4 3d 26 90 2a 3b c5 04 2b bd 50 79 54 3d
       0.08054655 0.002602586 -0.041752595 0.051873505
000010 a8 0d 78 bd ba 77 82 bb 8d 9f 99 3d e7 64 a4 3d
       -0.0605599 -0.0039815577 0.07501135 0.08027058
000020 ea 4b 03 bb c3 b8 97 bb da ba 2f 3d 9f 61 af ba
       -0.0020034262 -0.0046301796 0.042902805 -0.0013380534
000030 6f 27 e1 3c 8a a3 57 bd 0c e4 14 3d b0 26 4d bd
       0.027484624 -0.052646197 0.036350295 -0.050085723
000040 9f a1 87 bb 5f ba 93 bd 0b fa 1b bd 0f b8 3c 3d
       -0.00413914 -0.07213282 -0.038080256 0.04607397
000050 da d6 9d 3d ee 77 fd bc da 48 3c 3d 6c 93 1d 3d
       0.07706995 -0.030940976 0.045967914 0.03847067
000060 bb 27 99 bd b0 9f 2b 3d 74 1b 1a 3d 1f 42 23 3c
       -0.07478281 0.041900337 0.037623838 0.009964495
000070 e8 fc d1 3c 11 7d 8c bc d6 45 30 bd c3 42 96 bc
       0.02563329 -0.01714948 -0.04303535 -0.018342381
000080 46 60 50 3d 84 d5 80 3c 38 40 81 bd 93 cf 96 bd
       0.050873064 0.015726812 -0.06311077 -0.073638104
000090 d2 a7 b8 bb 97 58 e3 3c 2d e7 0b bd c5 67 46 3d
       -0.00563524 0.027752204 -0.034156013 0.048438806
0000a0 04 30 44 3d 02 b9 83 bd 44 c4 16 3c 20 e1 a2 3d
       0.047897354 -0.06431772 0.009202067 0.079530954
0000b0 54 51 a2 bd 8d 9e ac 39 2b b0 0f 3d d6 e6 d8 3c
       -0.07925668 0.00032924526 0.035080116 0.026477259
0000c0 dd 0a 2d 3d b1 5b 17 3b fa 1f 7c bd a9 c2 3d 3d
       0.04224669 0.0023095424 -0.061553933 0.04632822
0000d0 34 6d 2b 3d b8 50 82 3c f3 64 be bc 2a 22 84 3d
       0.04185219 0.01590763 -0.023241496 0.06451829
0000e0 24 93 ab bc 5c 73 6f 3b e4 ec 54 bd 35 a8 dc 3c
       -0.020944186 0.0036537265 -0.05198373 0.026935676
0000f0 25 70 82 3d 1f 4b 88 3d e7 0a 85 3d 69 b4 9e 3d
       0.06369046 0.06654953 0.0649622 0.07749254
000100 19 8e 70 3d 4c 39 d2 bc 9a 3e 87 bd 64 e5 4f 3d
       0.058729265 -0.025662087 -0.06603737 0.050755873
000110 9c 8a a2 bd bf e0 32 3d 64 16 a2 3d 94 df 33 bd
       -0.07936594 0.043671366 0.07914427 -0.043914393
000120 08 b5 c9 bc 95 47 60 bd fa a1 58 3d e7 d7 3f bc
       -0.024622455 -0.054755766 0.052888848 -0.01170919
000130 6a f5 bf bc d4 ce 87 3b c9 57 d7 3c fe 68 44 bd
       -0.023432452 0.004144529 0.026286976 -0.04795169
000140 93 dc 8e 3d 89 64 8c bd 9f 9d 01 bd 3e 61 8f bd
       0.06975665 -0.06855113 -0.03164446 -0.07000969
000150 31 9f 0c 3d e5 93 26 3d 92 38 29 3d 96 e7 50 3d
       0.034331504 0.040668387 0.041313715 0.051002108
000160 9d 24 7a 3d fd 1b 36 3d f5 21 90 3d be 95 77 bb
       0.061070073 0.044460285 0.07037727 -0.0037778462
000170 3c 41 3d 3d b6 d3 42 3d 33 4a 3e bd ec 6e 56 3d
       0.04620479 0.047565185 -0.04645748 0.052351877
000180 e5 d7 96 3d e5 3d 2e 3d 03 be 72 3d cf 71 51 bd
       0.07365397 0.042539496 0.05926324 -0.051133927
000190 79 1d 83 bd 8a 96 3b 3d b5 ac d8 bb b4 7c 54 bc
       -0.06402106 0.045797862 -0.006612385 -0.012969185
0001a0 64 56 37 3d 49 25 3c 3d 17 8d 19 bd d2 0e 53 3d
       0.044760123 0.045933995 -0.03748807 0.051527806
0001b0 fc ca 07 3d ce 8a f5 bc 64 01 fc 3c d0 cc 98 bd
       0.033152565 -0.029973414 0.030762382 -0.0746094
0001c0 40 0f 12 bc d2 4d 93 3b 51 b6 6c 3d bf b1 4f bc
       -0.008914769 0.004495361 0.057791058 -0.012676655
0001d0 d6 6d fe 3c 1d c8 a5 3d 12 0c a6 bd 01 d6 b0 3c
       0.031058233 0.08094809 -0.08107771 0.02158642
0001e0 ce 36 83 bc c6 cb 7f bd b4 21 79 3c a0 ec 44 bd
       -0.016017344 -0.062450193 0.015205789 -0.048077226
0001f0 9c 13 f6 3b 02 00 d4 bc aa dc 9e bd be 41 86 3d
       0.007509662 -0.02587891 -0.07756932 0.06555508
000200 00 b9 08 3a 33 d3 54 bd fc a0 02 3d f3 0e 52 3a
       0.00052155554 -0.051959228 0.031891808 0.0008013092
000210 36 71 85 3d e8 02 97 bd fe de a0 3d f0 84 0c 3d
       0.06515734 -0.07373601 0.078550324 0.034306467
000220 dc 08 aa 3c 1b 4d 49 3d 12 d4 9a bd 30 fc a7 bd
       0.020756178 0.0491458 -0.075599805 -0.08202398
000230 eb bb fb bb ed f6 03 3d 80 67 42 bc 07 92 ff bc
       -0.0076823137 0.03221791 -0.011865497 -0.031197561
000240 e2 9d 0a 3c a1 36 80 bd 06 7d 75 bd aa 9d b9 bc
       0.008460494 -0.0626042 -0.059933685 -0.022658188
000250 4e ba 3e bd 8f fe 85 ba 08 a7 76 3d ef 0e 53 3d
       -0.046564393 -0.0010222959 0.060217887 0.051527914
000260 1b 1e 09 bd 4c 3f 66 3d 29 25 21 bd 74 f9 42 bd
       -0.033475976 0.05621271 -0.03934208 -0.04760118
000270 4f 7d c9 3c 87 81 91 bd 12 cc 0d bd e0 ac 96 bc
       0.024595885 -0.071047835 -0.034618445 -0.01839298
000280 73 bb a5 bd a8 ca 6f bd 57 50 2c 3d ee 84 8e 3d
       -0.08092394 -0.058542877 0.042068806 0.06958948
000290 4b 6d 9a bd 83 3c 2d 3d ec 50 b2 bc 1a af 3f 3d
       -0.07540377 0.042294037 -0.021767102 0.04679785
0002a0 ba 84 66 3d d2 6a 32 bc 3d 9a a8 bd d2 54 68 3d
       0.05627892 -0.010889726 -0.082325436 0.056721516
0002b0 3a 22 50 3b 65 31 65 bd b6 3a c7 bc ea fd ec 3c
       0.0031758682 -0.05595531 -0.024319988 0.02892967
0002c0 2c 19 6b bc 70 e0 a5 3d 9f 4d f4 bb 1f 1f 6a bd
       -0.014349263 0.08099449 -0.007455542 -0.057158586
0002d0 cb 12 a2 bd 3a d4 95 3d 6b 17 22 bd 26 b5 41 bd
       -0.07913741 0.0731587 -0.039573114 -0.047291897
0002e0 9e ad 30 3d c8 bf 53 3d 2d e0 19 3d 3d 23 37 3c
       0.043134324 0.05169657 0.037567306 0.011177835
0002f0 4f 0a 3e bd 5d 11 a2 ba 57 a7 95 bd 20 f0 07 bd
       -0.04639655 -0.0012364794 -0.07307308 -0.033187985
000300 24 bb 9b 3d 41 a6 94 3d 06 35 ca 3c 15 f4 34 bd
       0.076040536 0.07258273 0.024683487 -0.044178087
000310 32 89 9e 3d 2b 51 cf 3c 23 e0 b7 bc 8f 6d db 3c
       0.07741012 0.025307259 -0.022445744 0.02678564
000320 20 d1 a7 bd 5c e4 29 3d 76 50 7a bd 92 07 15 3d
       -0.08194184 0.041477546 -0.06111189 0.036384173
000330 4b 9d a1 bd 9f 58 ed 3c 47 99 71 3d 33 49 b5 3c
       -0.078913294 0.028972922 0.058984067 0.02212963
000340 9e 4b 27 3d 49 8e bb 3c 5a fe 88 bd 3c 94 e8 bc
       0.0408436 0.022894995 -0.06689139 -0.028390996
000350 3f 28 4b bd 43 8a 83 3d a3 33 99 3c 4a ef a8 3d
       -0.04959893 0.06422856 0.01870138 0.08248766
000360 56 03 18 bc 5c 7b 15 3d 79 ac 92 3d fd d6 f4 3c
       -0.009278139 0.036494598 0.07161803 0.02988767
000370 e2 24 1b bb 01 95 84 bd e8 58 bf 3c 44 86 d5 bc
       -0.0023673107 -0.06473733 0.023357823 -0.026065
000380 f4 cd c4 3b 3d 74 8a 3d 50 b7 87 bd 59 e8 4f 3d
       0.006005997 0.06760452 -0.06626761 0.050758693
000390 6a 42 bc 3c a5 a6 29 3c 40 d0 8d 3c 7d 53 a9 3c
       0.022980887 0.010354673 0.017311215 0.020669693
0003a0 d2 26 ba bc e4 e0 8d bd 7a 99 10 3d c7 a8 97 3d
       -0.02272359 -0.0692766 0.035302617 0.074052386
0003b0 46 40 90 bd b7 e7 2c 3c df 69 37 3c 00 ae 55 3d
       -0.07043509 0.010553292 0.011194675 0.052167892
0003c0 d7 4d ac bb f0 13 5f 3d 03 8b 94 3d 1e e4 8a bd
       -0.0052583027 0.054462373 0.07253077 -0.06781791
0003d0 f8 9c e0 bc b2 1c 9f 3d 9e e3 3e bd 9a e0 84 3d
       -0.027418599 0.07769145 -0.04660379 0.06488152
0003e0 10 95 65 bd d9 60 11 3d 9e e8 a7 3d 64 a9 54 3d
       -0.05605036 0.03549275 0.08198665 0.051919356
0003f0 53 d5 89 bd 05 c5 c9 3c 8c c3 1b bd 22 d8 81 3c
       -0.067301415 0.024630079 -0.038028285 0.01585013

Q f4 [16, 16]
000000 af 4c a1 be df 42 65 3d 4c 04 f7 3f d5 f5 20 be
       -0.31503817 0.055971976 1.9298186 -0.15718777
000010 db 9d 56 be 07 f2 ea 3e cc 29 95 3f 1f ad b1 bf
       -0.20958655 0.45887777 1.165338 -1.3880957
000020 b0 d5 71 be 51 6f 38 3f 1f 88 2a bf 61 46 aa bf
       -0.23616672 0.72044855 -0.66613954 -1.3302728
000030 b2 c4 36 3f 88 4f 19 be 25 3f 46 3e 46 09 31 3f
       0.71393883 -0.14971745 0.19360025 0.69154775
000040 3c 7c 05 3e 0f 47 66 3f b5 29 da 3f 51 30 98 bc
       0.13035673 0.89952177 1.7043978 -0.018577727
000050 cd 13 bf bd 7f bc 9d bd 98 d8 ba 3d 40 85 d9 bf
       -0.093299486 -0.077019684 0.09123343 -1.699379
000060 7f 4d 20 3f 3f 28 20 bf 3f eb f2 3f 0a fa 35 bf
       0.6261825 -0.6256141 1.8978041 -0.71084654
000070 5e 48 b3 3e b4 81 dc 3e 14 2a 55 bd ce d0 d9 3e
       0.3501615 0.43067706 -0.052042082 0.42542118
000080 9e 0e 94 3e 25 ec f4 3f 2c af eb 3e f9 9f f8 3d
       0.28917402 1.9134566 0.46032083 0.12139887
000090 dd d5 a0 bf 52 da 90 3d a9 83 af 3f c3 c2 94 be
       -1.2565266 0.07072891 1.3712054 -0.2905484
0000a0 35 cc a0 3f 3f a3 6a bf 2a b3 7e 40 aa 53 84 bf
       1.2562319 -0.91655344 3.9796853 -1.0338032
0000b0 a3 60 01 3f 7f be d1 3f 3a 36 95 3e 46 93 2e 3f
       0.5053808 1.638626 0.29142934 0.6819347
0000c0 63 ea e7 3e 25 7c 38 bf 7b 2b 8a bf 98 31 16 3f
       0.4529601 -0.7206443 -1.0794519 0.58669424
0000d0 d7 36 e6 be d6 0b b5 be 44 a7 05 3f 03 94 b0 40
       -0.44963714 -0.35360593 0.5220835 5.518068
0000e0 4c 3a 91 3f c6 c6 87 bf 2f 1c 47 bf 6d d3 62 3f
       1.1345916 -1.0607536 -0.7777738 0.8860386
0000f0 50 ec 49 bd 96 26 33 bf 33 ca aa be 5a 3f 0d 3f
       -0.04929763 -0.6998075 -0.3335739 0.5517479
000100 ff 99 eb 3e 2e ff 66 3d 6b 1e 0e c0 e4 cd 86 3d
       0.46015927 0.056395702 -2.2206066 0.06582239
000110 58 e4 9e be 97 6d 0c bf 0f f0 ad 3e e9 a3 24 be
       -0.31033587 -0.5485472 0.33972213 -0.16078152
000120 58 cb 16 3f 1e f1 f9 be c7 de 2a 3f fd 2f c9 3e
       0.5890403 -0.4881677 0.6674618 0.39294425
000130 1a d9 ca be 7e 55 64 3e 4d 82 03 bf 3a 98 2e 3d
       -0.3961876 0.22298238 -0.513707 0.042625643
000140 dd 95 d9 3e ed 24 b8 be 2e 7e 3c c0 e2 3c 5f 3f
       0.4249715 -0.35965672 -2.9452014 0.87202275
000150 49 5b 84 be d2 9f 1c bf 8c dc 08 3f da d6 35 3f
       -0.25850895 -0.61181366 0.5346153 0.7103096
000160 58 e3 bf 3f 27 13 f1 bf 14 22 13 be bb ba 9c 3f
       1.4991255 -1.883397 -0.14368469 1.2244486
000170 c4 ca 2d 3d 4b 8f 29 bf d7 f4 b8 be f8 0b cd 3e
       0.0424297 -0.6623427 -0.36124298 0.40048194
000180 1e bf c1 3e 51 16 12 bf 0a f8 8e bf 51 8b 26 3f
       0.37841123 -0.570653 -1.1169446 0.6505633
000190 61 e7 a8 bd d5 09 51 bf 37 28 0f bd fa ea 22 c0
       -0.08247257 -0.8165563 -0.03495046 -2.5455918
0001a0 8d 8b 78 3f f8 8b 62 bf 56 eb bc bf 85 d6 fa 3e
       0.9708794 -0.88494825 -1.4759319 0.4899179
0001b0 28 90 d9 be ee 61 95 bf 04 5e e2 be 5a f3 9f be
       -0.42492795 -1.1670511 -0.44212353 -0.3124035
0001c0 d0 dc a2 3e 80 29 04 3e b6 36 76 3f 38 e2 94 be
       0.31809092 0.12906456 0.9617723 -0.2907884
0001d0 61 2d a1 be fc 7e bd 3e bb c7 a4 3d 4c 03 22 3f
       -0.31479934 0.37010944 0.08045908 0.6328628
0001e0 9b 00 a8 3f 15 e2 70 bf e0 88 51 3f 5c 86 59 bf
       1.3125185 -0.94094974 0.8184948 -0.8497064
0001f0 12 19 d6 be a6 f9 8b 3e 39 99 71 be c3 09 48 3f
       -0.41816002 0.27338904 -0.23593606 0.78139895
000200 3e 63 42 bf fc da dc bb e6 80 01 40 6c 37 88 bf
       -0.7593268 -0.006739972 2.0234923 -1.0641913
000210 e7 9b 29 3f 02 bf a3 3f a5 d5 f6 be fb ea bf 3f
       0.66253513 1.2792666 -0.48209873 1.4993585
000220 ff 4e 8c bf 3a f4 b6 3f dc f3 e3 bf ff 6f 0d bf
       -1.0961608 1.4293282 -1.7808795 -0.5524902
000230 15 3b 06 3f 8b 90 84 3e c4 d4 88 3f 7c 88 d1 bf
       0.524339 0.25891528 1.0689931 -1.6369777
000240 b6 2d 03 bf 10 34 f6 3e bc ed 1c bf f4 45 2e be
       -0.51241624 0.48086596 -0.61300254 -0.17018872
000250 46 3a e9 3e e1 a3 7a 3e 44 0c 98 be e3 1c fe bf
       0.45552272 0.24476577 -0.29696858 -1.9852566
000260 ad 36 41 bf 51 d3 84 3f 9a 75 86 bf b9 30 2a be
       -0.75474054 1.0376989 -1.0504639 -0.16620149
000270 44 fa fb bd 4d 5f 0b be c3 54 c6 3e 3e cb 4f bf
       -0.12303594 -0.13610573 0.38736543 -0.811695
000280 f5 18 4b 3e ac f3 51 be c6 4c e4 bf d2 af a9 be
       0.19833739 -0.2050311 -1.7835929 -0.33141953
000290 09 3f e9 3e 10 bc 9e be 73 54 9f bb ec 68 b2 bf
       0.45555905 -0.31002855 -0.004862362 -1.393827
0002a0 fb c8 d9 be d5 07 83 3f c4 f0 c5 be c5 05 3b 3f
       -0.42536148 1.0236765 -0.38660252 0.7305568
0002b0 26 12 76 bf 52 1c d2 be 0d a3 34 bf 0f 27 c6 bc
       -0.9612144 -0.41037232 -0.70561296 -0.024188546
0002c0 dd bc 23 be 3e a1 15 3e be a9 2b bf bf 1b 30 bf
       -0.15990014 0.1461229 -0.6705588 -0.6879234
0002d0 7f 8e f0 3f cc e2 3d 3f 51 16 17 c0 38 26 e3 bf
       1.8793486 0.7417419 -2.360737 -1.7746038
0002e0 08 3c 28 40 64 33 98 bf 7a 75 7f bf 6d 9c 4b 3f
       2.628664 -1.1890683 -0.9978863 0.7953556
0002f0 3a 57 38 bf 3f ad 68 3e 24 29 80 3f 98 0f 53 bf
       -0.720081 0.22722338 1.0012555 -0.8244567
000300 79 db a3 bf 7f 88 a4 3f 31 83 5f 3f 3b 3a 8b bf
       -1.2801353 1.2854155 0.8730956 -1.0877146
000310 34 99 95 be da 14 c7 3f 17 bc 17 3f d2 be 1a be
       -0.29218447 1.5553238 0.5927138 -0.15111855
000320 4e ef 99 bf d3 c3 0a 40 5c 4b 87 3f bf 32 69 bf
       -1.2026155 2.1682022 1.0569873 -0.9109306
000330 89 b6 46 3e aa a8 c2 3f 37 ec c3 3f 54 07 9e bf
       0.19405569 1.5207722 1.5306462 -1.2345986
000340 f4 90 b8 be 50 29 54 3e c0 31 ff be 76 95 9b be
       -0.3604809 0.20718884 -0.49842644 -0.30387467
000350 7f 09 0e be d1 dc f5 3e d1 62 b6 be ff 25 92 3f
       -0.1387081 0.48020032 -0.35622266 1.1417845
000360 80 66 6c 3f 6d ee 33 bf bb 0d b3 bf c5 45 ed 3e
       0.923439 -0.70285684 -1.3988565 0.46342292
000370 1c 90 8f 3f df 8e b6 be b0 a1 b6 3e 71 26 43 be
       1.1215854 -0.35655877 0.35670233 -0.19057633
000380 04 28 77 3f 18 59 dc be 98 2b 4d 3e ac 81 82 3d
       0.96545434 -0.43036723 0.20036161 0.06372389
000390 cc fd 1b 3f ce 81 09 bf a8 b6 6f bf 61 f0 f9 3e
       0.6093414 -0.5371369 -0.93638086 0.48816207
0003a0 67 2a e3 3d ba 27 8f bd b5 5b 99 3e 77 14 96 3e
       0.11092072 -0.06989999 0.2995278 0.29312488
0003b0 7f 84 ad be ac 96 7e be cb f5 f3 be 42 ba e2 3d
       -0.3389015 -0.24862164 -0.47648463 0.11070682
0003c0 51 12 03 3f 88 8a 84 bf cb 86 09 bf 43 12 26 3e
       0.51199824 -1.0354776 -0.537213 0.16217904
0003d0 7f e7 09 bd 6c be 42 bd 62 3b 33 3e f2 b0 87 bf
       -0.033668038 -0.04754488 0.17503121 -1.0600874
0003e0 7e 02 03 40 04 a6 0d c0 67 05 00 c0 31 19 5f 3f
       2.047027 -2.2132578 -2.0003297 0.87147814
0003f0 8e 60 1d bf 62 e9 15 bf 2c b4 2f be 81 a8 89 bd
       -0.61475456 -0.5855924 -0.17158574 -0.06721593

r f4 [16, 1]
000000 19 8a 8d 3e b6 38 4a bf aa 46 8c bf 8e 33 e6 3e
       0.27644423 -0.78992784 -1.0959065 0.44961208
000010 a8 bb 3e bf 35 cc 14 bf 83 5c 4c 3f 33 44 40 c0
       -0.7450509 -0.58124095 0.7982866 -3.0041625
000020 9b 78 9b 3f 62 70 75 bf 02 54 d8 bf 79 39 2e 3f
       1.2146181 -0.9587461 -1.6900637 0.68056446
000030 cf 03 7f 3e 68 3d 51 bf 5e 4c 08 bf d1 a7 33 3f
       0.24903797 -0.81734324 -0.5324153 0.7017794

c f4 [3, 1]
000000 00 00 80 3f 00 00 80 3f 00 00 80 3f
       1.0 1.0 1.0

gru.weight_ih f4 [48, 16]
000000 60 30 c2 3e ab 71 eb be 67 77 1b be e1 14 01 bf
       0.37927532 -0.4598516 -0.15182267 -0.50422484
000010 9f 4b 24 3f 67 1c 2f 3f 93 21 25 3e 07 a1 10 bf
       0.6417789 0.68402714 0.16126089 -0.5649571
000020 3d b6 18 bf b0 3a 5b bf 25 10 07 3e 23 51 f0 3d
       -0.59653074 -0.85636425 0.13189752 0.117342256
000030 3a b1 0f 3d 82 eb 78 3f 7a c0 bd 3b 8c 21 3e bf
       0.035081126 0.97234356 0.0057907673 -0.7426994
000040 72 6f 1a 3f 15 7f 1e be 75 ac 51 3d 33 3e 0b be
       0.603263 -0.15478165 0.05118986 -0.13597946
000050 5e 55 70 3c 0e 33 2c 3f b0 60 4d 3f e6 3d 37 be
       0.014668791 0.67265403 0.8022566 -0.17894706
000060 9c 35 e8 bd 02 f9 81 be 9c 6f e0 3e 81 25 15 bd
       -0.1133835 -0.2538529 0.4383515 -0.03641272
000070 64 fe 06 bf f7 c2 d4 3e 5f e9 f1 3e 97 3e ed bd
       -0.5273192 0.41554996 0.4724836 -0.11584204
000080 5c d4 35 3f a5 b8 44 bf ff f2 97 bd a2 a6 38 bf
       0.7102716 -0.76844245 -0.07419395 -0.7212926
000090 4d 2e 23 3e 48 40 52 3f 89 23 49 3e 07 81 72 bf
       0.15935631 0.82129335 0.19642462 -0.9472813
0000a0 9f ee 37 bf c6 91 37 bf a0 ac 1a 3f d6 96 82 be
       -0.7184848 -0.7170681 0.60419655 -0.25505704
0000b0 2b e2 18 be a9 30 84 3e 89 0f e4 be 67 73 59 bf
       -0.14930026 0.25818375 -0.44543102 -0.84941715
0000c0 91 45 19 3f b4 50 46 be f6 54 e0 3e 9a 66 64 be
       0.59871775 -0.19366723 0.4381482 -0.22304764
0000d0 d0 ba 2d 3f 14 ba 50 3f 1c fe 59 3f c1 ee 72 be
       0.6786318 0.8153393 0.85153365 -0.2372389
0000e0 0b 39 62 be 05 3d 0c be f6 36 d7 3e 5e cd 7a 3f
       -0.22092073 -0.13695152 0.4203412 0.97969615
0000f0 4f c4 da bd cf 79 91 3f d0 fa 6d 3f 29 e1 89 be
       -0.10681974 1.1365298 0.92960835 -0.26929596
000100 4f d6 5b 3f b4 4d a3 3c a2 60 1f 3c 23 fe 95 3c
       0.85873884 0.019934513 0.009727629 0.018309658
000110 02 6d 07 3f 29 6a 6c 3f c8 8b 0a 3f db d4 4d 3c
       0.5290071 0.9234949 0.5411954 0.012562956
000120 70 44 59 3c da 24 9a be 99 94 10 3f d6 1a 2a 3d
       0.013260946 -0.3010624 0.5647674 0.0415295
000130 13 66 56 3d 43 0c 97 3f bf ef 72 3f a7 56 58 3c
       0.05234344 1.1800617 0.94897074 0.013204253
000140 14 4b 1a 3f e8 0b f6 3d 8d 18 1a 3e af f6 e5 3d
       0.6027081 0.1201399 0.15048428 0.11228692
000150 3f b6 aa 3d 69 4c d2 3e d8 7f 93 3e f5 54 af 3d
       0.08335542 0.4107392 0.28808475 0.08561126
000160 e0 0a ab 3d 52 b7 ba be 3b a4 d4 3e 85 d8 8f be
       0.083516836 -0.36467987 0.41531548 -0.2809488
000170 9e 49 bb bf f5 b3 34 3f 7d 85 b5 3e fa 39 c8 3d
       -1.4631841 0.7058709 0.35453406 0.09776683
000180 02 ab 43 3f 43 a3 9d bd 90 44 00 3f f9 57 a1 bd
       0.7643281 -0.07697155 0.5010462 -0.078781076
000190 7d ac b0 3e a0 8c 22 3f 97 65 e1 3e 4f df db bd
       0.34506598 0.63495827 0.4402282 -0.10735952
0001a0 61 e3 94 bd 45 a5 01 be ff 40 21 3f f2 bd 62 3e
       -0.072699316 -0.12660702 0.629898 0.22142771
0001b0 63 f1 25 bf 56 60 41 3f f5 7e cb 3e d8 22 12 be
       -0.6482145 0.7553762 0.39745298 -0.14271104
0001c0 b5 a3 17 3e 7f ae 0f bf bc 9c 29 be f0 dd d2 be
       0.14808543 -0.56125635 -0.16563696 -0.4118495
0001d0 3d 63 ac 3e b6 0e 6c 3f 5a 09 74 3e 10 80 42 bf
       0.33669463 0.9220995 0.23831692 -0.7597666
0001e0 f3 bb fc be 9d bf 36 bf 83 a8 28 3f 52 c7 e6 3c
       -0.49362144 -0.7138613 0.6588213 0.028171215
0001f0 47 30 2d 3b a1 60 2c 3f b2 15 a8 be 82 6d 1d bf
       0.002642648 0.67334944 -0.32829052 -0.6149522
000200 55 16 85 3e 97 96 c7 bd 7e 15 49 3d be 77 f3 bd
       0.259936 -0.097455196 0.049092762 -0.118880734
000210 44 18 a2 3f 2d 62 8c 3f 34 ca 37 3e 27 b5 e6 bd
       1.2663655 1.0967461 0.17948228 -0.11265021
000220 71 b3 e8 bd c9 71 da be 4e bb 85 3f b9 dd 6f bd
       -0.11362351 -0.42664936 1.0447786 -0.05856106
000230 d2 0e 43 bc 0d 46 b5 3f 58 cc 80 3f 28 34 06 be
       -0.011905389 1.4162003 1.0062361 -0.13105834
000240 29 79 28 3f fc 81 a2 bd 1c e9 9a 3c 0d 7c ad bd
       0.65809876 -0.07934949 0.018909983 -0.084709264
000250 64 2d 6c 3f dc 40 62 3f 82 a9 8e 3e 57 29 bf bd
       0.9225676 0.8838022 0.278637 -0.09334057
000260 d8 c4 bd bd a9 5a 07 be 52 78 68 3f 2d d2 cb be
       -0.092660606 -0.13218178 0.90808594 -0.3980879
000270 81 6a ee bd 61 be 6d 3f 73 2e 2e 3f a1 10 e2 bd
       -0.11641408 0.9286862 0.68039626 -0.11038328
000280 b1 96 4f 3f b7 36 18 be 49 05 ea 3c 67 f6 31 be
       0.8108931 -0.14864622 0.028566973 -0.17379151
000290 a9 be b2 3e cc 51 44 3f be ad a5 3e 43 79 77 be
       0.34911087 0.7668731 0.32359117 -0.24167351
0002a0 6e 09 53 be 1b 06 67 bf a6 5b 00 3f 5e 7e 0e 3e
       -0.20609066 -0.9024369 0.50139844 0.13915393
0002b0 aa 9b 62 be 7f 63 7f 3f c0 86 e0 3e ee 40 92 be
       -0.22129694 0.99761194 0.43852806 -0.28565162
0002c0 a5 64 c6 3f 3d 54 39 3e 4f 9c a7 3e 18 a7 20 bd
       1.5499464 0.1809854 0.32736441 -0.039221853
0002d0 33 4c 35 be 57 87 f8 bd b4 3b 6a 3d e7 30 12 3d
       -0.17704849 -0.12135189 0.057185844 0.03569117
0002e0 68 de eb bc 6c 37 9e bf f7 58 82 3f 2d 44 4c be
       -0.028792575 -1.2360663 1.01834 -0.19947882
0002f0 51 f6 67 3f da 3e b3 3f 46 78 91 3f ef 63 06 3a
       0.90610224 1.4003556 1.136483 0.00051265856
000300 cc 91 7a 3f c4 7b 85 bd ef a9 b4 3d ab 6d 9d bd
       0.9787872 -0.06517747 0.08821475 -0.07686933
000310 3b 15 42 3f e2 d0 82 3e 25 82 1a 3f cb d4 94 bd
       0.75813645 0.2554999 0.60354835 -0.072671495
000320 ff 36 8e bd 5b 5b 6d 3d b9 e2 4d 3f ab f4 51 3d
       -0.069440834 0.05794845 0.80424076 0.051258724
000330 02 40 ed bd 06 60 b2 3f 89 b7 6f 3f 79 c2 af bd
       -0.11584474 1.3935554 0.9363943 -0.085820146
000340 5c ea a7 3f 25 0e e0 bc 36 f8 fc 3d d7 70 17 bd
       1.3118396 -0.027350495 0.1235203 -0.036972847
000350 9b c3 01 3f 3f 26 88 3f f8 11 11 3f 35 50 26 bd
       0.50689095 1.0636672 0.56668043 -0.040603835
000360 7a 1d 10 bd e0 31 21 3e 0c ea 62 3f 2c d6 91 be
       -0.03518436 0.15741682 0.8863838 -0.28483713
000370 6f 7d 19 3d 08 ff 6e 3f ab 58 27 3f 48 e9 06 bd
       0.03747314 0.93357897 0.6536967 -0.032937318
000380 de 0a e8 3e de 51 5e 3b e7 3d 23 bc a3 9f 3c bd
       0.4532079 0.0033923308 -0.009963489 -0.04605068
000390 59 a2 66 3f 75 bd 9f 3f 93 4f 54 3e 10 4f 32 bd
       0.9009147 1.2479693 0.2073348 -0.04353243
0003a0 d6 36 b7 bc 63 8f 0b be e4 d8 ee 3d 36 4b 31 be
       -0.022365015 -0.13628916 0.11662462 -0.17313847
0003b0 89 a3 b3 3d db a0 93 3f 48 c2 52 3f 06 0e ad bd
       0.08771426 1.1533464 0.823277 -0.084499404
0003c0 09 4a 61 3f f2 8c a9 be 0a a6 02 bf 19 14 fb be
       0.88003594 -0.33115345 -0.51034606 -0.4903877
0003d0 62 d2 cc 3e 69 18 b4 3e 36 3f 94 3e ac 7f 13 bf
       0.4000426 0.35174873 0.28954476 -0.57616687
0003e0 8c 6b c1 be 16 1a 50 be c3 f1 21 3f c1 5e b7 be
       -0.37777364 -0.20322451 0.63259524 -0.3581448
0003f0 e7 8d a0 3e 5e 03 16 3f 34 89 b0 3e 6a c4 05 bf
       0.31358263 0.5859889 0.34479678 -0.5225283

gru.weight_hh f4 [48, 16]
000000 3f ab 0f c0 5f e8 a7 be ab 86 1a 3f 2b 83 24 bf
       -2.244827 -0.32794473 0.60361737 -0.64262646
000010 7b 3f 4f 3f bf e0 0e 3f 1a 26 d6 3e 60 7f 55 be
       0.8095624 0.55811685 0.41825944 -0.20849371
000020 1b c6 44 be 38 57 64 3c b3 a2 26 bf 8d 03 3d bf
       -0.19216196 0.01393681 -0.6509201 -0.73833543
000030 dc 31 98 3f 8c 94 55 3e 0a 34 67 3e f6 57 d3 bd
       1.1890216 0.20857447 0.22578445 -0.103195116
000040 b7 74 47 bf 82 cb 16 40 0d 15 cc 3e 79 e2 55 3e
       -0.7791247 2.3561711 0.3985981 0.20887174
000050 e4 9c c0 bd 59 4d e2 bc 51 90 09 3f 0d 78 da bc
       -0.094049245 -0.027624773 0.53735834 -0.026668573
000060 ab d2 87 bd b5 4d 90 3e 11 c4 78 be 80 e3 d6 3d
       -0.066319786 0.28184286 -0.24293543 0.10492611
000070 fa 06 3f bd 79 fc d5 3e 2a e2 b5 3e d4 6c 6b 3e
       -0.046637513 0.41794184 0.35524112 0.22990733
000080 33 dc 7d bf 15 14 23 bd 66 b5 17 40 c1 2e 1f bf
       -0.9916412 -0.039814074 2.3704467 -0.62180716
000090 ae 8a cd bd b7 74 91 3e 61 cd 6f 3e 60 2a 91 bf
       -0.10036217 0.2840936 0.2341819 -1.1341057
0000a0 37 15 cb 3d e4 50 36 3d c1 57 9e bf 88 09 cf 3e
       0.09916156 0.044510737 -1.237053 0.4043696
0000b0 03 be 83 be a0 0e af 3f fe 3c 0a 3f 20 67 2a 3f
       -0.25730905 1.3676338 0.53999317 0.66563606
0000c0 9f 05 16 bf ea 53 55 be 64 82 19 3f f6 82 47 bf
       -0.5860233 -0.20832792 0.59964585 -0.77934206
0000d0 c0 a1 31 3f 3d 06 4b 3f 72 91 70 bd a7 47 31 bc
       0.69387436 0.79306394 -0.058732457 -0.010820306
0000e0 d1 e8 0c bf c0 2b 82 3e fe 0b 11 3f 40 61 a4 3e
       -0.5504275 0.25424004 0.56658924 0.32105446
0000f0 79 2c 6f bc f2 69 7d 3d b0 71 b8 bc 42 20 8e bf
       -0.014598005 0.061868615 -0.022515148 -1.1103594
000100 55 3d b5 bd 1e 0d 7f 3e d3 d2 1d be bb 44 52 be
       -0.08849589 0.24907348 -0.15412454 -0.20534031
000110 15 cc bb 3d 55 2c 06 3d fd e4 84 3e d2 8c c1 be
       0.09169785 0.032757122 0.25955954 -0.3780275
000120 7b 04 5b 3e e6 5a 6f 3c 2c be 06 be 8e d5 2b bf
       0.21388428 0.014609074 -0.13158482 -0.67122734
000130 5e 8a 1d 3f b2 68 c9 3e b5 76 5a 3d 00 22 55 3f
       0.61539257 0.3933769 0.053335864 0.83255005
000140 66 28 a9 3c 6d 4e e4 bd a5 10 a7 bd a6 e4 e2 bd
       0.020649146 -0.11147771 -0.081574716 -0.110787675
000150 60 d4 5a 3e 61 5d 67 3f 3a cf 7a bd a9 5b 63 be
       0.21370077 0.9037686 -0.061232783 -0.22202934
000160 4d 28 66 be f5 8f 86 3e 24 a6 cc 3e 8e d4 26 be
       -0.22476311 0.26281705 0.39970505 -0.1629202
000170 b2 21 2f 3e 1c 79 c7 bd cd 21 04 be a7 62 89 bf
       0.17102697 -0.09739897 -0.12903519 -1.0733231
000180 f2 d1 34 bf 79 ff 96 be e0 38 92 3e a3 a8 ed 3e
       -0.7063285 -0.29491785 0.28559017 0.46417722
000190 f2 be 3f 3f 32 43 27 3f a8 f8 a5 bf ba 23 09 bf
       0.74900734 0.65336907 -1.2966509 -0.5357014
0001a0 b4 8c 20 bf ab b7 48 bd ad 1e de 3e 5d 3c ca be
       -0.62714696 -0.049003284 0.4338278 -0.3949918
0001b0 b8 14 ff ba 1b 22 93 3e 47 97 01 3f c4 58 40 bf
       -0.0019461131 0.28736958 0.50621456 -0.75135446
0001c0 6c e6 2e 3f aa 04 39 bd 4b c2 60 bf 14 8f ab be
       0.68320346 -0.045170464 -0.8779647 -0.33507597
0001d0 b0 1c 50 bd 43 53 81 3e bb fc d7 3e a3 26 02 40
       -0.05080861 0.25258836 0.42185006 2.0336082
0001e0 f4 c0 42 3e a0 6a 92 3e 90 58 96 3d 12 a6 c7 3e
       0.19018918 0.28596973 0.07341111 0.3899389
0001f0 a5 b0 27 3e 98 5d b4 be d1 65 38 bf 7d e0 de 3d
       0.16375978 -0.35227656 -0.7203036 0.108826615
000200 ed 7e e0 be b0 c6 aa be e2 cc 19 bf c9 b1 0a be
       -0.43846837 -0.33354712 -0.6007825 -0.13544382
000210 32 0c 19 be 32 c3 e5 3d ea 29 9a 3d 6a f6 5e bd
       -0.14946058 0.11218871 0.07527526 -0.054434218
000220 3c 3e 43 3f bb c2 0b 3e cc 62 87 be 7d ef 42 bd
       0.7626684 0.13648503 -0.26442564 -0.047591675
000230 22 94 fe 3d ac 5d a5 3e 3f cb 10 3e c3 94 15 be
       0.12430598 0.32298028 0.14140032 -0.1460753
000240 5c f1 08 be 4b 00 6d 3d 3a d8 d9 3c 38 99 9c be
       -0.13373321 0.057861608 0.026592363 -0.30585647
000250 20 99 61 3d af 18 0d 3e e7 e9 e4 3d 31 44 99 bd
       0.055077672 0.13778947 0.11177426 -0.074837096
000260 6b 1f c1 bd 2b 03 cc 3e 86 c2 38 be ee bf 8e be
       -0.094298206 0.39846167 -0.18042955 -0.27880806
000270 e8 57 52 bd 5f d0 04 3e 7c 3a 63 3e d3 fb 14 be
       -0.051353365 0.12970112 0.22190279 -0.14549188
000280 1e b4 ea be 4f ed 0e 3f 46 ce 07 3e 13 bf 96 be
       -0.45840544 0.55830854 0.13262281 -0.29442653
000290 f7 87 73 3d 25 f6 77 3f 47 e6 a3 be db de 98 bf
       0.059455838 0.9685996 -0.32011625 -1.194301
0002a0 35 63 d4 be 6a 08 2a 3e 5c 9a 0f bf 77 95 9c bf
       -0.4148194 0.16604772 -0.5609491 -1.2233113
0002b0 7a d4 14 3d 45 0a 04 3f ab bd 1e bc c0 9e 27 bf
       0.036335446 0.5157817 -0.009688775 -0.6547661
0002c0 04 11 af 3f 7e ff 76 3f a6 57 f2 bf fa 4d 21 40
       1.3677068 0.964836 -1.8932998 2.5203843
0002d0 10 d9 47 c0 bb d3 10 bf c5 32 1b 3e 9a c9 f5 bf
       -3.1226234 -0.56573075 0.15156086 -1.9202149
0002e0 98 3e c6 3e be de ed bd 25 d7 fe 3f 55 a5 a4 c0
       0.3871963 -0.1161475 1.9909407 -5.145182
0002f0 87 11 15 3f 3b 8b 74 bf 6e a6 86 bf d7 41 15 40
       0.5822987 -0.9552495 -1.051954 2.3321435
000300 30 09 3b 3e 8d 01 21 3e ae bb 9b be 23 b8 9d bd
       0.18265224 0.15723248 -0.30416626 -0.07701137
000310 53 f5 57 3e f8 da 90 3e bf c1 54 bd cd 25 91 be
       0.21089678 0.2829206 -0.051942583 -0.28349152
000320 cd c1 82 3d c6 8d 96 bd 72 71 03 3e f0 30 86 3c
       0.06384621 -0.0735126 0.12836245 0.016380757
000330 3a ff 1a bf 4d 83 96 3e 49 de 5e be be 23 50 be
       -0.60545695 0.2939705 -0.21764483 -0.20326135
000340 6d a2 cd 3c 38 d3 df bd 40 7d 32 3e 63 e4 95 be
       0.025101865 -0.10928959 0.17430592 -0.29275808
000350 5c a4 78 bc 5f 71 e5 3d 71 f6 ab 3e 4e be 0a 3e
       -0.015175905 0.112032644 0.33586457 0.13549158
000360 5b 48 d0 3c 6e d5 9b 3d 93 db 94 bd 16 3a b2 bd
       0.025425127 0.07609068 -0.07268443 -0.08702485
000370 45 be 0e 3e 64 3d 2b be a2 95 99 3c 0e ba 0c 3d
       0.1393977 -0.16722637 0.018748108 0.034357123
000380 0f a7 5d bf a6 06 83 3c 3c 0e 57 bf 09 79 63 3f
       -0.86583036 0.015994381 -0.84006095 0.8885656
000390 a0 e9 07 bf ac 59 27 bd 4d 79 70 be f4 11 99 bf
       -0.5309086 -0.040857002 -0.23483773 -1.1958604
0003a0 e4 fb 02 3f c2 5a d9 be 20 d3 01 3e dd a9 77 bf
       0.51165605 -0.42452055 0.12678194 -0.96743566
0003b0 fc c5 f6 3e 55 f0 75 3f 80 a6 d5 3f 45 41 22 3d
       0.48197925 0.9606984 1.6691437 0.039613027
0003c0 dd d4 89 3f 87 ec f5 bd 96 7f 13 c0 e8 49 f7 3e
       1.0768086 -0.12008005 -2.3046622 0.48298573
0003d0 94 d8 91 be 7e 7a 95 3f 6e 53 68 bf a2 6b e9 bd
       -0.28485548 1.1678007 -0.90752304 -0.113974825
0003e0 52 b5 19 bf 34 a1 23 bf 9d c8 e0 be 1d f1 a2 bf
       -0.600423 -0.6391785 -0.43903056 -1.2729832
0003f0 f4 7a f7 bf 27 03 cd 3f 43 5e 8e be 66 0d 64 c0
       -1.9334397 1.6016587 -0.2780629 -3.5633178

gru.bias_ih f4 [48]
000000 0b c8 66 3f 4c 57 4f 3f 5e 85 27 3f 66 f9 d2 3f
       0.9014899 0.8099258 0.6543788 1.648236
000010 a4 fd 7b 3f 8f b5 6c 3f 2c 44 75 3f 36 2a ef 3e
       0.984339 0.92464536 0.9580715 0.46711892
000020 62 65 84 3f ff 88 9e 3f 78 01 4f 3f 3c 56 26 3d
       1.034344 1.2385558 0.80861616 0.040609583
000030 0b 4e 85 3f 72 5d a5 3f 97 d9 28 3f db 20 4c 3e
       1.0414442 1.2919142 0.65957016 0.19934408
000040 3a fd 38 bf 45 14 ec be 6c c7 51 bf cd 87 43 bf
       -0.72261393 -0.46109214 -0.8194492 -0.7637909
000050 46 f9 27 bd 86 63 8a be 89 14 23 bf 6b e9 1d bf
       -0.04100921 -0.27029055 -0.6370321 -0.6168429
000060 9d 84 d2 be 63 5f cf 3c 25 ab 1d bf 23 b5 1f bf
       -0.411168 0.025314039 -0.6158927 -0.6238577
000070 ba 6d 96 be 6e 6e 95 be a6 45 85 be 0f 7a f4 be
       -0.2938059 -0.29185814 -0.260297 -0.47749373
000080 40 6f 52 3d eb 86 66 be 90 a1 a2 bc a7 fd b6 be
       0.051375628 -0.22512405 -0.01985243 -0.35740396
000090 83 c6 20 3e cf 8e 3b 3e 38 e4 5b 3e 34 68 f5 bd
       0.15700726 0.18316196 0.21473777 -0.11982766
0000a0 a4 3f 4c be a8 ee 7c bd 33 72 04 bd 85 32 0b 3e
       -0.19946152 -0.061751038 -0.03233547 0.1359349
0000b0 af f0 b1 3d 31 b8 ef 3d 18 4d 4d bd 49 21 4d 3d
       0.08688485 0.117050536 -0.05012235 0.05008057

gru.bias_hh f4 [48]
000000 70 e7 59 3f ad 01 5c 3f fd e6 35 3f 09 6c c9 3f
       0.8511877 0.8594006 0.71055585 1.5736095
000010 b5 8b 67 3f 20 45 3f 3f f8 1e 48 3f 7c 55 59 3f
       0.9044755 0.7471485 0.78172255 0.84896064
000020 a9 74 5d 3f 34 3e bf 3f 74 f2 81 3f e3 da e6 3d
       0.86506134 1.4940858 1.0152116 0.11272218
000030 d4 12 88 3f 22 41 96 3f ca 12 34 3f a6 d1 89 3e
       1.0630746 1.1738627 0.7034117 0.26917762
000040 bd 5b 38 bf f1 28 b9 be 59 a0 28 bf 94 dd 35 bf
       -0.7201498 -0.36164048 -0.6586967 -0.71041226
000050 bf 30 57 be b3 35 c2 be 8b 07 a7 be fc ed 44 bf
       -0.21014689 -0.37931594 -0.32622942 -0.76925635
000060 ce 3b 05 be bb b6 0a bd 0f fa d3 be 02 be 5b bf
       -0.13011095 -0.03386567 -0.41401717 -0.85836804
000070 08 d5 cc bd 9f 37 19 be b7 23 92 be 8c 5b c0 be
       -0.1000157 -0.14962624 -0.28542873 -0.37569845
000080 9c e9 51 be fa 47 67 3e 2a 4d 81 3e a0 ee 5d bd
       -0.20499271 0.2258605 0.25254184 -0.05418265
000090 b6 50 b3 bc b0 f7 89 bd e0 70 b4 bd 84 68 38 3e
       -0.021889072 -0.06736696 -0.08810592 0.1800862
0000a0 10 e8 af 3c 26 77 24 3e 86 44 7e bd 00 13 9e be
       0.02147296 0.16061077 -0.062077068 -0.3087387
0000b0 2f 31 30 be 34 8b e0 bd e0 73 52 3e a8 16 2c be
       -0.17206262 -0.10964051 0.20552015 -0.16805518

linear.weight f4 [16, 436]
000000 ba ef 83 be 51 26 06 bf 1a f4 e6 bc 90 ba 97 be
       -0.25768834 -0.52402216 -0.028192569 -0.29634523
000010 9e 39 eb ba 75 81 ed be c8 22 2b 3f 75 47 aa 3e
       -0.0017946248 -0.4638783 0.66849947 0.33257642
000020 62 a8 52 be a2 ea 7b 3e b2 cd 40 3f b4 42 bf be
       -0.20572045 0.24601224 0.75313866 -0.37355578
000030 24 a6 a1 3d c3 a1 b9 be fa 2f b5 be ad 09 cd 3d
       0.07893017 -0.36256227 -0.35388166 0.10011611
000040 33 cf f3 be 85 80 a9 be 1e 63 15 bf 46 a7 0f be
       -0.47619018 -0.33105865 -0.58354366 -0.14028654
000050 3b 91 1b bf 43 c3 80 bd 32 96 a6 bc 2b 00 a0 be
       -0.6076848 -0.06287243 -0.02033529 -0.31250128
000060 5c 7e e6 be 56 d1 e6 be ee db 0b 3f 38 28 1f 3f
       -0.4501828 -0.45081586 0.5463246 0.62170744
000070 48 90 9b 3e e1 8e 12 3e 8b bd 20 bc 6e 00 9c bf
       0.30383515 0.14312316 -0.009810816 -1.2187631
000080 b1 d8 3c 3e c0 b3 81 3d 80 4e 98 be d8 0d 49 be
       0.18442036 0.06333113 -0.2974739 -0.19634187
000090 44 80 9f 3e ab c9 58 bf 46 8d 2d bf 13 25 9c be
       0.31152546 -0.8468272 -0.6779369 -0.30497035
0000a0 a0 88 1c 3d ae 17 c0 be 38 38 04 bf 0c c4 1f bf
       0.038216233 -0.37518066 -0.51648283 -0.6240852
0000b0 1d 47 17 bf 2e 9b 1d bf e3 3a 98 be 21 be b7 be
       -0.59092885 -0.6156491 -0.29732427 -0.35887244
0000c0 e2 df 8a bf 23 06 41 bd 02 ad 38 bf c9 4f b9 3e
       -1.0849574 -0.047124993 -0.7213899 0.36193684
0000d0 7e ce f9 be c3 80 18 bf 9b 03 0f bf 4d 01 e3 bd
       -0.48790354 -0.59571475 -0.55864877 -0.110842325
0000e0 87 12 27 3e c5 97 1d bf e8 d1 b8 3e 52 85 43 bf
       0.16315661 -0.61559707 0.36097646 -0.76375306
0000f0 40 de ba 3e 6a fe a8 be 30 9a a4 be b3 eb b2 bd
       0.36497688 -0.33006603 -0.32148886 -0.08736362
000100 2d 8a 1f 3e 95 9d 0d be c3 ec 35 3e cb c1 42 3f
       0.15580054 -0.13829644 0.17766099 0.76076955
000110 bb ef 16 3f 9a ec 18 3f 93 6f 07 3f e8 1e 05 bf
       0.5895955 0.59736025 0.52904624 -0.52000284
000120 45 16 18 3f a5 b8 f4 be ea e7 da 3d 56 8c 10 bf
       0.5940898 -0.47797123 0.10688765 -0.56464136
000130 de 60 ac bd 6f 9b 3b be 7d 31 80 bf 76 c9 77 3e
       -0.084169134 -0.18321012 -1.0015103 0.24197945
000140 38 4b 25 3f d4 47 1b bf f5 df d1 be fc 77 cb bd
       0.645679 -0.60656476 -0.40991178 -0.099349946
000150 53 4e 36 bf fa 97 e1 3d 87 00 b1 be 8f 00 28 bf
       -0.71213263 0.11015315 -0.34570715 -0.6562585
000160 61 55 d2 be 4e b3 d9 3d 7e 45 0e be 2a 09 a6 bd
       -0.41080764 0.10629903 -0.13893697 -0.08107217
000170 9b 88 c7 3d 39 cf 13 bf 35 91 97 be 8b 85 29 be
       0.09742852 -0.5773807 -0.29602972 -0.16554849
000180 29 a8 4e 3e 8a a8 24 3e 73 36 72 be bf d8 0c bf
       0.20181336 0.16079918 -0.23653583 -0.5501823
000190 de 24 fb 3c be 11 5c 3e c0 a5 25 3d c3 9c c2 3d
       0.030657228 0.21491143 0.040441275 0.09502556
0001a0 ed 5a c2 3d 77 8b 54 3d 8d 52 e4 3d 59 27 1e 3d
       0.09489999 0.051890817 0.11148558 0.038611744
0001b0 50 b2 17 bf 53 db 80 3f 05 cd 0f bf 8f aa c1 be
       -0.5925646 1.0066932 -0.5617221 -0.37825438
0001c0 a7 78 a0 be 60 15 01 3f 8f 33 e5 3e ba 7c 52 3e
       -0.3134205 0.5042324 0.447659 0.20555392
0001d0 23 6e 2e 3e bd 2f 15 3f f8 c6 e6 3e a8 8e de be
       0.17034201 0.5827597 0.45073676 -0.43468213
0001e0 97 b9 3a 3f c4 79 5e be 97 b6 4e 3e cd 2d 74 bf
       0.7293944 -0.21726137 0.2018684 -0.95382386
0001f0 2a c7 f0 be 5d 8a 00 bf 26 00 7d be 39 e5 da bd
       -0.4702695 -0.50211126 -0.24707088 -0.10688252
000200 33 e8 8c 3e 78 a6 a1 be e7 68 8c bf 0b 8a 08 be
       0.27520904 -0.31572318 -1.0969514 -0.13333909
000210 e6 c6 ae be 3a 66 db 3e c1 94 4d 3f ab fb 66 3f
       -0.34136122 0.4285143 0.80305105 0.90227765
000220 5f 7a c8 be 09 08 45 bf bc fe 35 3e f8 7c 79 3e
       -0.39155862 -0.76965386 0.17772955 0.24364078
000230 70 bd 24 bf 07 54 2a 3e d2 07 72 3f 75 4a b1 3e
       -0.6435156 0.16633616 0.9454318 0.3462712
000240 ba f9 7c 3e 9b 7b 19 3e ff 19 93 3e fd bb 80 3e
       0.24704638 0.14988558 0.2873077 0.25143424
000250 34 5b 87 be 3d 38 18 bf d8 b0 59 3e 6a 8a 4b 3f
       -0.2643677 -0.5946081 0.21258867 0.7950808
000260 e9 c5 42 3e 6c 93 ef 3e 31 36 5e be e0 00 0f 3f
       0.19020809 0.4679216 -0.2170036 0.5586071
000270 f9 8b 5c be 7b b5 9a 3d d0 e4 d3 be 8c 11 9c be
       -0.2153777 0.07554146 -0.41385508 -0.30482137
000280 02 8b a0 be 6d 21 c2 3e c5 b2 e2 bd ec a6 33 bd
       -0.31356055 0.37916127 -0.11069254 -0.04386036
000290 f1 2e 7d 3f 19 3a c6 3d 09 6a 0c 3f 33 00 79 3e
       0.9889975 0.0967905 0.54849297 0.24316482
0002a0 6f 34 9f 3e 8b a6 cf be 5a b2 e7 3e 8c b3 e3 3d
       0.3109469 -0.4055675 0.4525326 0.1111823
0002b0 d2 49 1f 3f 6a da 23 3e 94 95 b0 bd 11 50 1e 3f
       0.62222016 0.16001287 -0.0862228 0.6184092
0002c0 c6 3a 7e be f1 d2 6d 3e ec 87 9e be d9 03 b5 bd
       -0.24827108 0.23224999 -0.30963075 -0.088386245
0002d0 31 fe 14 3e b2 12 07 3f 68 25 6f 3e 0f 16 31 3c
       0.14550091 0.527629 0.23354113 0.010808482
0002e0 8c ba e5 3d 56 cf 27 3e 5f 99 20 bf b9 e6 12 3d
       0.112172216 0.16387686 -0.62734026 0.035864566
0002f0 6d f6 62 3f 21 33 1a 3e 0c e9 31 be ce bb 9d 3e
       0.88657266 0.15058567 -0.17374057 0.30807346
000300 a8 b9 48 bd 30 12 8f 3f d9 c9 72 3e d7 2b bd 3e
       -0.04900518 1.1177425 0.23709811 0.3694751
000310 13 9a 55 3e c1 cd 34 3e ba df d1 3e 76 70 2d 3f
       0.20859556 0.17656614 0.40991002 0.67749727
000320 3c 7c f7 bd 14 f1 33 3e b8 76 2a 3d 7e 31 87 3f
       -0.12084243 0.17572433 0.041617125 1.0561979
000330 a7 d3 91 3e 00 9f e4 3e 5d b8 2a bf 0b 3d c3 3e
       0.2848179 0.44652557 -0.66687566 0.3813251
000340 f5 8b a6 3e 44 5f 0c 3f bf ea 0c 3f c2 53 32 be
       0.32528654 0.54832864 0.55045694 -0.17414764
000350 51 53 5b 3f f0 dd ea 3e 23 a8 0e 3f c9 74 f6 3e
       0.85674006 0.4587245 0.55725306 0.48135975
000360 7b ce 83 bd 3b 6c 46 3e 43 c3 61 3f ef f9 18 be
       -0.064358674 0.19377224 0.8818857 -0.14939092
000370 12 74 0c be 69 c8 b4 3e ea 8a 11 3e 9f 14 33 be
       -0.13716152 0.3530915 0.14213148 -0.17488335
000380 4f 52 80 3d 35 05 e9 be 16 f1 91 3e fe d0 1b 3e
       0.06265699 -0.45511785 0.28504246 0.15216443
000390 2f ef 9e 3e 25 84 c8 bc 94 7d 26 be 5b 13 df be
       0.31041858 -0.024477074 -0.16258842 -0.43569455
0003a0 9e b9 a8 3e e6 ef 85 3f ce 07 48 3f 45 a7 e8 3e
       0.32954115 1.0463836 0.7813691 0.45440117
0003b0 13 b9 01 3f 61 c9 f0 be 19 e0 22 be 67 03 13 be
       0.50673026 -0.4702864 -0.15905799 -0.14356767
0003c0 50 74 b6 3e 25 6b 4f 3f 69 05 cf be b7 c5 5a be
       0.35635614 0.81022865 -0.40433815 -0.21364485
0003d0 4b 50 99 be 28 d9 9f bd 56 9c 85 3f 97 26 e7 3f
       -0.2994407 -0.07805091 1.0438335 1.8058652
0003e0 70 7d e6 3c c7 3c 6e 3d ef 34 a3 3b d3 05 99 3e
       0.028135985 0.05816343 0.0049806754 0.29887256
0003f0 5e a8 33 3e 31 df b1 3d fa eb 80 3e 98 55 77 3e
       0.17544696 0.086851485 0.25180036 0.24153745

linear.bias f4 [16]
000000 09 d2 63 3e 63 2d 47 3c e8 15 89 3c 64 20 aa bd
       0.22248091 0.012156817 0.016734079 -0.08306959
000010 f8 79 2d bd 64 8c 80 bd a8 4f ef 3e 1c af c2 3d
       -0.042352647 -0.062767774 0.4674046 0.09506056
000020 a9 5a e0 bd 1a 67 4c be de a2 36 bd 73 f2 7f 3e
       -0.10954792 -0.19961205 -0.044588916 0.24994831
000030 ee 69 a7 be 64 1e f3 bd 7c 36 73 3d 5d c1 bb 3d
       -0.32698005 -0.11871031 0.059378132 0.091677405

layer1.linear.bias f4 [32]
000000 43 20 4a 3d df 9a dd bc 77 d8 71 bd 34 b4 eb 3b
       0.049347173 -0.027051387 -0.059044328 0.0071931127
000010 f5 0e 4b 3d ba 68 fc bc 3e 55 ae 3c 48 34 50 3e
       0.04957481 -0.030811656 0.021280881 0.20332444
000020 57 0b c9 3d df b6 5f 3d 92 f8 01 bd 4f 78 b2 3b
       0.09816616 0.05461776 -0.031731196 0.005446471
000030 b2 34 a7 3d 3c 99 06 3e a6 41 61 bb e3 73 f0 bc
       0.08164348 0.13144392 -0.0034371405 -0.029352134
000040 5b 46 32 bd 17 6c 0d bd 79 ce 20 3d 11 34 82 bc
       -0.043524127 -0.03452691 0.039259408 -0.015893968
000050 80 ac 75 bd 9f 8e 00 bb b7 b7 69 3d b9 77 f3 3c
       -0.059978962 -0.0019616259 0.05705997 0.029720174
000060 8c f1 50 bd 01 dc a3 bd 1d 8a aa bd dd e9 55 3a
       -0.051011607 -0.08000947 -0.08327124 0.00081601535
000070 d5 2d 2c 3e 33 16 8b 3d 89 04 74 3d 1f 5d 77 3d
       0.16814359 0.067913435 0.059574638 0.06039154

layer1.linear.weight f4 [32, 32]
000000 52 e5 f1 3d cc 40 1c 3f f2 6f 9f 3e 60 20 b7 bd
       0.118113175 0.6103637 0.31140095 -0.08941722
000010 12 17 81 be c6 aa 8b 3e b3 20 8d 3e 76 56 71 3e
       -0.25212914 0.27278727 0.2756401 0.23568138
000020 b1 c8 3f 3d 0b fa 22 bf a7 f5 29 3e 13 cf 94 be
       0.046822254 -0.63662785 0.16597615 -0.29064235
000030 28 5f bf be f4 ba 2d bf 35 14 60 3d 71 79 47 3e
       -0.37377286 -0.6786339 0.05470677 0.1947992
000040 98 be 82 bf ab 45 84 bf 6e dc 7e bf 27 f4 34 bf
       -1.0214415 -1.0333761 -0.995551 -0.70685047
000050 f0 f1 cf be 0e 05 b2 be c3 0e 35 3f c3 a0 8d be
       -0.4061427 -0.3476948 0.7072565 -0.27661714
000060 6c c2 49 3f 72 59 6d 3f e1 5b f2 3d c2 ea 12 3f
       0.7881229 0.9271461 0.11833931 0.5738946
000070 e1 fa 89 3e c4 8d 4b 3f 4a ae 9f bd 7a 15 06 3f
       0.26949218 0.7951319 -0.07796915 0.5237652
000080 d0 2b d2 bd 55 0e b4 3e 49 8e 4f 3c 2a de 59 bf
       -0.10262263 0.35167184 0.012668201 -0.8510462
000090 72 44 9a be ae 18 9f 3d 8a 54 19 3f 46 f3 ae 3e
       -0.30130345 0.07768379 0.5989462 0.34169978
0000a0 3f 45 12 bf 87 25 b1 3d 8d d9 a9 3e 1e 65 f4 bd
       -0.5713691 0.08649736 0.3317379 -0.11933349
0000b0 71 2e 3f bf e3 58 87 be aa 41 3f 3c a5 80 36 bd
       -0.7468024 -0.26435003 0.01167337 -0.04455628
0000c0 da b6 af bf e7 1f e3 be a5 0a 9b 3f 40 42 ce bf
       -1.3727677 -0.44360277 1.2112623 -1.6113968
0000d0 94 22 da be 44 3e 06 3f 9e 0e 99 3e f2 6c 1f bf
       -0.42604506 0.5243876 0.29893965 -0.6227561
0000e0 fa 55 6f bc f5 54 81 3f 2e ad 77 3e d4 f3 03 be
       -0.014607901 1.0104052 0.24187157 -0.12885982
0000f0 31 35 59 be 46 0e a0 3e cc 1f c3 3e 6b 30 2e 3e
       -0.21211697 0.3126089 0.38110197 0.17010657
000100 30 58 1b bd 06 80 9d 3d 3c fb 5d 3e ae 70 ca be
       -0.0379259 0.07690434 0.2167787 -0.39539093
000110 98 b2 c8 3d 99 c2 df 3d 2d 3e df 3e 52 b0 3a 3e
       0.09799689 0.109257884 0.43602124 0.18231323
000120 33 f3 3e be 05 36 b8 be 30 44 16 3f 07 c8 6c 3e
       -0.1864746 -0.35978714 0.58697796 0.2312318
000130 c6 07 6d be 10 a9 2a 3e d8 e5 67 bd 14 aa df 3d
       -0.23147497 0.16666055 -0.05661568 0.10921112
000140 46 d4 9b 3f f1 85 17 3f 14 1f 30 3f 3a 92 19 bf
       1.2174156 0.59188753 0.6879742 -0.5998875
000150 7d 22 a0 bd 00 b9 d2 3e 91 ce d1 be 97 36 1b 3f
       -0.07819078 0.4115677 -0.4097791 0.6063017
000160 73 c8 5e be 61 56 d2 bd bb f2 bc 3c 56 65 4f 3d
       -0.21756153 -0.10270382 0.023064962 0.05063375
000170 35 a5 f9 be 69 75 e3 be e8 33 09 bf 91 94 41 3c
       -0.48758855 -0.44425514 -0.5359483 0.011815206
000180 29 26 02 3f 84 27 11 bf 6b 88 a8 3e fe 45 e5 bd
       0.5083948 -0.5670092 0.3291658 -0.111949906
000190 41 79 42 3e a7 c3 63 3f 61 4c 4e be 51 fd 00 be
       0.18991567 0.88970417 -0.20146324 -0.12596633
0001a0 d9 17 01 bf 89 fb 23 bf 33 9b 96 be 80 eb 8f 3e
       -0.50427014 -0.6405569 -0.29415283 0.2810936
0001b0 07 6c 79 3e 1a 5e ec 3b 94 15 bf 3e fa 5b 97 3e
       0.24357615 0.007213366 0.3732115 0.2956236
0001c0 08 f7 30 be 74 e9 e4 be 05 1a 23 3c 1c 69 c8 bf
       -0.17281735 -0.4470936 0.009954934 -1.5657077
0001d0 6e c0 3d bf 9c 0d 6f be dd 6d fa 3e a5 6c d0 3e
       -0.7412175 -0.23345035 0.48911944 0.4070789
0001e0 dc ea 11 bf 24 82 8c 3e b2 ad 6c bf c2 b5 a4 3e
       -0.5699899 0.2744304 -0.9245254 0.3216992
0001f0 4d ab b0 3b 72 e6 78 3d ba 3f 07 bd a1 23 0b be
       0.0053915144 0.060766645 -0.03301976 -0.1358781
000200 ae b0 f8 3e 9f 3e 38 bd c2 5d 88 be 4f a8 ad be
       0.48572296 -0.044981595 -0.26634032 -0.33917472
000210 16 95 b0 3e ad 01 06 3e ce ad a8 3f 51 cb c6 be
       0.34488744 0.13086577 1.3178041 -0.38826993
000220 16 3a 1e bf 54 58 27 bf b7 b6 7a be 69 75 fd 3d
       -0.6180738 -0.65369153 -0.24483763 0.1237591
000230 2d b5 8a be 12 1c ab be 80 39 80 be 91 b5 43 be
       -0.2709135 -0.33419853 -0.2504387 -0.19112231
000240 f3 1e 83 3e 05 8b 2e 3e 99 39 b5 3e 38 fa 94 3f
       0.2560955 0.17045219 0.35395506 1.1638861
000250 e4 95 11 bf 3e ce 3f bf 8c 92 84 be 10 a3 de 3e
       -0.5686934 -0.74924076 -0.25893056 0.43483782
000260 fb 0a 04 bf 0f f4 cc bd 08 f8 c4 bc 86 c9 a3 3f
       -0.51579255 -0.10007488 -0.024044052 1.2795875
000270 ff 35 48 3f 88 16 58 3e 3a 51 45 3e 0a 34 98 3f
       0.7820739 0.21102345 0.19269267 1.1890881
000280 75 25 96 bd af a9 17 bf 04 81 86 3d 1a 15 3c bf
       -0.07331363 -0.5924329 0.065675765 -0.734697
000290 80 c4 29 3f 91 6a 24 be 6d 79 9f 3e 1e 5f 11 bd
       0.6631546 -0.16056277 0.31147328 -0.0354911
0002a0 1d 93 21 bf ae 81 56 bf 2b 70 48 bd ce 3e 59 3f
       -0.631151 -0.83791625 -0.048935097 0.8486146
0002b0 30 8c 79 bf f3 3d 67 be a0 1f 3d be bc 66 ea bb
       -0.97479534 -0.22582226 -0.18469095 -0.00715336
0002c0 25 10 5e 3f 6d db 42 bf 49 5e ba bf 74 ce 12 3e
       0.86743385 -0.7611607 -1.4560024 0.14336568
0002d0 15 e5 e3 bd 31 35 c3 3d bb 73 4f bf a2 32 e3 be
       -0.11127678 0.0953163 -0.81035966 -0.44374567
0002e0 10 a3 c4 3d 35 00 2a 3e 8d a0 94 3f 6d 9a 80 3e
       0.09601414 0.16601641 1.1611496 0.25117818
0002f0 eb 48 49 3f 87 0b 4c bf ae 7e ca bf 99 e9 02 bf
       0.7862689 -0.7970509 -1.581991 -0.5113769
000300 6b c4 42 3f 68 ed 92 3e d0 40 24 3f 83 83 0c 3f
       0.7608096 0.28696752 0.64161396 0.5488817
000310 7d 35 72 bd 70 d2 19 bd 4e 70 d1 3e 18 e2 6f 3e
       -0.05913304 -0.037554204 0.40905994 0.23426092
000320 e0 80 00 be 7e 32 09 be f5 b6 a8 be 4e cd d7 3e
       -0.12549162 -0.13398167 -0.32952085 0.42148823
000330 cc 98 a5 be 41 4c 2c 3e 38 28 62 3e 66 84 08 bf
       -0.32343137 0.16825964 0.22085655 -0.53327024
000340 a8 0c 97 3e c9 7a 23 bd d9 92 9d 3e 76 66 b6 3f
       0.29501843 -0.03991202 0.30776098 1.4250019
000350 88 60 f6 be 36 90 2d 3c e7 0e 0e be 54 68 14 3f
       -0.48120522 0.010593465 -0.13872872 0.5797169
000360 14 d3 e5 bd 5a a5 71 bf ef a9 76 3e db b0 2c bf
       -0.112219006 -0.9439293 0.24088262 -0.6745736
000370 3a c9 ac 3e a3 c4 3a bf 3d dc 29 3e 57 9c b7 3e
       0.33747274 -0.72956294 0.1658792 0.35861465
000380 11 a6 eb be b3 d3 86 be 80 6d 01 3f ea 93 fa 3d
       -0.46025136 -0.2633339 0.5055771 0.122352436
000390 b3 a7 1e 3d 62 f3 e8 3e c2 3c 10 3e 0a 4a 25 3f
       0.03873415 0.45498186 0.14085677 0.645661
0003a0 d4 b6 18 3e ce 11 7e 3f b6 5a 2b 3f 83 fe d9 be
       0.14913493 0.9924592 0.6693529 -0.4257699
0003b0 42 4a 92 3f 01 6c 78 3f 7e 35 e0 be 3a 8c 26 bf
       1.1428912 0.970398 -0.4379081 -0.6505772
0003c0 b1 20 e2 3e 4a d5 d9 3e b5 bc ab be 8f e3 ba 3f
       0.44165567 0.4254554 -0.3354241 1.4600695
0003d0 fb d8 19 3e 6a f8 45 bf c7 70 54 bf 97 ef 4a bf
       0.15024178 -0.77332175 -0.82984585 -0.79271835
0003e0 57 18 8a 3f b6 72 56 bf 15 67 b5 bf cf 63 4c bf
       1.0788678 -0.83768785 -1.4172083 -0.79839796
0003f0 00 d6 94 3d 70 28 04 3f 36 d6 90 3f c5 88 2e bf
       0.0726738 0.516242 1.1315372 -0.68177444

layer1.agg.bias f4 [32]
000000 00 00 00 00 00 00 00 00 00 00 00 00 00 00 00 00
       0.0 0.0 0.0 0.0
000010 00 00 00 00 00 00 00 00 00 00 00 00 00 00 00 00
       0.0 0.0 0.0 0.0
000020 00 00 00 00 00 00 00 00 00 00 00 00 00 00 00 00
       0.0 0.0 0.0 0.0
000030 00 00 00 00 00 00 00 00 00 00 00 00 00 00 00 00
       0.0 0.0 0.0 0.0
000040 00 00 00 00 00 00 00 00 00 00 00 00 00 00 00 00
       0.0 0.0 0.0 0.0
000050 00 00 00 00 00 00 00 00 00 00 00 00 00 00 00 00
       0.0 0.0 0.0 0.0
000060 00 00 00 00 00 00 00 00 00 00 00 00 00 00 00 00
       0.0 0.0 0.0 0.0
000070 00 00 00 00 00 00 00 00 00 00 00 00 00 00 00 00
       0.0 0.0 0.0 0.0

layer1.agg.mlp.0.weight f4 [1, 64]
000000 16 63 91 bd 08 3a 11 3d 50 51 9d 3c 88 10 d8 3d
       -0.07098977 0.035455734 0.019203812 0.10550028
000010 14 f7 f8 bd 40 26 8d bc c0 f2 97 bc aa a6 bc bd
       -0.121565014 -0.017230153 -0.01854837 -0.09211476
000020 a6 66 80 3d 80 a2 b8 3b e0 c2 3d 3c 40 b2 a6 bd
       0.06269579 0.005634606 0.011582106 -0.08139467
000030 f8 90 f0 3c 88 5e 63 bd a8 08 28 bd a0 f9 a2 3c
       0.029366001 -0.055510074 -0.04102388 0.019894421
000040 5e 1c c1 bd b0 7d 8b 3c 4a 63 89 bd 80 24 99 ba
       -0.09429239 0.017027706 -0.06708391 -0.0011683851
000050 8c c0 50 bd 18 c8 2a bd 04 2c e6 bd 8e 31 8c 3d
       -0.050964877 -0.04169473 -0.11238864 0.06845389
000060 88 b6 c0 3c d4 66 68 3d b0 c4 3b bc 40 3a ff bc
       0.023524538 0.05673869 -0.011460468 -0.031155705
000070 40 63 7e bd 6c ae c6 3d ae 72 be bd 10 c8 68 bd
       -0.06210637 0.09701237 -0.09299217 -0.05683142
000080 b2 2d c5 bd 40 d9 e7 3d e0 c2 0f 3c 28 b6 29 bd
       -0.09627856 0.11320734 0.008774489 -0.041433483
000090 66 00 8a 3d 00 f2 0d 3a d0 b7 d2 3c 32 d5 d8 3d
       0.06738357 0.0005414784 0.025722414 0.10587539
0000a0 98 ea 85 bd de 83 95 bd 30 b1 1a bd 0c 35 58 3d
       -0.06538886 -0.07300542 -0.037766635 0.052784964
0000b0 70 56 7b 3d f2 f5 c8 bd a8 19 8d bd 98 e6 83 3c
       0.06136173 -0.09812535 -0.06889659 0.016101167
0000c0 4a fe d1 bd 94 8e ec 3d dc 0d df 3d 7c c7 1d bd
       -0.1025358 0.11550632 0.10891315 -0.03852032
0000d0 d6 ca f0 3d 00 54 e7 3b 34 d2 eb 3d 6e 3d 91 3d
       0.11757438 0.007059574 0.115147024 0.07091795
0000e0 0a e1 e8 3d ee cb e3 3d b0 27 07 bd 50 72 5f 3c
       0.11371048 0.11122881 -0.032996833 0.013638094
0000f0 78 28 ed bd fc 54 2b bd a6 b4 f1 bd b8 9f 4c bd
       -0.115799844 -0.041829094 -0.11802034 -0.049957007

layer2.linear.bias f4 [16]
000000 c6 c9 a2 3d c3 8b ef bc f4 01 7e 3d 0e 5b a4 bd
       0.079486415 -0.029241448 0.06201358 -0.0802518
000010 21 e6 04 3e 06 a4 9f 3d 06 09 20 3e f8 42 39 bd
       0.12978412 0.07794957 0.15628442 -0.045229882
000020 11 7c 92 bd bc 24 18 3e b6 dc ee 3d 35 db 28 be
       -0.0715257 0.14857763 0.11663191 -0.16489871
000030 75 d8 b7 3c f0 b0 e4 3d de c4 e3 3d e9 cb 02 be
       0.022442082 0.11166561 0.11121534 -0.12773098
