MMBenchmarkingCode/HTGN-EvoGCN/data/output/log/contacts/HTGN/model_checkpoint.pth (torch, 61426 bytes, 18 tensors)

feat f4 [92, 92]
000000 e5 a1 80 3d c2 dd 10 3e 27 7f f8 3d 25 27 9a bb
       0.06280879 0.14147094 0.121336274 -0.0047043734
000010 bb 4b f5 bb c3 ec db bc 03 32 59 3d 63 3f eb bb
       -0.0074858344 -0.026846295 0.05302621 -0.007179187
000020 8e 0d 1a 3e 13 66 30 3e 55 c2 2e 3e c4 81 28 bd
       0.15044233 0.17226438 0.1706632 -0.04113938
000030 37 7d 44 3c ee bf ea bd e5 08 2f 3e 90 83 40 bb
       0.011992744 -0.11462389 0.17093237 -0.0029375292
000040 2b 7e 2a be 70 a3 29 be 21 05 0a 3e ed 43 2d 3c
       -0.16649692 -0.16566253 0.13478519 0.010575277
000050 31 34 b9 3d 9c 05 db 3d f1 0e 9b bd 7d 93 0e be
       0.09043158 0.10694429 -0.07571209 -0.1392345
000060 7c c0 91 3d a0 66 cb 3d 9b 90 0c 3e ba 24 7b 3c
       0.071167916 0.099316835 0.13727038 0.0153285805
000070 9f e1 c3 3d 19 e2 c1 3d f6 eb 96 3d f1 8a 02 3e
       0.09564518 0.09466953 0.07369225 0.12748314
000080 54 27 5a 3c 23 14 21 bd ab 46 92 3c 5c 80 d6 bd
       0.013315041 -0.039325844 0.017855963 -0.10473701
000090 e8 be 91 3d e3 e4 db 3d bc cd e8 3d 5f b2 fb 3d
       0.071164906 0.10737016 0.11367366 0.12289881
0000a0 fb e5 49 3b 3b 5a e7 ba 57 6b 23 bd 03 c5 14 be
       0.0030807245 -0.0017650792 -0.03989729 -0.14528279
0000b0 66 8b a1 3d cf ec 31 3d 70 21 f4 3d 11 9b 15 3d
       0.07887916 0.04343873 0.1192044 0.036524836
0000c0 c6 62 b5 bd d0 e7 1a be 2b df 92 3c 84 e5 2b be
       -0.0885673 -0.15127492 0.01792868 -0.16786772
0000d0 26 e6 6b 3c d0 30 06 3e 7c 75 8d 3d 4e 83 5b bd
       0.014398133 0.13104558 0.06907174 -0.05359202
0000e0 60 c3 63 bd 8f 3a 3a 3d 0b ee 88 3c 4b ec 0c 3e
       -0.055606246 0.045466002 0.01671507 0.13762014
0000f0 2f 6c 09 3e c8 5a 98 bd 8d bf 21 bd d4 f2 42 bc
       0.13420175 -0.0743919 -0.039489318 -0.011898715
000100 4f 89 15 3e 2e 7c e2 bd bc 86 9b bc 60 2e 91 bd
       0.1460316 -0.11058842 -0.018985145 -0.070889235
000110 50 ec 7b 3d f1 67 88 3d 0f 5f 10 3b dc 69 d2 bd
       0.061504662 0.0666045 0.0022029316 -0.10274097
000120 c7 13 ee bd 73 53 1e 3c 1e d5 33 bc 70 8c d9 3d
       -0.11624866 0.0096634505 -0.010976104 0.106224895
000130 01 67 83 bd da 70 03 be f9 17 26 3e ca 43 1e be
       -0.06416131 -0.12836018 0.16220082 -0.15455547
000140 d7 b3 54 bd f6 1f 37 be e4 11 29 3e 1d 26 d8 3d
       -0.05192932 -0.17883286 0.16510731 0.105541445
000150 ad 3e b7 bd 3e 38 d9 bc 26 fc 02 3e 47 1f 76 bc
       -0.08947501 -0.026516076 0.127915 -0.015022106
000160 9b 09 37 be 98 d2 79 bc 5f 4f 07 3e d1 8a c5 3c
       -0.17874758 -0.015247963 0.13213871 0.024114044
000170 46 35 c4 bd 00 31 20 be 69 3d 9c bd 9d b9 4b 3d
       -0.095804736 -0.15643692 -0.076289006 0.04973756
000180 91 28 fe 3d 3a d1 0a be 95 95 80 3d b3 27 1f be
       0.12410081 -0.13556376 0.062785305 -0.15542488
000190 27 e6 2e be 2e 4e 18 3e b4 93 31 be 59 ec d1 bd
       -0.17079984 0.14873573 -0.173415 -0.10250158
0001a0 01 37 af bd af 84 9f 3d c1 8f c1 bd 0e 47 93 bd
       -0.08555413 0.07788979 -0.09451247 -0.07191287
0001b0 ca 3f e8 bc 22 a8 59 bd 07 a1 9b 3d 46 30 10 be
       -0.02835073 -0.05313886 0.07599073 -0.14080915
0001c0 d9 eb 10 be ae ff 87 bd a7 b1 1f be ab ac 1d be
       -0.14152469 -0.06640564 -0.15595113 -0.15397899
0001d0 b7 00 0f 3d 0b a1 9c 3d cf bc b9 3d dc f1 cf 3c
       0.03491279 0.07647904 0.090692155 0.025383882
0001e0 ef 45 34 3d d2 f6 e3 3d 4b 11 14 3e 89 76 b0 bc
       0.044012006 0.111310616 0.14459722 -0.021540897
0001f0 5c 6a 34 be 14 55 24 3a de a1 ce bd 18 ae 12 3d
       -0.17618698 0.0006268781 -0.100894675 0.03581056
000200 fc 2f 14 3e 96 97 1e be a4 2a be bd db 7f 2d be
       0.1447143 -0.15487513 -0.09285477 -0.16943304
000210 d2 94 21 3d 60 a9 49 3d cf 08 08 3e 98 6e e3 3d
       0.039448567 0.049233794 0.1328461 0.111050785
000220 ba 5d ad bd f0 57 f1 bd c7 6a 2b 3e 76 52 bc bd
       -0.084651425 -0.11784351 0.16739951 -0.09195416
000230 c9 9b 1f bd ff b6 9f 3d ce 1c 97 3d 8e 2b c3 bd
       -0.038966928 0.077985756 0.07378541 -0.09529792
000240 ac 25 96 3d a4 04 2a be 5d 0e 67 3d 56 6f 2d be
       0.07331404 -0.16603333 0.056410182 -0.16937003
000250 4f df 31 bd 97 17 09 3e 34 bd 0f 3e 62 b5 02 3d
       -0.043425854 0.13387905 0.14037019 0.03191126
000260 02 95 f7 3d b1 f5 fe bd 60 0c ba bd cb 9b 96 bd
       0.12088968 -0.12449206 -0.090843916 -0.07353934
000270 a1 69 03 3e 54 e1 0a 3e 56 ed 07 3e ed 23 53 3d
       0.12833263 0.13562518 0.1327413 0.051547933
000280 c3 28 85 3d 47 8f 19 ba 27 f0 aa bc a0 31 fd 3c
       0.06501915 -0.0005857837 -0.020866467 0.030907452
000290 f4 f3 53 bb 5b c9 2c 3e 5f d8 9a bd 88 33 f5 bc
       -0.0032341452 0.16873686 -0.07560801 -0.029931799
0002a0 94 84 d0 3d 44 ce 1e 3d 05 08 7e 3c bc eb 63 3d
       0.10181537 0.03877093 0.015504842 0.055644736
0002b0 e2 04 df 3d 99 80 0b be 49 de cc bd 93 ec 1f be
       0.10889603 -0.13623275 -0.10003335 -0.1561759
0002c0 67 5a 19 3e dd e2 06 bd 7b bc a4 3d 1c 06 34 be
       0.14975892 -0.032931197 0.08043762 -0.17580456
0002d0 2a 07 18 3e 35 92 80 3d 29 78 26 3e 61 63 bc bd
       0.14846483 0.06277887 0.16256775 -0.091986425
0002e0 9c 77 e0 bd c9 a1 a0 bd 9f 4b 8f 3d 9c f6 4a bd
       -0.10960314 -0.07843358 0.069968455 -0.04955159
0002f0 60 1d ea 3d 89 09 f2 bd 1e 25 19 3e 32 d8 0e 3e
       0.11431384 -0.11818225 0.14955565 0.1394966
000300 a7 1b c1 bc d7 9e 28 be e1 b1 08 3e 13 4b 01 be
       -0.023572756 -0.16466843 0.13349105 -0.12626295
000310 06 6d fa bd 76 cc cb 3d ff 06 b0 3d 4b c2 2e be
       -0.12227826 0.09951107 0.085950844 -0.17066304
000320 5f 78 dc bd 7c 0a 9b bd ec fe f3 bd 17 ac ff bc
       -0.107651465 -0.07570359 -0.11913857 -0.031209989
000330 38 75 10 be 52 92 c2 bd 1b 02 bf 3d 59 1d d9 bd
       -0.14107215 -0.09500565 0.093265735 -0.10601301
000340 b6 e8 43 3d 03 f9 b2 bd 09 ee 35 3e 79 08 95 bd
       0.047829352 -0.087389015 0.17766584 -0.07277007
000350 52 f6 09 3d b6 83 81 3d 4d 5a c6 3c 7b 8d a8 3c
       0.033682175 0.0632395 0.02421298 0.020575276
000360 a4 0d b2 bd 09 aa ea bd 8e 62 a7 bd 1b e5 30 3e
       -0.08694008 -0.11458213 -0.08173095 0.17274897
000370 e4 5f 25 3e c3 8e 0f 3e 61 af 84 3d 7a 53 17 3c
       0.1614986 0.14019303 0.06478763 0.009236211
000380 f1 1b 7f bc bb 85 36 3d c5 45 52 3d 6f 90 24 3e
       -0.015570627 0.04456113 0.05133607 0.16070722
000390 4b 0b 14 be 77 c8 e8 bd b1 d2 89 3d d5 82 25 be
       -0.14457433 -0.11366361 0.06729639 -0.1616319
0003a0 10 5c b9 3d 74 9e 32 bd 6f 6e c3 3a 51 a2 d8 bd
       0.09050763 -0.043608144 0.0014910231 -0.105778344
0003b0 bd a6 0c 3e 16 50 28 3e a6 6b 21 3e 06 43 0c 3e
       0.1373548 0.164368 0.15763721 0.13697442
0003c0 0f c2 1e 3e f8 ce d6 3d 1b b5 47 3c 9c 9b e4 3d
       0.15503715 0.10488695 0.012189175 0.11162493
0003d0 8d e8 ae bd 6f d4 2f be 12 79 30 3e e4 73 1e be
       -0.08540449 -0.1717088 0.17233685 -0.15473896
0003e0 00 42 da 3d 03 e5 8f 3d 50 60 d5 bc 32 9d 6b 3c
       0.1065712 0.070261024 -0.026046902 0.01438074
0003f0 84 79 d7 bd b3 90 b3 3d 8c c0 17 bd dc 5d 07 bd
       -0.10521224 0.087678336 -0.03704886 -0.033048496

Q f4 [16, 16]
000000 4a a8 b3 be 06 cb 62 c0 1c ef a0 3f c7 19 40 be
       -0.35089332 -3.5436416 1.257297 -0.18759833
000010 bc 00 f9 be f0 6a 75 3f 33 f8 7f 3e c9 aa 3a 3f
       -0.48633373 0.958663 0.24997024 0.7291685
000020 3b dc 11 bf 23 e5 82 be b1 4a e1 3d ad 33 50 bf
       -0.5697667 -0.25565442 0.110005744 -0.8132885
000030 56 50 ae 40 6a e5 af 3f 9f dd 6d 3e 21 a0 0c bf
       5.4473066 1.3741887 0.23229073 -0.5493184
000040 99 df 73 be b5 47 10 bf 89 82 44 bf 33 e9 31 3d
       -0.23815764 -0.56359416 -0.7676168 0.043435287
000050 dc 3f 9f 3f ee da bd bf f7 ac b7 3d 47 41 de be
       1.2441363 -1.4832437 0.08968537 -0.43409178
000060 27 9a 51 3f 5a 03 26 3f 05 94 f5 be 1a 7b 03 3f
       0.8187584 0.64848864 -0.47964492 0.51359713
000070 f7 f9 2b be 5c 2e e5 3f ce ce 31 3e 1b b8 31 bf
       -0.16794573 1.7904773 0.17364046 -0.6942155
000080 5e 96 bc be f6 e1 7d bf 7c 9f 54 c0 fc bb 23 3e
       -0.3683347 -0.99172914 -3.3222342 0.15989679
000090 3d 07 59 3f 17 75 2e 3d 68 81 04 be 4d 08 33 bf
       0.8477667 0.042592134 -0.1293999 -0.6993454
0000a0 e9 69 fe 3e 16 d5 ef bc 70 27 75 be 0b e3 3d 3f
       0.49690178 -0.029276412 -0.23940825 0.74174565
0000b0 01 ef 9a 3f c3 15 1c 40 11 a7 1b 40 de e4 c3 be
       1.2104188 2.4388282 2.432072 -0.3826055
0000c0 f3 0a 00 bd 59 82 c3 bf 94 63 7e 40 1f 98 c5 be
       -0.031260442 -1.5274154 3.9748278 -0.38592622
0000d0 bd bf 86 3f e7 f4 8a be 47 6f 08 40 2f 5f 94 c0
       1.0527264 -0.2713997 2.1317918 -4.636619
0000e0 0b 07 0c bf 4c 16 0d 3f ee fc a0 be 70 86 b8 3f
       -0.54698247 0.5511215 -0.3144297 1.4416027
0000f0 4a 5b ac 3f f5 b7 e2 bf 00 4a 47 bf 7a 0e c2 3e
       1.3465359 -1.7712389 -0.7784729 0.3790167
000100 3a c6 72 be 16 db 94 3d 1a 1c 79 3f 16 20 59 bf
       -0.2370843 0.0726835 0.97308505 -0.84814584
000110 4e 73 5a bf 2d 26 8f 3f 31 ed 3f 3f ee 6e 08 c0
       -0.8533219 1.1183525 0.749713 -2.1317706
000120 ec b9 9a bf 87 39 0a bf c4 f1 20 3f e8 1d 0e 3f
       -1.2087989 -0.5399403 0.62868905 0.55514383
000130 05 84 53 bf 79 ae b6 3f a0 07 0c 3f 35 27 41 40
       -0.8262332 1.4271995 0.54699135 3.018018
000140 f1 cd 16 be e2 d5 33 c0 0a 60 1e 3f 83 7e 8c be
       -0.14726998 -2.8099294 0.61865294 -0.2744027
000150 63 a2 62 3f 71 8c 0d bf 7e 6c a5 3f 0f dc 01 c0
       0.8852903 -0.5529242 1.2923734 -2.0290563
000160 7b 15 a6 3d 65 59 f7 3d 77 09 02 bd 94 02 c5 3f
       0.08109566 0.120775975 -0.031747308 1.5391412
000170 e9 d1 0f 40 24 42 fc 3f 00 e4 1f 40 eb 9a 29 40
       2.247187 1.9707685 2.498291 2.6500804
000180 4a bb 00 bf f5 30 9a bf e7 31 21 40 64 82 85 bf
       -0.5028578 -1.204619 2.5186708 -1.0430417
000190 f4 a0 8d 3e 41 19 88 3f 50 fc 76 3f 51 8f 92 bf
       0.2766186 1.0632707 0.9647875 -1.1449987
0001a0 02 61 51 bf 4e 6e 5b be bc 4d 10 3e 33 93 36 3f
       -0.8178865 -0.21428797 0.14092153 0.7131836
0001b0 6a 84 81 40 ec a6 f8 bf da 7d f3 bf e2 17 37 c0
       4.047414 -1.942594 -1.9022782 -2.8608327
0001c0 4d 02 08 3d 7e eb f2 3f 7a 3e e5 bf 74 82 bc 3e
       0.03320532 1.8978117 -1.7909691 0.36818278
0001d0 7c 42 32 bf 9c 04 04 3e 80 85 96 bf 12 d5 f1 3f
       -0.696327 0.12892383 -1.1759491 1.8893149
0001e0 af 6e ff 3e 97 63 a0 3e 01 6e f4 bd 19 cb d3 bf
       0.49889132 0.3132598 -0.11935044 -1.6546355
0001f0 bf ee ab bf 66 fe d8 bc 36 f6 94 bf d3 0e 1c 3f
       -1.3432235 -0.026488494 -1.1637638 0.6096012
000200 e6 06 35 3b de f9 47 bf 5b 5a 59 bf e9 b1 e0 3e
       0.002762252 -0.7811564 -0.84903497 0.43885735
000210 c9 3d 84 3f 1d b6 13 be d5 07 2b bf c0 f6 b5 bf
       1.0331355 -0.1442494 -0.66808826 -1.4215927
000220 85 73 f4 3e c7 5e df 3d 25 ea 2d bf e6 b9 04 bf
       0.47744384 0.10906749 -0.679354 -0.5184616
000230 1c 99 75 bf 4d b8 b4 3f e8 28 94 40 65 81 4f 3f
       -0.9593675 1.4118744 4.6299934 0.81056815
000240 c5 6a c7 be 55 c6 ae be f5 19 ed be 2f c2 29 3d
       -0.38948646 -0.3413569 -0.46308866 0.041444954
000250 4d 0a af bf 56 3e 7b 3e 8e 95 68 be b9 d0 4e bd
       -1.3675019 0.24535498 -0.227133 -0.050492022
000260 5d 4f d5 3e a0 e9 11 bf 66 30 ed be 84 42 0d bf
       0.41662112 -0.5699711 -0.46325988 -0.5517962
000270 e1 92 16 bd 31 fb db 3f 6d f8 44 3e c2 1f f1 3f
       -0.03676117 1.7186033 0.19235392 1.8837817
000280 08 2f aa 3c 79 9b b3 bf a2 3d 56 40 77 38 19 3e
       0.02077438 -1.4031821 3.3475118 0.14962946
000290 29 e8 66 3f 62 bb 49 bf c4 a6 0c 3f 99 f2 5f bf
       0.90198 -0.7880155 0.54941964 -0.8747955
0002a0 17 26 b8 3e 71 3f df 3e 08 16 91 3c e3 91 45 3e
       0.3596656 0.4360309 0.0177107 0.19293933
0002b0 4d 89 1e 40 cc 23 62 bf 5e 62 2c be 69 80 c1 bf
       2.4771302 -0.8833587 -0.16834399 -1.5117313
0002c0 06 cd d4 be 20 ba 77 3f 6f 1a fb bf 51 ed fb 3d
       -0.4156267 0.9676838 -1.9617442 0.12301124
0002d0 ca 8c 3b c0 cf 22 59 3e 58 34 ea bd c3 d3 eb 3e
       -2.930468 0.21204685 -0.11435765 0.4606
0002e0 64 15 e1 bd 2f 54 4d bf 9a 78 15 3f 62 72 97 3f
       -0.10990408 -0.8020658 0.5838715 1.1831782
0002f0 69 dd 1c 3f 72 e2 03 bf e6 e9 c3 3e 06 dd 8e bf
       0.61275345 -0.51517403 0.38264388 -1.1161201
000300 d2 4e 89 be 40 e0 f5 3c 00 5c 8a 3f 2c 3f 94 bd
       -0.26817948 0.030014157 1.0809326 -0.072386116
000310 25 01 1a bd ba 1f f2 be 93 23 86 3e b2 4b 02 bf
       -0.037598748 -0.4728983 0.26199016 -0.5089675
000320 0c 1c 42 3c 01 fb a1 3e fa cc f7 be 0f c9 e7 be
       0.011847507 0.31636813 -0.48398572 -0.45270583
000330 a1 90 94 be b8 2a 2a bf 7f 0c 0e be 34 84 0e bf
       -0.29016593 -0.66471434 -0.13871954 -0.55670476
000340 5e d9 89 bf b5 e9 d7 bf 7e 8c c4 be 5b eb 1a bf
       -1.076946 -1.6868197 -0.38388437 -0.60515374
000350 8d 41 2c 3f 12 c5 9e 3f 88 37 a1 3e a8 ff 69 bf
       0.6728752 1.2403891 0.3148768 -0.91405725
000360 80 9a 9f bd cf 4a e2 be f9 6d 62 3f cb a3 7d 3f
       -0.077931404 -0.441977 0.88449055 0.99078053
000370 3a 59 5a 40 4c 86 8a 3f 31 ee fe 3e fa cf 6e 3c
       3.411696 1.0822234 0.497911 0.014575953
000380 e9 7c dc bc 2f 3f a0 bf 0d 31 65 bf 82 1f e8 3d
       -0.02691503 -1.2519282 -0.8952797 0.11334135
000390 f6 4f 86 3f 44 93 6e 3e 29 13 5a bf 78 93 3a 3f
       1.0493152 0.23298365 -0.85185486 0.7288127
0003a0 07 55 08 bd be 73 28 be 3b 35 b4 3e 77 48 ba be
       -0.033284213 -0.16450402 0.35196862 -0.3638341
0003b0 c3 0f 44 bd 1d 2a 0a 40 f3 62 d6 3f 41 0e 87 c0
       -0.047866594 2.1588204 1.6748947 -4.22049
0003c0 bb 29 34 bf 41 72 e2 3f df 90 04 c0 c8 dd 30 bf
       -0.70376176 1.7691118 -2.0713422 -0.6908841
0003d0 42 18 92 bf a0 60 9d 3f 69 fd 04 be 9d b2 ae 3f
       -1.1413653 1.2295113 -0.12987293 1.3648258
0003e0 ee 63 73 bf ab d3 34 bf ec 8d b9 3e e8 35 20 bf
       -0.95074356 -0.7063548 0.3624109 -0.62582254
0003f0 af 28 e3 bf f4 33 97 3f 21 3e 8a 3f 94 1d de 3f
       -1.7746791 1.181273 1.080021 1.7352777

r f4 [16, 1]
000000 9f 6e b6 3e a0 0a d0 bf d9 2b 3e c0 cd 02 62 3e
       0.35631272 -1.6253242 -2.9714262 0.22071381
000010 59 c4 d5 3f 14 7b aa bf e6 92 14 bf c7 49 fe 3f
       1.6700546 -1.331881 -0.5803665 1.9866265
000020 dd 8e 9a 3e 10 32 3b 3f 96 68 fd be ed b1 82 bf
       0.3018712 0.73123264 -0.49493855 -1.0210549
000030 db d3 18 40 ad d0 13 c0 8c 0b f1 bf 9d 4c 6d 40
       2.3879306 -2.3096116 -1.8831649 3.707801

c f4 [3, 1]
000000 00 00 80 3f 00 00 80 3f 00 00 80 3f
       1.0 1.0 1.0

gru.weight_ih f4 [48, 16]
000000 d2 39 60 3f f9 fb ba 3f 38 7f b1 3f d9 7a 84 3f
       0.87588227 1.4608146 1.3866949 1.034999
000010 1a 2b 41 be 86 f4 ac be 1e 0c 87 3f 1a 5f 40 3c
       -0.18864098 -0.33780307 1.0550573 0.011741424
000020 e9 3b 86 3f d4 c8 d0 3e 43 9e c1 be 5b f5 93 3f
       1.0487033 0.4077822 -0.37816057 1.1559252
000030 60 3e 66 3e 41 70 06 40 72 76 cb 3e b8 ee 8a 3f
       0.22484732 2.1006014 0.39738804 1.0854101
000040 22 2d 1e 3f 20 58 50 3f d1 3d 3b 3f 52 6e 17 3f
       0.6178762 0.8138447 0.731412 0.5915271
000050 88 65 35 be ba b5 80 be 8b 9b af 3e a2 58 9d bc
       -0.17714512 -0.25138646 0.34298357 -0.019207302
000060 73 89 35 3f 02 a3 52 3f 41 7e 8a 3e 0d 8b 20 3f
       0.70912856 0.8227998 0.2704945 0.62712175
000070 2a c9 7d be 2e 9b f0 3d b6 fe 04 3f 78 c1 59 3f
       -0.24783769 0.11748348 0.5195116 0.85060835
000080 74 60 84 3f 82 57 a9 3f 89 2c cc 3f 5f a9 8e 3f
       1.0341935 1.322983 1.5951091 1.1145438
000090 19 2f e4 bd 1c a6 de bd 63 36 8b 3f e1 df 7a 3d
       -0.11141796 -0.108715266 1.0875973 0.061248664
0000a0 ec b4 a6 3f fb 60 51 3e 26 d1 54 3e 5f 3f a0 3f
       1.3023963 0.20447151 0.20782909 1.2519339
0000b0 8e 92 e2 bd 0d b3 3c bd 4d 1c d5 3e bd 6c 8c 3f
       -0.11063109 -0.046069194 0.41623154 1.0970684
0000c0 9f 90 12 3f 31 ce b5 3f 37 91 b9 3f 7f 39 46 3f
       0.57251924 1.420355 1.4497441 0.7743148
0000d0 b8 85 95 bd 3f a3 4f bd 38 18 ce 3f 4c bd 47 bd
       -0.073008955 -0.050692793 1.6101141 -0.048764512
0000e0 e9 a9 b4 3f d4 00 6a 3e d2 e0 ed bd cf cf 97 3f
       1.4114352 0.22851878 -0.11615147 1.1860293
0000f0 38 e5 55 3c f4 3f cd 3e 21 7d de 3e 88 59 a1 3f
       0.013055138 0.40087855 0.4345484 1.2605448
000100 b9 d0 90 3f c9 9f f8 3e 73 39 78 3f 32 46 01 3f
       1.1313697 0.48559406 0.9696266 0.50497735
000110 81 97 3d bd 82 ab 9d be 12 ab 2a 3f 4f ac 06 bc
       -0.046287064 -0.30794913 0.6666728 -0.0082197925
000120 ca 43 81 3f 75 03 32 bd 9a 69 22 bf e5 0f c0 3f
       1.0098813 -0.043460328 -0.63442385 1.5004851
000130 5b 60 0d 3d 40 f1 f4 3e 16 e0 49 3e 2a 18 7d 3f
       0.03451572 0.4784031 0.19714388 0.98864996
000140 05 0b f6 3e 80 ba b3 3f dc 9c 95 3f 06 b7 a1 3f
       0.48055282 1.404129 1.1688495 1.2633979
000150 18 d7 91 bd 96 b8 7a be 3a 48 c2 3e 4a 21 bb bc
       -0.07121104 -0.24484476 0.3794573 -0.022843022
000160 cb 3b 14 3f eb 63 0e be a5 b2 e5 3e 6d 6f 9b 3f
       0.57903737 -0.13905303 0.44862857 1.214338
000170 39 3a c2 bd c8 d7 07 40 e9 90 00 3f 95 26 a5 3f
       -0.09483761 2.1225452 0.50221115 1.2902399
000180 36 a3 e2 3e 81 44 96 3f 1b 6a 73 3f 72 64 24 3f
       0.44265145 1.1739656 0.9508378 0.6421577
000190 4a 0f 8c be f3 c1 b9 be 20 b8 2a 3f 60 a7 51 be
       -0.27355415 -0.36280784 0.666872 -0.20474005
0001a0 95 92 65 3f ed 23 22 3e 29 10 3a be 11 6b 32 3f
       0.8967679 0.15834017 -0.18170227 0.6969462
0001b0 5a 9d 1a bd c6 0b ac 3f a8 cf 75 bc 98 6e 2b 3f
       -0.03774772 1.3441093 -0.015003122 0.6696563
0001c0 e6 69 d9 3f e9 97 90 3f cc 44 a2 3f d5 5e 55 3f
       1.6985443 1.1296359 1.2677245 0.8334783
0001d0 82 ca 8c be c3 a3 d9 be 1c 88 20 3f ad 4c 7d 3e
       -0.2749825 -0.42507753 0.62707686 0.2473628
0001e0 48 a4 27 3f c9 ba 78 3d 1d 88 d4 3d 99 6c 7f 3f
       0.6548505 0.060725007 0.10377524 0.9977508
0001f0 fd d4 54 bc ea 6a ab 3f b2 f9 30 3f e9 bf 5e 3f
       -0.0129902335 1.3392003 0.69131005 0.8701158
000200 32 ec 7a 3f aa 5a a1 3f ee cd da 3f 35 40 79 3f
       0.98016655 1.2605793 1.7094095 0.973636
000210 96 ff ad be 3f 02 c9 be 86 92 1f 3f 14 bc 50 3e
       -0.3398406 -0.39259526 0.6233295 0.20384246
000220 15 16 73 3f 37 70 aa 3e 4d e4 b0 3e cc 7e a3 3f
       0.9495557 0.33288738 0.3454918 1.277307
000230 f9 5c b5 bd c6 0e 9e 3f 89 c6 01 3f 8c 5c 97 3f
       -0.08855624 1.2348258 0.50693566 1.1825118
000240 be 5d cd 3f 52 d6 d5 3e c0 96 51 3f 25 c3 ad 3e
       1.6044233 0.41765076 0.8187065 0.33937946
000250 d9 7a ea be f2 bd 0a bf ae 0e 9b 3d a4 b3 a1 3e
       -0.4579685 -0.54196084 0.07571159 0.31582367
000260 26 7e 74 3d 96 6c 13 be 15 bf 2d 3d 09 10 fd 3e
       0.059690617 -0.14396891 0.04241856 0.49426296
000270 68 98 fc 3e 67 a5 00 3f 2a b1 98 3e ba 7d 05 3f
       0.49335027 0.50252384 0.29822665 0.5214497
000280 63 c6 a9 3f 23 5a c0 3f 55 9e ce 3f 12 21 97 3f
       1.3263668 1.5027508 1.6142069 1.1806967
000290 08 5f 54 be 61 73 22 be a6 ae 98 3f d7 da 9f 3c
       -0.20739377 -0.15864326 1.1928298 0.01951353
0002a0 c1 5a 85 3f 1d 79 bf 3e a1 6b a8 3d a3 da c2 3f
       1.0418321 0.3739709 0.082236536 1.5222973
0002b0 db 3a 89 bd b2 8f 0c 3f 54 cb 3b 3f 8c 5e cd 3f
       -0.06700679 0.5490676 0.7335713 1.6044478
0002c0 d3 61 ec 3f d0 12 58 3f f2 2b 98 3f 1b 3e 3f 3f
       1.8467354 0.84403706 1.1888411 0.7470414
0002d0 74 68 59 be 9a 59 67 be d9 c5 5a 3f a5 05 3a 3c
       -0.21231252 -0.22592774 0.8545814 0.011353885
0002e0 db 66 48 3f 9d 73 8d 3e c6 58 c3 3d 99 6e 62 3f
       0.78281945 0.27627268 0.095384166 0.8845001
0002f0 b3 83 4d 3e 11 60 8b 3f bd 6c c0 3e 0a b0 90 3f
       0.2006977 1.0888692 0.3758296 1.1303723
000300 0b a3 81 3f 09 6c 75 3f 6d 89 b7 3f 16 a6 22 3f
       1.0127882 0.95867974 1.4338814 0.6353468
000310 5d 2a b2 bd f3 2b b6 bd 06 31 87 3f 0b 54 33 bc
       -0.086994864 -0.088951014 1.0561836 -0.01094533
000320 03 db 45 3f 26 00 5e 3d 59 b7 fb 3d 9d 53 8e 3f
       0.7728731 0.05419936 0.1229083 1.1119267
000330 7a 6d b4 bd 0a ce 7e 3f 8c aa 48 3f 02 42 d4 3f
       -0.088099435 0.9953314 0.78385234 1.6582644
000340 30 72 be 3f e6 b8 58 3f b3 82 87 3f 50 c5 3c 3f
       1.4878597 0.8465713 1.0586761 0.73738575
000350 c8 2a 85 bd ff d4 a3 bd 7c de 7e 3f 07 39 a2 3d
       -0.065023005 -0.0799961 0.99558234 0.07921033
000360 b1 b6 36 3f 77 ce 8d bc 44 cf 07 3e d5 17 75 3e
       0.71372515 -0.017310364 0.1326266 0.23934872
000370 8f d0 1b 3e 90 a3 b7 3f 2d b5 39 3f 89 f7 82 3f
       0.15216278 1.434679 0.7254208 1.0231792
000380 c5 07 60 3f a1 6e a4 3f 92 60 61 3f c7 c0 9f 3f
       0.87511855 1.2846261 0.8803798 1.2480706
000390 c4 32 18 be 8d 8c bc be aa 80 3a 3f 1f dd 72 3e
       -0.14863116 -0.36825982 0.72852576 0.23717164
0003a0 e6 84 80 3f 1f c1 53 3e a3 52 11 3e 21 8c 98 3f
       1.0040557 0.20679139 0.1419168 1.1917764
0003b0 8b b7 9f bd 1f dc 02 3e e4 7a 4a 3f 5b 80 a2 3f
       -0.0779868 0.12779282 0.79093766 1.2695421
0003c0 49 00 c0 3f 2d fa c4 3e 11 7f 4b 3f 24 52 42 3f
       1.5000087 0.3847212 0.7949076 0.75906587
0003d0 b6 1b 20 be 0d bb 23 bf 92 85 7c 3e 1c db 4f bd
       -0.15635571 -0.6395729 0.24660328 -0.05074607
0003e0 4a c5 26 3f 99 26 19 3f 17 f7 9f 3e 88 1f ff 3e
       0.6514479 0.5982452 0.31243202 0.49828744
0003f0 76 99 5c 3d a4 7d d8 3e 26 67 9e 3e 38 da 4e 3f
       0.05385729 0.42283356 0.3093807 0.80801725

gru.weight_hh f4 [48, 16]
000000 39 d0 0e 3e 4c 40 d6 3e 7e a4 e2 bc 3e 60 dc 3e
       0.13946618 0.4184593 -0.027666327 0.43042177
000010 ce 5c 6b 3a a5 5c 31 be 6c 0c e3 3d eb bf 64 bd
       0.00089783676 -0.17320497 0.11086354 -0.05584709
000020 9d e4 91 be d6 17 d0 b9 48 6b 0c bd bb f2 3e 3d
       -0.2849473 -0.0003969061 -0.034282 0.046618205
000030 c8 3a fb 3e 9e f1 ae 3e ef b3 07 be 86 53 cf bb
       0.49068284 0.34168714 -0.13252233 -0.0063270954
000040 5f c6 bf bf 52 38 00 40 ec 23 d1 3e 0c 4e 40 3f
       -1.4982413 2.0034375 0.4084772 0.7511909
000050 01 28 88 3e ad 03 9d be 62 10 47 bf 23 93 dd 3e
       0.2659302 -0.30666867 -0.77759373 0.4327632
000060 4a 40 66 3f 11 e8 1c 3d b5 b9 d1 bf dd ee 6a bf
       0.8994185 0.038307253 -1.6384798 -0.91770726
000070 cf cc 43 bf 73 04 29 3f 96 f3 90 3c f8 7c 58 3f
       -0.7648439 0.66022414 0.017694276 0.8456569
000080 ea 06 d7 bd e3 29 67 3d 9f 82 52 3e 76 c9 e2 3d
       -0.10499366 0.05643643 0.2055764 0.11073582
000090 8a 54 3f 3e 38 91 e5 bc 5b c7 c5 3d fc eb 02 be
       0.18684593 -0.028023347 0.09657165 -0.12785333
0000a0 c9 eb 14 bd 4c 0a 6a bd e9 0d 93 bd fe ba 8f 3d
       -0.036357675 -0.057138726 -0.071803875 0.07018088
0000b0 a1 2c 59 bd 69 38 5d bd a0 e7 bd bd bc 7b af 3d
       -0.053021077 -0.054008875 -0.092726946 0.08568522
0000c0 fd 76 99 be cd dc 11 3e 5b f0 57 bd 97 8f 1d 3f
       -0.29973593 0.14244385 -0.052719455 0.61547226
0000d0 6b ad a4 bc 3e bc e7 3d 54 c2 03 3e 15 72 c7 bd
       -0.020102223 0.11315201 0.12867099 -0.09738556
0000e0 ae 6f 4b be 0f e3 e7 3d 20 4d b6 3d 99 9e 40 3d
       -0.19866821 0.11322605 0.08901429 0.04702625
0000f0 c1 70 a1 bc 71 78 2f be 8d a1 a8 3c e1 8d b6 3c
       -0.019707086 -0.17135789 0.020584846 0.02228445
000100 7b 42 84 3e 88 36 91 3f 23 ef 89 3f 04 5a 19 bf
       0.2583197 1.1344767 1.0776104 -0.5990298
000110 ca bd 8e bf bd 23 9d bf 43 08 95 be 23 9c 82 3f
       -1.1151669 -1.2276531 -0.29107866 1.0203899
000120 9c da 01 bf 43 5f b3 3e 8c 31 5e 3e 5c d3 7b be
       -0.50724196 0.35033616 0.21698588 -0.24592346
000130 99 79 e8 3d 25 3e 94 be 96 d8 36 bf 0b 39 7c 3d
       0.11351318 -0.28953663 -0.71424234 0.061577838
000140 a2 e2 a6 3d 5d e5 f4 be db e0 85 3c 3f 1d 57 bf
       0.081486955 -0.4783124 0.016342571 -0.84029
000150 06 b7 c3 bc d8 37 d5 be 53 8c fd be 55 fb fc be
       -0.023890983 -0.41644168 -0.4952112 -0.494105
000160 ad 9b c5 bd d9 a8 35 be 3a 5f 1f bf 84 a8 55 be
       -0.096488334 -0.17740192 -0.6225468 -0.20865065
000170 ff 08 d9 3e c2 66 88 be dd 92 fe be a1 d6 10 3f
       0.42389676 -0.26640898 -0.49721423 0.565775
000180 e0 2e 36 bf b4 5f 09 3f 34 c0 fd be 5a dd e9 3e
       -0.71165276 0.53661656 -0.49560702 0.4567669
000190 c4 ec 22 bf a8 72 87 bf 37 e0 c0 3f ba f7 c9 3d
       -0.63642526 -1.0581865 1.5068425 0.09861703
0001a0 12 b7 63 bd 74 a8 04 bf 6a c9 46 3e 5b e5 90 3d
       -0.05559451 -0.5181954 0.19412771 0.07074996
0001b0 75 b9 19 3d 8e 00 19 bf c3 7e 27 bf 7a 79 c6 3f
       0.03753038 -0.5976647 -0.654278 1.5505822
0001c0 87 f1 d5 be b4 20 2e 3e e0 97 58 3d d4 70 72 bf
       -0.41785833 0.17004663 0.052879214 -0.9470341
0001d0 d9 d2 0d bf 50 b0 83 be ba a8 a6 3d 23 27 67 3f
       -0.55399853 -0.25720453 0.08137651 0.9029409
0001e0 b2 a4 21 3d d0 7f 3d be f2 9d e7 be 4b ae 6f 3d
       0.039463706 -0.18505788 -0.4523769 0.058515828
0001f0 e9 e6 17 bf 73 46 4a bf 7a 76 bb be c3 1d 21 3f
       -0.59336716 -0.79013747 -0.36613828 0.6293604
000200 d7 71 e3 bf 09 e0 8b 3f e4 c3 05 3f 96 94 03 bf
       -1.7769116 1.0927745 0.5225203 -0.513986
000210 3e 02 77 3e a1 5c 18 bf 3e f6 2e be 9f 4a c8 be
       0.24121949 -0.5951634 -0.17086121 -0.3911943
000220 29 66 61 3f e9 8d d9 bf 87 ec 40 bf 72 b4 dd 3d
       0.8804651 -1.6996433 -0.7536091 0.10825433
000230 25 78 fb be c8 ad 33 be fa f4 80 be f8 08 45 3f
       -0.491151 -0.17546761 -0.25186902 0.7696681
000240 70 21 28 3f af df 48 3f 34 52 1b be ad 90 0b bf
       0.6567602 0.78466314 -0.15168077 -0.5451763
000250 86 25 a6 3d e6 0a 19 bf 6e 86 53 3f e5 cb 17 c0
       0.08112626 -0.59782255 0.82627 -2.3718197
000260 57 50 53 3f b9 6d 3f c0 b5 5c 62 bf 20 49 4e bf
       0.82544464 -2.991072 -0.8842271 -0.8058033
000270 a1 b2 84 3b 90 fb 85 be ac 04 52 3f 0a 30 f8 3f
       0.0040496145 -0.2616849 0.8203838 1.938966
000280 83 cb 7f bd 58 01 07 3e a4 be f6 3c 13 30 77 bd
       -0.062449943 0.13184106 0.030120201 -0.06034858
000290 2a fa fd 3d e5 9e 49 be 7c a9 7d be 5d 50 bc 3d
       0.12401231 -0.1968952 -0.24771684 0.091950156
0002a0 e8 85 9f 3b fb bc 29 be 3d 05 a2 be 7e aa 80 be
       0.004868258 -0.16575997 -0.31644621 -0.25130075
0002b0 b0 fc 40 bd 0b 4a 9a bd b2 3a 1e 3d 2c 48 85 3e
       -0.04711598 -0.07533654 0.038630195 0.26031625
0002c0 f2 d8 02 bf 72 7b 46 3e 97 2a 42 bd 77 7b f6 3e
       -0.5111228 0.19383028 -0.047403898 0.4814107
0002d0 63 53 37 3c d3 e8 bd bd 15 8a 77 be d7 ab f7 be
       0.011189315 -0.09272923 -0.24173768 -0.4837329
0002e0 44 c7 9e 3e ed 8c db be 78 ec be bd c2 d8 a6 be
       0.31011403 -0.42880955 -0.093224466 -0.32587248
0002f0 e6 87 8e be 30 06 a8 3d 4c 7a 1d bd 6a 81 f7 3e
       -0.27838057 0.08204305 -0.03844671 0.48340923
000300 af a1 55 be bc 51 82 bb 5a de 18 be 29 dd c8 be
       -0.20862459 -0.0039770287 -0.1492857 -0.39231232
000310 04 0e 3c bd 5d 24 d0 bb 19 a0 7a be a8 b7 16 3d
       -0.045911804 -0.006351991 -0.24475135 0.036796242
000320 31 7f a4 bc d8 62 2a be 26 9a da bd c5 3b d3 bd
       -0.02008018 -0.16639268 -0.10673933 -0.103141345
000330 3c ab 36 3e d8 d6 38 be 78 b8 25 bd c9 15 d7 3e
       0.17838758 -0.18050706 -0.040459126 0.42008808
000340 79 ee 4c bf 1e 87 28 be 53 4e 04 be fb 8f b7 3b
       -0.8005138 -0.16457793 -0.12920503 0.0056018806
000350 4c 1b ab be 6c 0c 9b be 3d bf a0 be 9b 6e ac bc
       -0.33419263 -0.30282915 -0.31395903 -0.021048835
000360 ad 7d 08 be 93 d4 e1 be bc 95 47 be 8f 53 45 3d
       -0.13329192 -0.44107494 -0.19490713 0.04817539
000370 3a a2 95 3d 97 66 f6 be b0 a0 ce 3d 2f 92 ea 3e
       0.07306333 -0.48125145 0.100892425 0.45814654
000380 5f 6f f1 be 1e 03 b3 3e 74 d5 32 bf 02 81 45 bf
       -0.47155282 0.34963316 -0.69856954 -0.77149975
000390 8c ab 75 bf 6a 6a fb be 2c 5b 20 be bf d8 86 3f
       -0.95964885 -0.49104625 -0.1565978 1.0534896
0003a0 1f 3e 12 bf 5f fb 19 3e f9 38 d8 3e 0c 7c 6d be
       -0.5712604 0.15037297 0.42230967 -0.23191851
0003b0 0e d8 57 3d 7c 4c 27 3f 87 5f 87 bf 47 6c 8d 3f
       0.05269628 0.6535108 -1.0576028 1.1048669
0003c0 5a 4e cb be 07 2f d9 ba 30 d4 a1 3f ee a7 0c bc
       -0.39708215 -0.0016569801 1.264288 -0.008584959
0003d0 6c 9f 37 3f 55 26 8d bc c9 1a da bd b9 57 7b bf
       0.71727633 -0.017230192 -0.1064964 -0.9818073
0003e0 69 a3 5c 3f 2d a1 b2 bf 57 18 0c bf 63 e0 79 bf
       0.86186844 -1.3955437 -0.5472464 -0.9760801
0003f0 8d fd fb bd 06 6c 14 3e a3 3f 33 3e 86 30 df 3f
       -0.1230422 0.14494333 0.17504744 1.7436683

gru.bias_ih f4 [48]
000000 16 f7 5a 3f 8b fc 37 3f 3e 6d a8 3f 11 be ad 3f
       0.85533273 0.71869725 1.3158338 1.3573629
000010 78 f6 5f 3f 15 71 50 3f 14 c0 17 3f 3a 74 4f 3f
       0.87485456 0.8142255 0.5927746 0.8103672
000020 4a a6 c4 3e 47 77 24 3f a6 61 84 3f 80 6f 9f 3f
       0.38408118 0.642445 1.03423 1.2455902
000030 93 7a a0 3f 90 75 87 3f 7c fd 1c 3f ae 02 2f 3f
       1.2537407 1.0582752 0.61324286 0.68363464
000040 10 a3 a0 3d e7 23 ba be 03 97 00 bf 88 96 0d bf
       0.07843602 -0.36355516 -0.50230426 -0.5530782
000050 ff 73 79 be 31 e8 12 bf 15 7d aa be 18 c0 3a be
       -0.24360655 -0.57385546 -0.33298555 -0.1823734
000060 8c 8c c2 be cf f7 df be a8 dc 29 be 38 e6 77 be
       -0.37997854 -0.4374375 -0.1658808 -0.24208915
000070 5f 0b de be cc 29 4d be 4e d0 ac be 58 07 b9 be
       -0.4336805 -0.20035475 -0.33752674 -0.36138415
000080 d5 b6 b5 be 24 2e aa bd 2e ed c6 bb c7 25 bc 3d
       -0.35491052 -0.08309582 -0.0060707545 0.09186893
000090 24 84 9e 3e 7a 9b 1c 3e 31 0b d6 bd ea 9c 32 be
       0.3096019 0.15293685 -0.10451353 -0.1744267
0000a0 4d 88 fa 3d 03 90 85 bd d2 c1 02 3e 45 9a da 3c
       0.122330286 -0.06521609 0.12769249 0.02668489
0000b0 10 3c 80 bd c8 57 39 bc 42 f0 68 bd 11 de 6d 3d
       -0.06261456 -0.011312433 -0.056869753 0.058073107

gru.bias_hh f4 [48]
000000 11 74 48 3f 32 45 53 3f 13 fb ab 3f b6 b2 9b 3f
       0.78302103 0.8252746 1.3435997 1.2163913
000010 3a d3 15 3f ef 0a 6b 3f a3 bc 15 3f 1e 58 42 3f
       0.5852543 0.9181356 0.5849096 0.75915706
000020 26 21 2e 3f 84 30 fa 3e fd cf 8e 3f 5e 21 95 3f
       0.6801933 0.4886514 1.1157223 1.1650808
000030 d0 3d 86 3f 87 fb 96 3f f7 6d 0b 3f a4 23 7a 3f
       1.0487614 1.179551 0.5446467 0.97710633
000040 9b 05 73 be c5 a5 ca be c2 92 b3 bd 6e 6d 8a be
       -0.23732607 -0.39579597 -0.08768226 -0.27036613
000050 36 5a 0f be d8 5d 9e be 64 d5 ae be c4 67 ed be
       -0.13999256 -0.30930972 -0.3414718 -0.4636823
000060 82 72 84 bd c1 63 1c be 4b ed 10 bf 20 31 8a be
       -0.06467153 -0.15272428 -0.5661208 -0.26990604
000070 fc 44 bf bd b9 70 6d be f1 66 06 bf 01 fd f3 be
       -0.093393296 -0.23187532 -0.52500826 -0.47653964
000080 bd d0 51 3c 77 c6 a3 3e f6 90 01 3d 3d 5e 87 3d
       0.012806115 0.31987354 0.031632386 0.066097714
000090 42 52 5c be 84 e0 09 be 38 56 b6 3d 4a 96 0d 3e
       -0.21515754 -0.13464552 0.08903164 0.13826862
0000a0 5f 64 79 3d 23 c2 92 be 46 19 fb bd cc 4c 71 bd
       0.060886737 -0.2866374 -0.1226068 -0.05891113
0000b0 44 b0 09 3d 13 6c 14 39 c1 f7 d5 bd b7 5d b9 3c
       0.033615366 0.0001415464 -0.10447646 0.022627695

linear.weight f4 [16, 92]
000000 da 30 a9 be 24 64 80 3e 7b fd b3 be 48 74 d7 bd
       -0.33045083 0.250764 -0.35154328 -0.10520226
000010 fe 40 bf be e4 79 89 be 4c 08 f1 bb 24 68 51 3e
       -0.37354273 -0.26850808 -0.0073557254 0.20449883
000020 1c 8e b9 bd 70 7a 65 3e 0c c5 39 3f b5 03 ee 3e
       -0.09060308 0.22409987 0.72566295 0.46487203
000030 f1 00 d6 3d 2f 24 8f 3d 92 88 4a 3f 11 42 02 3e
       0.10449398 0.06989323 0.7911464 0.12720515
000040 68 8a f8 bd b6 27 89 be 97 17 12 bf 24 70 d1 3d
       -0.12135774 -0.2678811 -0.57067245 0.10226467
000050 0a fe d8 be a9 cf ca 3d 61 53 3b be aa 01 77 3d
       -0.42381316 0.09902889 -0.18293525 0.06030432
000060 53 2a 45 3e 26 8a c6 be 77 63 c0 3d 5c 3a 37 be
       0.19254427 -0.38777274 0.093939714 -0.17893356
000070 f8 cf 36 3e a2 6c 59 be b2 69 68 be 5c c4 31 3f
       0.17852771 -0.21232846 -0.2269657 0.69440246
000080 5b ae 35 be 47 76 c2 3d 8c 26 be 3e bd e4 b8 3e
       -0.17742293 0.09495216 0.37138784 0.36112013
000090 7c aa 29 be 12 68 cc 3d c7 1d e8 be 44 48 46 3f
       -0.16568941 0.09980787 -0.45335218 0.7745402
0000a0 c1 59 c8 3e 57 16 d2 be a1 52 07 bd 3d c0 09 be
       0.39130977 -0.4103267 -0.033037785 -0.1345224
0000b0 29 03 b5 3e 00 c1 13 be 23 06 e8 bd 26 3d 04 be
       0.35353974 -0.14429092 -0.113292955 -0.12913951
0000c0 49 e2 84 be f1 ff fa be 97 c1 4a bd 61 20 07 3c
       -0.25953892 -0.49023393 -0.049501028 0.008247466
0000d0 55 13 bc 3e 38 c4 e3 be 76 5f d1 3d 47 4b cd bd
       0.367335 -0.4448564 0.10223286 -0.10024124
0000e0 26 c9 eb be 07 f5 57 3e 6f a4 5a 3d 32 a0 a0 bd
       -0.46051902 0.21089564 0.053379472 -0.07843055
0000f0 eb b4 10 bf e4 e1 3f 3e 1e 8b 05 3e d7 29 e3 be
       -0.5652606 0.18738514 0.1304135 -0.4436786
000100 42 0c 96 3e b5 a6 8f 3e bf 39 2a 3e 22 67 8e bd
       0.29306227 0.28056875 0.16623591 -0.06953265
000110 e8 96 93 3e d9 fc e2 3e d7 cc c2 be e2 c8 33 3e
       0.2882607 0.44333532 -0.38046905 0.175571
000120 99 8a f2 bd f2 f4 e0 bd 0c 7f c5 3d c2 f8 8c be
       -0.11842842 -0.109842196 0.09643373 -0.27533537
000130 f4 90 8c be 2f 21 c3 3e b8 6c f4 be 1d 83 36 3f
       -0.2745434 0.38111255 -0.47739196 0.71293813
000140 12 11 8f be f5 29 fb 3d 3c 64 7b be 19 9c b0 3e
       -0.2794271 0.12263862 -0.24549955 0.34494093
000150 67 59 49 be 17 fb 54 bd 7b cb 99 3d e0 90 ed 3e
       -0.1966301 -0.05199727 0.07509514 0.46399593
000160 5a b0 b9 3e ab e8 20 bd f7 74 9a be e1 3c 0c bf
       0.36267358 -0.03928439 -0.30167362 -0.54780394
000170 4a ed 99 3e a9 92 e0 3e 4f cf ce bd ff 87 c6 be
       0.3006385 0.43861893 -0.10098135 -0.38775632
000180 af 2f be 3e 4a 5b 9b be 38 21 a4 3e 62 c9 da be
       0.37145755 -0.30343086 0.32056594 -0.42731768
000190 1f 35 4e be 41 f9 16 3e ac 13 0d bc 0e 0a 46 be
       -0.20137452 0.1474352 -0.008610647 -0.19339773
0001a0 f4 fc 41 be a8 96 62 be b5 10 8f 3c 6d a6 22 3e
       -0.1894415 -0.22127783 0.017464021 0.15883799
0001b0 3c c5 05 3f 10 15 0f be 5b 31 a2 bd 8b 82 4d be
       0.5225408 -0.13972878 -0.0791957 -0.2006933
0001c0 7d fd b9 3d cb 58 21 bf 2b eb 67 3e 91 96 f7 be
       0.09081552 -0.6302611 0.22648303 -0.4835706
0001d0 15 cb 5d 3f 12 26 b5 3c c8 f5 f4 3e a8 98 28 bd
       0.86638004 0.02211288 0.47843766 -0.04116121
0001e0 c6 07 a6 3d 8c d8 64 bb 9b fa a0 be eb ed ad be
       0.081069514 -0.003491911 -0.31441197 -0.3397058
0001f0 fa 07 1d 3f c1 f3 bc bc 75 5c b3 3e 37 71 7a bc
       0.61340296 -0.02306545 0.35031477 -0.015285782
000200 81 f7 b1 be 61 50 84 3e 52 4b 0b 3f fd fc 54 3f
       -0.34759143 0.25842574 0.54411805 0.8319853
000210 84 ab 98 3d d3 27 0e 3f b9 99 22 bf 26 de 71 3e
       0.07454589 0.55529517 -0.6351581 0.23619899
000220 14 3b ec be cc a2 a2 be a1 bf a0 be b7 bf 19 3e
       -0.46138823 -0.3176483 -0.313962 0.1501454
000230 91 c7 f1 3e ca 9c 14 be ca 51 d5 3d 8e 94 9e be
       0.4722257 -0.14512935 0.10415991 -0.30972713
000240 31 e8 cf be 7b f4 0b bf 61 cf 7d be 5d ab 13 bf
       -0.40606835 -0.5466992 -0.2478614 -0.57683355
000250 dc b8 c0 bd 91 55 41 3f 9e 0a 62 3e 76 d3 a8 3e
       -0.09410259 0.7552119 0.22074363 0.32973832
000260 0e bb 00 3f e9 69 aa 3e e8 39 ce bd 85 ea dd bd
       0.5028542 0.33283928 -0.100696385 -0.10835747
000270 28 10 e1 be 06 16 44 3f 0f 6b 34 3f 8c 53 f0 3d
       -0.4395764 0.76596105 0.7047586 0.11734685
000280 71 8d f2 3d d1 cb 5a 3e 71 34 04 bf 22 5d da be
       0.11843384 0.21366812 -0.5164252 -0.4264918
000290 59 af d1 be 37 5a 81 be cd f8 e9 bd ec 16 cb 3d
       -0.40954092 -0.2526414 -0.11424408 0.099164814
0002a0 42 d4 ef be d3 5c 90 be 01 3c 13 bf 34 54 b4 3e
       -0.46841627 -0.2819582 -0.57513434 0.35220492
0002b0 57 01 19 3f 78 7b e5 3d 3c 9c 9c bd 4a ce 04 bf
       0.5976767 0.112051904 -0.07646987 -0.5187727
0002c0 ce b5 c0 3e 23 51 db bd 76 da ef 3e 83 52 31 3e
       0.37638706 -0.10708835 0.4684636 0.17316632
0002d0 24 75 30 bf 9c cc 1e bf f2 0c 45 bf 17 01 8d 3e
       -0.6892874 -0.6203096 -0.7697288 0.27539894
0002e0 77 5e 9b 3d be 19 90 3e 28 34 bf be 45 5d 91 be
       0.07586377 0.2814464 -0.3734448 -0.28391472
0002f0 a1 c1 3b 3c 6c dc bb bd e1 df 3e 3e 08 c2 33 3d
       0.011459739 -0.091729015 0.1864009 0.043886214
000300 52 f8 d4 bd 68 6e a9 bd 23 a6 40 be 23 fb 09 bf
       -0.10398926 -0.082730114 -0.18813376 -0.5389883
000310 78 fa 37 be ae 10 fd bd 46 6c 77 3e 20 2b 30 be
       -0.1796664 -0.12356697 0.24162397 -0.17203951
000320 d9 f1 9d 3e 0e 19 b5 3e e9 24 5a 3f 0a bf 1f bf
       0.30848578 0.35370678 0.8521257 -0.6240088
000330 5a 21 ac be 94 d4 9a 3e 1f a6 14 3e ac 57 91 bd
       -0.33619195 0.3024031 0.14516495 -0.070968
000340 b3 46 8d be 81 b2 af be 97 5a 0e 3f 48 d4 65 be
       -0.27593002 -0.34315875 0.5560698 -0.2244426
000350 4b 57 b1 3e 55 71 5f be 9f d7 af 3e 62 c4 90 3e
       0.34636912 -0.21820576 0.34344193 0.28274828
000360 48 4c 1a 3e 64 82 a1 bd 06 2a 02 3f 02 f9 83 3d
       0.15068161 -0.07886198 0.5084537 0.06443979
000370 69 8a 2d 3e b1 52 c4 bc 22 17 b2 bc a8 dc d6 3e
       0.1694733 -0.023965212 -0.021739546 0.41965222
000380 86 90 4f be 55 56 38 3e 83 ef 81 3e 3f a8 a9 be
       -0.20269975 0.18001683 0.25378045 -0.33136174
000390 24 e0 1c 3f 32 0e 77 3f 1b ca 87 3d a5 1c a2 3e
       0.6127951 0.96506035 0.066303454 0.3166248
0003a0 2c bf 38 be 00 32 b2 bd 39 ea a5 3e 25 9d 64 3e
       -0.18041676 -0.08700943 0.3240526 0.22325571
0003b0 86 7b 3a 3e 65 98 00 bf 05 11 a4 be 03 b7 e3 3d
       0.18211183 -0.50232536 -0.32044235 0.11118891
0003c0 fe 3e 88 3e 33 a3 af be b0 57 39 be 6d 77 06 3e
       0.2661056 -0.343042 -0.18099856 0.13131495
0003d0 b4 3f 6a be 1d 7f 1b bd 8d 0e b9 3d bb ad 1d 3e
       -0.22875863 -0.03796302 0.090359785 0.15398304
0003e0 52 96 0a bf d5 8e bc bd f9 9a 42 3d d9 f6 0c 3e
       -0.5413562 -0.092069305 0.047511075 0.1376604
0003f0 b9 68 13 bf f8 7a af 3d ed 95 e1 be db 3d fd be
       -0.5758167 0.08568376 -0.44059697 -0.49461254

linear.bias f4 [16]
000000 e8 02 01 3e 96 db ea bd d6 c2 34 3d f0 a3 44 bd
       0.12598765 -0.11467664 0.044131123 -0.048007905
000010 69 53 09 3e c5 c0 5f 3d 18 d4 8e bd 9b 3d 69 bd
       0.13410725 0.0546272 -0.069740474 -0.056943517
000020 bc cc 20 3d f5 12 de 3d 2a fe c6 3d a2 30 b5 3d
       0.03925775 0.108434595 0.09716447 0.088471666
000030 00 7b 3a 3e fd 66 b9 3e c4 e3 b2 bc 20 00 9d bd
       0.18210983 0.36211386 -0.021837123 -0.076660395

layer1.linear.bias f4 [32]
000000 db 06 b0 bb bc c8 fb b9 4c 49 6f bd a9 69 28 bc
       -0.005371911 -0.0004802401 -0.05841951 -0.010279098
000010 98 35 9a bc 94 59 0a bc 7c 48 9b 3c e4 45 09 3d
       -0.018824384 -0.008444209 0.018955462 0.03351392
000020 e7 18 4f 3d ed 02 67 3c 60 bf 6d 3c 06 0d c1 bc
       0.050560858 0.014099819 0.014510959 -0.02356578
000030 ac be 89 bd 74 0b 87 3d fe 54 b8 bd 20 70 92 3d
       -0.06725821 0.065939814 -0.09000586 0.071502924
000040 3a df a2 bd 6c cd e7 bc 89 d3 36 bd c8 31 24 bc
       -0.07952733 -0.028296195 -0.04463533 -0.010021634
000050 80 79 96 bd f4 04 23 3c 9f 33 d8 3c 24 d0 c1 bc
       -0.07347393 0.009949911 0.026391802 -0.02365882
000060 99 df aa 3c f8 3d 63 3d 14 ac 00 3d 66 3d a3 bc
       0.020858573 0.05547902 0.031414106 -0.019926738
000070 64 bb 75 3d 2a a4 b6 bc c8 9b 5f 3d 87 2f 01 3b
       0.059993163 -0.022295076 0.054591924 0.0019712166

layer1.linear.weight f4 [32, 32]
000000 a5 f2 12 be 3a 4b fb 3e 35 05 ed be 10 5e 08 be
       -0.14350374 0.4908083 -0.46293035 -0.13317132
000010 68 eb 06 be 0d 8d da be a9 62 d2 3d be f4 81 3e
       -0.13175738 -0.42685738 0.10272724 0.25382036
000020 a2 83 11 bf f5 c0 81 3e 31 c5 96 be 7f 15 94 bc
       -0.5684148 0.25342527 -0.2944732 -0.018076656
000030 50 b2 ce 3e fc 05 94 be ba cf 89 3e 2e 7b 48 be
       0.40370417 -0.28910816 0.26916295 -0.1957824
000040 4e db 05 3e 7a 9d 8f bf 13 6a ef be d2 ea 40 3e
       0.1307194 -1.1219933 -0.46760616 0.18839577
000050 7c ea 8a 3e 74 99 50 bc cc 21 09 3e 5f 5c 54 be
       0.27132022 -0.012731899 0.13391799 -0.20738362
000060 4f 46 ab 3e 29 fb 8e 3e a1 e0 a4 be 8c 2c 8f 3e
       0.3345208 0.27925995 -0.32202628 0.27963674
000070 f1 68 d7 3e 70 06 23 bd 0c 3b 6b be 1b bc 9e 3b
       0.4207225 -0.03980106 -0.22971743 0.0048442013
000080 5f c2 64 3e df 9c 85 3d e7 b7 f5 be 7c 4c 37 be
       0.22339772 0.065240614 -0.4799187 -0.1790027
000090 f2 33 e8 be 96 30 a3 3b 2b 15 88 be 6a 1e 5a be
       -0.4535213 0.004980157 -0.2657865 -0.21300665
0000a0 1d 6b 0f 3e 8e 8f 87 be d1 e5 31 be 81 83 b4 be
       0.14005704 -0.2647671 -0.17372824 -0.3525658
0000b0 d0 0f 9c 3c 15 3f a1 3d c3 5e 74 bd 20 f2 1b 3f
       0.019050509 0.0787336 -0.059660684 0.6091633
0000c0 87 dd 6e 3e 4f 9b 27 bf e9 27 b5 bd 78 5b 1d 3f
       0.23326693 -0.6547136 -0.08845503 0.61467695
0000d0 25 f9 b9 3e 68 32 d1 3e 43 da 23 3f ba 8c 52 be
       0.36322895 0.4085877 0.64004916 -0.20561495
0000e0 dd 6d 48 bf 84 90 cb bd 3b 0a ec be d4 e1 92 be
       -0.7829264 -0.099396735 -0.46101555 -0.28687918
0000f0 42 5f f3 3e 5d 96 38 be de 2f 97 3e 75 3b 43 3c
       0.47533613 -0.18026109 0.29528707 0.011916031
000100 3c 7a 88 bf 5e 20 09 3f e0 c6 93 3e f4 5e a8 3e
       -1.0662303 0.53565013 0.28862667 0.32884943
000110 74 b7 80 be b7 f0 b4 bd ae a9 ea bd 6b 31 1c 3e
       -0.25139964 -0.08834975 -0.11458145 0.15253226
000120 4e 21 fd bd e5 ae 04 bf 78 25 89 bd 3d bd 45 3e
       -0.12359868 -0.5182937 -0.066966 0.1931047
000130 f8 ff 94 3d cc ff 82 be 22 65 66 be 83 2a 9a bd
       0.07275385 -0.25585783 -0.22499517 -0.0752764
000140 e3 35 19 bf 4f 29 29 bf 21 43 8b 3c 17 04 93 be
       -0.5984785 -0.66078657 0.016999783 -0.28714058
000150 e7 47 b1 3e 28 94 ad 3e 74 76 b6 be ab 22 80 3e
       0.3462517 0.33902097 -0.35637248 0.2502645
000160 b1 95 1e 3c 8c ac d4 3d f7 3a 51 bf df 85 ae 3e
       0.009679244 0.10384473 -0.817306 0.3408651
000170 9e 97 08 3f 7d 94 a0 be 42 a4 b6 bd a5 87 b4 3d
       0.5335635 -0.31363288 -0.089180484 0.08814935
000180 4c 76 c6 3c 3c 7e 56 3e 9d 25 6a 3e 58 f7 0b bd
       0.02422633 0.20946592 0.22865911 -0.034171432
000190 c0 bc 34 be bc 40 b3 be e7 90 7e be a9 e3 81 be
       -0.17650127 -0.35010326 -0.24859963 -0.25369003
0001a0 c5 eb 8b 3e 06 55 b1 3d b2 bf 36 bd a5 35 ee bd
       0.27328315 0.08658795 -0.04461641 -0.11631326
0001b0 93 90 b4 bd 3f 91 85 3e e9 05 3e 3d fc 25 39 be
       -0.08816638 0.26087376 0.046392355 -0.18080896
0001c0 09 d1 0d 3e e6 6d c6 3e fa 89 3b 3f 5b d7 dc 3e
       0.13849272 0.3875572 0.7325741 0.43133053
0001d0 09 bb d1 be 7e 15 62 bc d9 55 ce 3e c1 d8 ae 3d
       -0.4096301 -0.013799069 0.40299872 0.08537436
0001e0 38 52 23 be 6c fb 84 be 10 bc 00 bf e1 6c 8a be
       -0.15949333 -0.2597307 -0.5028696 -0.27036193
0001f0 ad d3 24 be 27 a9 96 3d a7 30 d1 3f 20 dd 09 3e
       -0.16096373 0.07356482 1.6342973 0.13463259
000200 bb b0 9a bc 1f d5 27 bf b4 0a 81 be d4 04 0f 3e
       -0.0188831 -0.6555957 -0.25203478 0.13966686
000210 24 db 4b 3d 11 ef 5c bd f4 8f f5 3e 8b d3 73 be
       0.049769536 -0.05393893 0.4796139 -0.23811166
000220 d7 03 99 be 23 7f 9c bd 04 c8 67 be cd 00 d7 bc
       -0.29885742 -0.07641437 -0.22634894 -0.026245499
000230 88 79 67 3e 4f 5d ee 3e 04 e5 dc bb 63 50 8f be
       0.22604954 0.46555564 -0.006741168 -0.27991018
000240 83 49 77 be 2f f8 93 3e af c3 92 3c 16 10 8a be
       -0.24149136 0.28900287 0.017915575 -0.26965398
000250 66 03 65 3e 0d 82 eb be cc f8 63 be b5 d4 02 be
       0.22364578 -0.45997658 -0.22262877 -0.12776454
000260 8e 5a 37 3f 08 dd 3f 3e e7 8e 02 3e 8c 6e 92 3e
       0.7162255 0.1873666 0.12749825 0.28599966
000270 4e 3d fe 3e b0 50 54 3e e0 da 63 bd d6 41 0d 3f
       0.49656147 0.20733905 -0.055628657 0.5517858
000280 c1 ae ab 3e 74 6c 03 3e 9a 30 ab 3e c6 cc 54 3e
       0.33531764 0.1283434 0.33435518 0.2078124
000290 13 6b f3 bd c0 12 24 bf bb b0 6c bc 76 47 f4 bc
       -0.11885657 -0.6409111 -0.014446433 -0.029819231
0002a0 f8 03 b1 3e 01 4b 9e 3e 47 78 08 3e 64 44 a4 be
       0.3457334 0.30916598 0.13327132 -0.32083428
0002b0 86 c6 0a 3e 8e 42 39 3e 30 82 20 3e c1 6f f8 3c
       0.13552293 0.18091795 0.15674663 0.030326726
0002c0 5b 5b f7 3e 6e 38 00 3f 1e 0d fe bd d7 93 e9 be
       0.48311886 0.50086105 -0.12404846 -0.45620605
0002d0 1f 99 95 bf f7 4b 90 be 19 84 14 3f fb 71 bf 3e
       -1.1687354 -0.28182957 0.58014065 0.37391648
0002e0 3b d0 e3 3e 1d d1 7c 3e 10 cb 74 3e d2 d6 b0 be
       0.44494805 0.24689145 0.23905587 -0.34538895
0002f0 87 1e 1e 3d 29 5e 19 3f f8 3e b7 3d 66 ca 0e 3f
       0.038603332 0.599093 0.08947557 0.55777586
000300 a2 2f 29 bd 14 66 69 3e 37 60 d6 be 99 8c 96 be
       -0.04130519 0.22792846 -0.4187028 -0.29404142
000310 4c 58 03 be ff e0 33 3e 3c 1c e1 3e 4c 6b a8 be
       -0.12826651 0.17566298 0.43966854 -0.3289436
000320 d5 cb 4c 3e 80 31 17 3f 40 db bf 3c 47 c6 bb be
       0.19999631 0.59059906 0.023419976 -0.3667471
000330 b1 ba 87 be 96 60 1b 3d b7 14 34 3e 76 2d 2a 3e
       -0.26509622 0.03793391 0.17586027 0.16618904
000340 d7 3d b5 bd 20 c6 d6 be 03 56 56 be 5d f8 a1 3e
       -0.08849686 -0.41948032 -0.20931248 0.316348
000350 69 bd a2 bf 6c 3a b6 bd 00 fe 4a bf 45 be a9 be
       -1.2714053 -0.08897862 -0.79293823 -0.33152977
000360 ea c0 7f 3e 86 cc b5 3d 11 33 07 bd 9d 06 61 3e
       0.24975935 0.088769004 -0.033007685 0.21975179
000370 b1 18 78 be 8f 9a 88 be 32 f4 df 3e b2 39 c2 be
       -0.24228169 -0.2668042 0.43740994 -0.37934643
000380 9d 55 ac 3c 24 a5 ed be 55 1e 02 be b4 c4 9e 3e
       0.021036917 -0.46415055 -0.12706883 0.31009448
000390 83 a3 6a be b8 33 27 bb c2 e7 5b 3d 42 ea bb bc
       -0.22913937 -0.0025513005 0.05368782 -0.022938851
0003a0 f5 21 25 3e 87 65 e7 3e 61 8c 95 be 14 52 2a 3f
       0.16126235 0.45194647 -0.29208663 0.6653149
0003b0 13 65 21 be b3 b3 86 bd 9f 6d 96 bd c7 52 81 3e
       -0.15761213 -0.06577244 -0.07345127 0.25258467
0003c0 1a 76 15 3f 0f 14 ff 3e c8 c1 0a 3f 7f 4f d9 3d
       0.58383334 0.4981999 0.54201937 0.10610866
0003d0 e0 a3 60 bf 91 1e c3 be 32 9d b5 3e d8 80 dd 3d
       -0.87750053 -0.38109258 0.35471493 0.108155906
0003e0 fe 7b 20 3e 1f c0 77 3e ee 4e 12 3e 0e 2f 1a be
       0.156723 0.24194382 0.14287922 -0.15057012
0003f0 9c 6f eb 3d 4f a0 4e 3c dd f0 4c be 2e 92 1a bf
       0.11495897 0.012611463 -0.20013757 -0.603793

layer1.agg.bias f4 [32]
000000 00 00 00 00 00 00 00 00 00 00 00 00 00 00 00 00
       0.0 0.0 0.0 0.0
000010 00 00 00 00 00 00 00 00 00 00 00 00 00 00 00 00
       0.0 0.0 0.0 0.0
000020 00 00 00 00 00 00 00 00 00 00 00 00 00 00 00 00
       0.0 0.0 0.0 0.0
000030 00 00 00 00 00 00 00 00 00 00 00 00 00 00 00 00
       0.0 0.0 0.0 0.0
000040 00 00 00 00 00 00 00 00 00 00 00 00 00 00 00 00
       0.0 0.0 0.0 0.0
000050 00 00 00 00 00 00 00 00 00 00 00 00 00 00 00 00
       0.0 0.0 0.0 0.0
000060 00 00 00 00 00 00 00 00 00 00 00 00 00 00 00 00
       0.0 0.0 0.0 0.0
000070 00 00 00 00 00 00 00 00 00 00 00 00 00 00 00 00
       0.0 0.0 0.0 0.0

layer1.agg.mlp.0.weight f4 [1, 64]
000000 70 31 37 bd 0c 7f 34 bd 20 f8 a4 bb 2e 41 a8 bd
       -0.04472488 -0.044066474 -0.0050344616 -0.08215557
000010 74 8d b6 3d ec ca 4b bd 68 a3 e4 bc 82 a5 83 3d
       0.08913699 -0.04975407 -0.02790995 0.064280525
000020 7c c2 cf 3d 7c 88 80 3d cc 87 ea bd a8 18 25 3d
       0.10144517 0.06276032 -0.114516824 0.040306717
000030 3a 3f ef 3d e0 de 2c bd 08 19 f5 bc f8 78 b3 3d
       0.116819814 -0.042204738 -0.029919162 0.08763307
000040 d4 3a 2b 3d da c6 b3 3d e8 f8 ac 3d 80 28 7a 3b
       0.04180415 0.08778162 0.084459126 0.0038171113
000050 08 b3 8b bd 68 31 2b 3d d4 e5 42 bd 64 7a f8 3d
       -0.06821257 0.041795164 -0.047582462 0.12132719
000060 f2 72 91 bd 2c 74 72 bd c0 cc 09 3b 66 5b a4 bd
       -0.07102002 -0.05919282 0.0021026582 -0.08025245
000070 40 79 c9 3b dc 2e 3e bd b0 81 d1 3d d8 b7 a4 3c
       0.0061484873 -0.046431407 0.10229814 0.020107195
000080 00 25 cd 3b 28 0b 14 3d e0 c2 b0 bc bc bc 4b 3d
       0.0062605143 0.036143452 -0.021577299 0.049740538
000090 f0 52 e2 bd 28 a6 df 3d 46 9e 88 bd 98 5b f5 3c
       -0.11050975 0.10920364 -0.06670813 0.029950902
0000a0 00 90 f9 3a 9c 8a 9c bd 80 6c ed 3b 5c e2 ee 3d
       0.0019040108 -0.07643625 0.0072456 0.116642684
0000b0 ec 91 61 bd 80 b4 37 bd 4c 68 ff bd f0 47 b6 bd
       -0.055070803 -0.044849873 -0.12471065 -0.0890044
0000c0 00 e5 5f 3a 58 be e4 3d c0 8a 0e bc c4 6e b8 bd
       0.00085408986 0.11169118 -0.008700073 -0.09005502
0000d0 2c cc 01 bd 90 1a 6a 3c a0 29 92 3d ec 1d 18 3d
       -0.031688854 0.01428856 0.071368456 0.03713791
0000e0 a0 3a 1f bd 18 3f df 3d 56 60 ec 3d 04 46 bb 3d
       -0.03887427 0.10900706 0.11541812 0.09144214
0000f0 f8 84 07 bd 00 55 20 bc 20 37 05 bd fa 9d a1 bd
       -0.033085793 -0.009785891 -0.032523274 -0.0789146

layer2.linear.bias f4 [16]
000000 e2 54 8f bd ab 95 fb 3d 40 27 1c 3e d3 aa 50 3d
       -0.06998612 0.12284406 0.15249348 0.05094416
000010 7f 89 4d be 89 eb 32 be 04 16 2a 3c 58 79 4f be
       -0.20071982 -0.17472662 0.0103812255 -0.20261133
000020 c6 51 3a 3c 8d 85 2e bd 74 0e 1e be 5c a2 9d 3d
       0.011372035 -0.042607833 -0.15435201 0.07696983
000030 e5 47 8a bd 79 bf 52 be 4e 7d 4c 3d ae d4 36 3d
       -0.06751994 -0.20580854 0.049924187 0.04463642
